seq2seq/models/aagreement_1.pt (torch_old, 261473 bytes, 10 tensors)

weight f4 [6, 3, 5, 5]
000000 60 c2 bf 3c b0 74 85 bb f8 c3 99 3d a4 87 6d bd
       0.023408115 -0.004072748 0.07508081 -0.057990685
000010 40 a8 4f bd c6 0c 38 bd 38 e0 04 3d 3a 5b de 3d
       -0.050697565 -0.044934057 0.032440394 0.10857244
000020 7e e8 c7 bd c2 74 ad 3d d4 29 82 bc 8c 94 d8 3d
       -0.09761141 0.084695354 -0.015889086 0.10575208
000030 5e 9e b5 3d 20 e4 1b bd ce 0f 38 bd 38 b6 fa 3c
       0.08868097 -0.038059354 -0.044936948 0.030604467
000040 db f6 9a bd 9c ac 7b bd 18 8f a8 bd 3c 57 08 3d
       -0.07566615 -0.06144391 -0.08230418 0.03328632
000050 d8 1b c2 bc de 1d 98 3d 34 32 b6 3d dc a4 5f 3d
       -0.023694918 0.07427572 0.08896294 0.05460058
000060 00 01 be ba 88 94 20 3d 78 ca 80 3c e4 af 16 3d
       -0.0014496148 0.03920415 0.015721545 0.036788836
000070 bc bb be 3d cc e2 79 bd 0c 32 bd 3d a0 1d 5e 3d
       0.09313151 -0.061007306 0.09238061 0.05422747
000080 30 31 bf bc 27 c9 c4 bd 48 f9 0c bd d0 d1 cb 3d
       -0.023338884 -0.09608679 -0.03441742 0.09952128
000090 f8 67 8d 3c 9c 7e 25 3d c0 0d c9 3c 97 c4 ba bd
       0.01726149 0.040403947 0.02454269 -0.09119528
0000a0 3c 9c c3 3d 7e fc 79 bd 60 3e 6e bb ec c9 f1 bc
       0.09551284 -0.06103181 -0.0036353096 -0.02951523
0000b0 54 e6 72 3d 7c 5f 7a 3d 06 df 00 bd 00 a1 b4 bd
       0.05930169 0.061126217 -0.03146269 -0.08819771
0000c0 84 b3 39 3d 29 f1 bb bd 90 55 97 3d 10 da ab bc
       0.045337215 -0.09176857 0.073893666 -0.020978004
0000d0 f8 66 77 bc a0 c1 71 bd 6e 9c b9 bd 40 9c 09 3b
       -0.015100233 -0.059022546 -0.0906304 0.0020997673
0000e0 4e fa 3b bd ea bd d1 bd 14 ae 97 3d d1 ce d3 bd
       -0.045893006 -0.10241301 0.0740625 -0.103421815
0000f0 e9 ca e5 bd da 1d 37 bd 58 3e 00 3c a0 c6 ea 3c
       -0.11220343 -0.044706203 0.007827364 0.028659165
000100 ee 36 df 3d 98 5f e7 3d 5f 1c b3 bd 90 72 32 bc
       0.10899149 0.1129753 -0.08745646 -0.010891572
000110 c4 17 e4 bc 4e 5e a1 bd da 4f 8e 3d b0 c6 44 3c
       -0.027843364 -0.07879315 0.06948824 0.012010261
000120 e0 48 a4 bd 30 71 b0 3d e8 b4 85 3d 90 6f 43 bc
       -0.08021712 0.08615339 0.06528646 -0.011928454
000130 96 3e 9a bd be 5f cf 3d 68 48 e2 bc f0 33 82 bc
       -0.075314686 0.10125683 -0.027622417 -0.015893906
000140 00 e7 d8 3d 80 ad b7 3d 12 cb a3 3d 18 0e 27 3d
       0.10590935 0.089686394 0.07997717 0.040784925
000150 00 17 b4 39 5b 0e e0 bd 8a d8 9d 3d c0 be 39 bc
       0.00034349412 -0.10940238 0.07707317 -0.011336982
000160 0c f6 13 3d 6e ef b3 3d 14 b2 fc bc e5 44 e4 bd
       0.03612332 0.08785902 -0.030846633 -0.11145953
000170 f8 74 8d bc c0 00 3b 3d 70 d3 89 bc f8 7a 48 bc
       -0.01726769 0.045655012 -0.016824454 -0.012236349
000180 eb 91 c2 bd 6e 19 35 bd c0 b7 a4 3a ac 2b b3 3d
       -0.09500488 -0.044213705 0.0012566969 0.08748564
000190 45 51 de bd ee 68 3a bd 73 5b bf bd fc a2 09 3d
       -0.10855345 -0.045510225 -0.093436144 0.0336027
0001a0 de d2 2c bd 16 75 af bd 90 7f b9 3d 58 48 d7 3d
       -0.042193286 -0.08567254 0.09057534 0.10511845
0001b0 5c 9e c5 3d 30 ce 94 3d 20 a4 25 bc 38 b8 44 3d
       0.09649345 0.0726589 -0.010109931 0.048027247
0001c0 5c 85 0f 3d e4 6d c3 3d ee 57 e2 3d 04 23 d2 bd
       0.03503929 0.09542444 0.110519275 -0.10260585
0001d0 12 7b b4 3d 86 f6 20 bd 60 03 c9 bd f0 06 2f bd
       0.08812536 -0.039297603 -0.09815097 -0.042731225
0001e0 9c 1b 54 3d 7e 67 16 bd 08 56 c7 bd ac 85 cf 3d
       0.051784143 -0.03671979 -0.09733206 0.10132918
0001f0 80 7e ff ba 3c 5b 57 bd 00 d5 8f 3d 10 4b a8 bd
       -0.0019492656 -0.052577242 0.070230484 -0.08217442
000200 73 a5 97 bd 79 b4 63 bd 18 7b a7 3d d0 6c ce 3d
       -0.07404604 -0.055592034 0.08177775 0.10079348
000210 01 35 cb bd ee 98 ea 3d a8 aa c4 3c 9e ce d7 3d
       -0.09922219 0.1145495 0.024007156 0.10537456
000220 60 e3 43 3c 18 42 fe 3c 84 aa 2d 3d 10 13 ba 3d
       0.011956066 0.031037375 0.042398944 0.09085667
000230 08 ea d7 3d 70 88 53 3c bc 32 0b bd b8 3d 9d bd
       0.10542685 0.012910947 -0.03398393 -0.076777875
000240 ea d0 88 3d 7c a8 cc bc b4 69 84 bc d0 0c 89 bd
       0.06680472 -0.024982683 -0.016163684 -0.06691897
000250 18 f9 17 bd 31 c9 6f bd 8c fd 92 3d 02 5e 88 3d
       -0.03710279 -0.05854148 0.071772665 0.066585556
000260 90 7d a2 3d 10 a3 ec 3b ba 53 c5 3d 41 af 70 bd
       0.079341054 0.007221587 0.0963511 -0.058760885
000270 40 e4 4a bd a0 09 6b bd 74 fd e4 bc f2 73 7f bd
       -0.049534082 -0.057382226 -0.027952887 -0.062366433
000280 b4 51 45 3d 3a c9 9e bd 84 e3 ce bc 72 e0 07 bd
       0.04817362 -0.07753225 -0.025254972 -0.033173032
000290 b6 e1 4a bd d0 55 06 3c eb 50 d8 bd 52 69 21 bd
       -0.04953166 0.00819917 -0.10562309 -0.039407082
0002a0 0c e3 09 bd 03 2e 7f bd 66 ce ce 3d 34 69 5f 3d
       -0.033663794 -0.06229974 0.10097961 0.05454369
0002b0 c0 5f 7d bc 6d 37 bb bd 4e ef c3 bd b2 6d 9a 3d
       -0.015464723 -0.09141431 -0.09567128 0.07540454
0002c0 2c 55 4f 3d 8d ba c9 bd e4 44 35 3d a6 b8 ea 3d
       0.050618336 -0.09850035 0.044255152 0.11461
0002d0 20 10 3e 3b 1c bb 18 bd 04 8f 9e 3d 32 7f bb bd
       0.002900131 -0.037287816 0.07742122 -0.0915512
0002e0 bb 9e c2 bd 90 77 c2 3d ba 20 d0 bd 68 cd 0c bd
       -0.09502932 0.09495461 -0.10162492 -0.03437558
0002f0 30 8f 51 3c c8 3e 67 bc 77 67 8d bd aa 9d 94 3d
       0.012790486 -0.014114089 -0.069045 0.072566345
000300 16 a2 40 bd 3c 84 9b 3d 6c 13 38 3d 20 b3 db bd
       -0.047029577 0.07593581 0.044940397 -0.10727525
000310 28 9d 91 3c fe 92 c9 3d 44 9a 23 3d 98 1c 69 3d
       0.017775133 0.0984249 0.03994204 0.056912035
000320 14 18 06 3d e8 25 de 3c e4 c7 05 3d 10 79 d9 3c
       0.032737806 0.027117684 0.032661334 0.026546985
000330 0a b2 1b bd fc 7f 38 bd 60 32 c8 3d 24 a0 c1 3d
       -0.03801159 -0.04504393 0.09775233 0.094543725
000340 30 e7 c8 3d a0 19 9f 3d 06 c0 cd bd 28 24 cc bd
       0.098097205 0.077685595 -0.10046391 -0.09967834
000350 2e 28 3a bd 38 bf a4 3d e0 8a 74 3d 63 e6 d5 bd
       -0.045448475 0.080442846 0.059702754 -0.104443334
000360 84 4f b4 bd ec 32 e8 bd c4 59 a9 3d 58 bc 47 bc
       -0.08804229 -0.113378376 0.082690746 -0.012190901
000370 f0 92 9f 3c 2a d3 49 bd dc 1d 71 bd a6 8a e8 bd
       0.019479245 -0.049273647 -0.058866367 -0.1135457
000380 a6 ab ce bd 20 5d 21 bd f0 17 e7 3b 2b 6c 5b bd
       -0.10091333 -0.03939545 0.007052414 -0.053569954
000390 38 37 6f 3d e0 7d db 3d 7c 1f 9b 3d 84 3c f4 bc
       0.05840227 0.10717368 0.075743645 -0.029814012
0003a0 a4 82 a9 3d 98 ea 33 bd 58 d1 38 bc 42 13 40 bd
       0.08276871 -0.043924898 -0.01128038 -0.046893366
0003b0 8c d1 a0 bc 1a 0a c1 bd 20 c8 8a 3d b2 4b 81 3d
       -0.01963117 -0.09425755 0.06776452 0.06313266
0003c0 78 76 de bc 79 17 9c bd dc e6 c1 bd 10 2a e1 bb
       -0.0271561 -0.076216646 -0.09467861 -0.0068714693
0003d0 7e b6 86 3d f4 64 07 3d b8 5d 04 3d 7a 2a 89 3d
       0.06577776 0.03305526 0.03231594 0.06697555
0003e0 1c 1d 58 bd c0 15 52 3d 9c bf 20 bd 14 b2 0e bd
       -0.052762136 0.051290274 -0.039245233 -0.034837797
0003f0 54 7b 38 3d 14 9b b6 3d 44 50 86 3d d0 a9 ab bb
       0.04503949 0.089162976 0.06558278 -0.005238749

bias f4 [6]
000000 98 ef 0e bc 8c c2 8b bc d2 d7 cf 3d 50 3a dc 3c
       -0.008724116 -0.01706054 0.10148586 0.026883274
000010 6e b8 ea bd 94 9f 0e 3d
       -0.114609584 0.034820154

weight f4 [16, 6, 5, 5]
000000 60 2a 4a 3d 4a fd f7 bc b8 4e 5c 3d c0 fd 88 3c
       0.04935682 -0.030272145 0.05378601 0.01672256
000010 be 91 35 bd e0 02 58 bd a2 5e e3 bc 88 e6 79 bd
       -0.044328444 -0.052737117 -0.027755085 -0.061010867
000020 fa a5 8c bd 12 fe a1 3d 06 28 0b 3d c0 ea 65 bd
       -0.06867595 0.07909788 0.033973716 -0.05613208
000030 9a 28 93 3d 6e b6 96 bd 30 66 71 bd 0c c2 b4 3c
       0.071854785 -0.073590145 -0.058935344 0.022065185
000040 00 34 19 ba dc 89 42 3d 4d 97 98 bd 51 39 9d bd
       -0.00058442354 0.047494754 -0.07450733 -0.07676948
000050 fa a6 83 3d d2 f7 a0 3d 82 e3 9c bd c0 81 f2 3b
       0.064283326 0.07859768 -0.07660581 0.0074007213
000060 74 1d 65 bd 30 33 5f bd 90 94 12 bd 04 1b f2 bc
       -0.05593629 -0.054492176 -0.03578621 -0.029553898
000070 ed e2 09 bd 4e cb 89 3d 04 6b 55 bd 4c c0 c5 3c
       -0.03366368 0.067282304 -0.05210401 0.024139546
000080 a4 dd 95 3d c8 39 54 3d d4 fd ee 3c e0 ed 55 bb
       0.07317665 0.051812917 0.029173769 -0.0032643005
000090 78 bc 1f 3d 32 f5 8a bd a0 03 9f bc a0 59 37 bb
       0.038998097 -0.067850485 -0.019410908 -0.0027977005
0000a0 c0 1b 69 3c 6a 92 81 bd 08 2c 4f 3d 34 d8 70 bd
       0.0142278075 -0.063267544 0.0505791 -0.058799937
0000b0 00 b1 cb 3b c8 d2 3a bc c8 01 2c bc e4 18 1f 3d
       0.0062161684 -0.011402793 -0.010498472 0.038842097
0000c0 d0 7e 72 3d 31 31 91 bd 20 ab 18 bb 40 7e b7 bb
       0.05920297 -0.07089461 -0.0023295358 -0.005599767
0000d0 b8 b6 57 bd 2c f7 0d 3d c2 3a 11 3d 38 c7 19 3c
       -0.05266449 0.03465955 0.035456426 0.009385876
0000e0 db ae 70 bd fc 42 6b bd ee 98 f8 bc 30 2c eb 3b
       -0.058760505 -0.05743693 -0.03034636 0.0071768984
0000f0 a0 e6 26 bc 58 c6 4d 3d 90 4c a5 3d f0 47 b0 bb
       -0.010186821 0.050237983 0.08071244 -0.0053796694
000100 42 f9 81 bd 6b c6 30 bd fa 02 12 3d 46 33 96 bd
       -0.0634637 -0.043157976 0.03564737 -0.073339984
000110 b1 4c 25 bd 84 01 68 3d f4 31 a1 3d 00 1f 5a ba
       -0.04035634 0.05664207 0.07870856 -0.00083206594
000120 7a 7f a2 3d 8f 49 8c bd 4c c9 75 3d 64 25 48 3d
       0.079344705 -0.06849968 0.060006425 0.048863783
000130 12 c0 97 3d d0 cd 06 bd 7e 76 b3 bc de fb 80 bd
       0.074096814 -0.03291112 -0.021907087 -0.0629804
000140 ca 82 d0 bc 60 20 5f bc 0b b2 4e bd c9 0f 22 bd
       -0.02545299 -0.013618559 -0.050462764 -0.039565835
000150 88 25 8d bd 23 2b 87 bd d8 9d 85 3c 38 d3 3f bc
       -0.06891924 -0.066000246 0.016310617 -0.011708073
000160 33 45 93 bd c3 67 89 bd 8f b2 48 bd a0 d1 9a bc
       -0.07190933 -0.06709244 -0.04899841 -0.018898785
000170 80 12 65 3a e2 71 6f bd 74 02 8d 3c e0 e7 64 bc
       0.00087384135 -0.058458216 0.017213084 -0.013971299
000180 64 aa a2 bc 48 7e 92 3c b8 ea 56 3d 78 11 8d bc
       -0.01985664 0.017882481 0.05246994 -0.017220244
000190 aa ef 87 bd a0 f0 30 3c b5 e1 38 bd 69 36 48 bd
       -0.06637509 0.010799557 -0.045137126 -0.048880015
0001a0 86 ee c1 bc 0c ec d5 3c c4 41 2f bd 8f 43 1c bd
       -0.023673307 0.026113532 -0.04278733 -0.038150366
0001b0 70 d8 e2 bb f4 05 53 3d ec ad 03 3d e4 6c 75 3d
       -0.006922774 0.05151935 0.032148287 0.0599183
0001c0 d6 b7 13 bd 08 31 d1 bc 1a 95 83 bd 03 74 9f bd
       -0.03606399 -0.025536075 -0.06424923 -0.07785799
0001d0 0c 8f b5 bc 20 58 13 bb e8 4b 85 3c d6 fa fc bc
       -0.022162937 -0.0022482947 0.016271546 -0.030881327
0001e0 40 7a 4e 3c 60 e5 be 3b 40 03 4f bb 52 03 87 bd
       0.012602389 0.0058256835 -0.003158763 -0.0659243
0001f0 6c 71 af 3c 64 af 57 3d 00 32 92 39 85 eb 31 bd
       0.021416388 0.0526575 0.00027884543 -0.0434375
000200 ec cd 99 3c a4 c7 dd 3c 5e 19 a3 bd 6c ef c3 3c
       0.018774949 0.027072735 -0.07963823 0.023917876
000210 44 1c 2f bd b4 eb 8a bd 9c 38 57 bd a8 51 51 bc
       -0.042751566 -0.06783238 -0.05254422 -0.012775816
000220 36 3a 23 3d 4b c4 4a bd 3c e6 95 bc c4 b5 84 3c
       0.039850436 -0.049503606 -0.01829826 0.016199954
000230 b2 aa 46 bd 74 73 c7 bc b8 4c 9a bd 74 cb bf bc
       -0.04850263 -0.024347045 -0.07534164 -0.023412444
000240 5a 13 5a bd 6c b7 23 3d c0 52 df bb 54 20 63 bd
       -0.05324111 0.039969847 -0.0068152845 -0.055450752
000250 14 36 5b bd 94 17 fd bc ea a0 9c bd a7 2e 98 bd
       -0.05351837 -0.030895032 -0.076478794 -0.07430773
000260 4c 2d 70 3d bc 33 83 bc ce fc 73 bd 81 13 9b bd
       0.05863695 -0.01601588 -0.059567265 -0.075720794
000270 82 16 80 3d 54 98 87 3c 38 e5 56 3d 40 bb 1f 3c
       0.06254293 0.016552128 0.052464694 0.009749234
000280 f8 43 8e 3d e2 35 17 3d 10 fd c1 bc 94 3d 9e bd
       0.06946558 0.03691662 -0.02368024 -0.07726589
000290 bc 75 86 3c f2 13 87 3d 22 0e 90 3d dc 32 3b bd
       0.016413562 0.06595601 0.070339456 -0.0457028
0002a0 68 f3 8d 3c b4 10 86 3d 10 c3 94 bc ac 89 63 bd
       0.01732798 0.065461546 -0.01815942 -0.055551216
0002b0 2c f0 7e 3d 80 1a 67 bc e8 b4 b3 bc b8 40 d6 3c
       0.062240764 -0.014105439 -0.021936849 0.026153907
0002c0 9b 33 25 bd c9 89 17 bd 2c ce ff bc 0a 73 a1 bc
       -0.040332418 -0.036996637 -0.03122624 -0.019708175
0002d0 08 53 37 bc e0 e3 9a 3b 50 c9 a3 3d 92 35 61 bd
       -0.01118923 0.004726872 0.07997382 -0.05498273
0002e0 00 e5 48 bd b6 12 86 bd 4c 39 e6 3c dc dd d9 3c
       -0.049046516 -0.065465376 0.028103493 0.026595049
0002f0 40 a6 03 3b 8c 6c 74 bd 10 f5 da 3b 04 eb 9f 3d
       0.0020088106 -0.05967383 0.0066820458 0.078084975
000300 26 f9 8a 3d bc b8 44 bd 68 9f 4c 3c 34 4d 9d 3c
       0.067858025 -0.04802774 0.012489177 0.019201852
000310 b0 f3 3c bd 84 01 e1 3c 00 2b a2 ba 50 31 9d 3d
       -0.046130836 0.027466543 -0.0012372434 0.07675421
000320 28 7b 88 3d c4 f5 84 3d ce c5 a9 bc 7a 33 8f bd
       0.06664115 0.064921886 -0.020724203 -0.0699224
000330 48 2b 8f bd f8 4d 48 3d dc 88 97 bc 64 aa 1f bd
       -0.06990677 0.04890248 -0.018497877 -0.038980857
000340 a8 8c 38 3d ac 41 5b 3d 04 45 cf 3c 4e de 12 3d
       0.045056015 0.053529426 0.025301464 0.035856538
000350 fd a2 a6 bd 70 dc 60 bd 88 b3 85 3d 9c e4 39 3d
       -0.08136556 -0.054897726 0.065283835 0.045384035
000360 a5 25 02 bd 87 27 a1 bd b0 32 6c 3c c0 75 0c 3b
       -0.031774182 -0.07868867 0.014416382 0.002143249
000370 ec a3 c1 3c a8 10 1a bc d8 ca cb bc 40 44 28 3b
       0.023637734 -0.009403385 -0.024876997 0.0025675446
000380 d2 85 89 3d d8 46 d0 3c d7 c2 9f bd fc 8b ae bc
       0.06714977 0.025424406 -0.078008346 -0.021306984
000390 68 ff 73 bc fe 82 93 bd 46 40 86 bd 38 1e 31 3c
       -0.014892437 -0.07202719 -0.06555228 0.010810427
0003a0 be 1c 86 3d d7 6b 94 bd 50 ff 92 3d 86 7c 04 bd
       0.06548451 -0.07247131 0.07177603 -0.032345317
0003b0 34 db 83 bd cd 59 97 bd e0 88 c3 bb f0 31 8a bc
       -0.06438294 -0.07390175 -0.0059672445 -0.016869515
0003c0 24 48 31 3d 9a 97 8f bd d9 e7 82 bd ae e8 e9 bc
       0.04328169 -0.070113376 -0.06391878 -0.028553333
0003d0 38 1b 0e 3c a0 f3 5f 3c 42 6f 12 bd 02 0f 07 bd
       0.008673482 0.013668925 -0.035750635 -0.032973297
0003e0 48 5c 90 3d 30 a6 6a bd 14 ec 4e 3d 42 ed 07 3d
       0.07048851 -0.057287395 0.05051811 0.03318525
0003f0 30 0d f2 3c c2 f1 76 bd a4 95 31 3d 44 28 76 3d
       0.029547304 -0.060289152 0.0433556 0.060096994

bias f4 [16]
000000 dc 9d 6b bd 70 cb 1d bc d2 18 a0 3d f0 e7 2a 3c
       -0.057523593 -0.009631023 0.07817234 0.010431275
000010 b6 4b 63 bd e0 1c 93 3b 80 9c fc 3b 70 c2 60 3d
       -0.055492125 0.004489526 0.007709086 0.05487293
000020 d1 56 7d bd 80 d1 db 3a 90 d9 22 bd 00 6b 87 bc
       -0.061850373 0.001677081 -0.039758265 -0.016530514
000030 8e 9d 13 bd f0 ac fe bb 10 c8 05 3d 60 19 f8 bc
       -0.036038928 -0.0077720806 0.032661498 -0.030285537

weight f4 [120, 400]
000000 1d b7 42 3d 00 57 61 bb 5a 63 39 bd 8e ab d8 3c
       0.04753791 -0.0034384131 -0.045260765 0.026448991
000010 f6 75 98 bc 71 c8 2c 3d 5d 32 30 3d 59 a2 2b 3d
       -0.018610936 0.042183343 0.04301678 0.041902874
000020 a8 7c fe bb b0 d5 d8 3b de a5 ab 3c 48 c9 32 bd
       -0.007766325 0.0066172704 0.020953115 -0.043648988
000030 80 96 29 ba 47 b8 34 bd 23 8a e5 bc 4a ba dc bc
       -0.00064692646 -0.044121053 -0.02801997 -0.026944298
000040 c4 0a 7a 3c 1a b8 c0 bc 8d c9 e1 bc c0 70 e9 bc
       0.015261356 -0.023525286 -0.027561927 -0.028496146
000050 a0 30 e4 bc ac 20 01 3c e8 a4 02 bd 93 fc 30 3d
       -0.027855217 0.007881325 -0.031895548 0.043209624
000060 f9 b9 1f 3d 39 df 2c 3d 84 f2 63 3c 40 6f c1 bb
       0.038995717 0.04220507 0.013912801 -0.0059031546
000070 e2 ea 4a bd 0e bb f6 3c e0 d1 ad bc cc f5 28 bc
       -0.049540408 0.030118492 -0.02121824 -0.010312509
000080 93 d5 2a 3d 80 fc c0 3b 2f c8 3b 3d a8 bc 05 bc
       0.041707586 0.0058894753 0.045845207 -0.008162655
000090 e8 b5 b0 3b 23 a1 1a 3d 15 03 3b bd 3c f4 8f bc
       0.0053927787 0.03775133 -0.045657236 -0.017572515
0000a0 22 9d 8d 3c ed 71 47 bd 68 cc b3 3b 2d c4 ae bc
       0.01728684 -0.048692632 0.0054870136 -0.021333778
0000b0 fa 36 c1 3c 52 b1 ce 3c fa 0c ec bc cc 8c 3b bc
       0.023585785 0.025231037 -0.028814781 -0.011447143
0000c0 2d bd cf bc 36 31 ad 3c d6 32 e2 3c 50 16 20 bb
       -0.02535876 0.02114163 0.027612131 -0.0024427362
0000d0 97 6a 42 3d e5 d9 32 3d 3d 68 44 3d c4 da 75 3c
       0.047464933 0.04366483 0.047950972 0.015005771
0000e0 08 dd 33 bc 4e 19 12 bd 50 a6 30 bd 72 70 ef 3c
       -0.010977991 -0.035668664 -0.043127358 0.029228423
0000f0 28 ae 19 bd de ac a4 3c 06 00 ee 3c 6c 93 7d bc
       -0.037519604 0.02010196 0.029052746 -0.015477043
000100 be 9f a5 3c 07 14 cd bc 5d 2b 19 bd fd 24 a5 bc
       0.020217773 -0.025033964 -0.03739487 -0.020159239
000110 0b ce 20 3d 40 cd 4b bd 50 77 f2 bb 8b 20 33 3d
       0.039258998 -0.04975629 -0.007399477 0.043732207
000120 dd 66 c2 bc 6c 4a 04 3c 73 f4 37 3d ca 02 be 3c
       -0.02373069 0.008074384 0.04491086 0.02319469
000130 51 13 0a 3d ca 77 ed bc 22 f8 87 3c 92 1f ad 3c
       0.033709828 -0.028987784 0.016597811 0.021133218
000140 b0 5c 45 bb 9d 38 07 bd 20 93 6d bb a6 33 80 3c
       -0.003011506 -0.033012975 -0.0036251023 0.015649628
000150 39 8d 2d 3d 60 6b 27 bb 1d 40 00 bd 00 cf a9 bc
       0.04237101 -0.0025546178 -0.031311143 -0.020728588
000160 f3 2e b7 bc 67 87 9f bc ac cb 7d 3c 40 87 2e 3c
       -0.022361254 -0.019473745 0.015490454 0.010652363
000170 e9 a1 3c 3d 64 05 7e 3c be 1d c4 3c c0 b4 70 ba
       0.046052847 0.015504215 0.023939963 -0.0009182207
000180 fe de 16 bd d3 69 2c 3d f3 cd 1a bd 28 b4 12 bc
       -0.036833756 0.04209311 -0.037794065 -0.008954085
000190 d8 4a 7e bc b4 31 12 bc 79 94 34 3d 11 00 0c 3d
       -0.015520774 -0.008922983 0.044086907 0.03417975
0001a0 5f 3e 40 bd d1 b2 31 3d 28 d3 9a bb e4 90 93 bc
       -0.04693448 0.043383423 -0.004724879 -0.018013425
0001b0 a1 8c 17 3d cd 9b 04 3d a8 94 3d bd ca 66 08 bd
       0.03699935 0.032375146 -0.046284348 -0.033301152
0001c0 28 ea be bb 0b f8 26 bd 06 e4 f8 3c 02 f2 92 3c
       -0.0058262534 -0.040763896 0.030382168 0.017937664
0001d0 e2 db 3f bd 80 da 36 bc e0 45 10 bd 86 9f 2b bd
       -0.046840556 -0.011160493 -0.035222888 -0.04190018
0001e0 e0 11 3f bd 6b 6a 30 3d c5 bd 2f 3d 93 d8 07 3d
       -0.046647906 0.043070238 0.042905588 0.033165526
0001f0 e6 59 80 3c 40 dd ff bb 2f 07 42 3d fa 75 20 bd
       0.015667867 -0.0078083575 0.047370132 -0.03917501
000200 3a 72 00 bd e8 c6 3f bc d5 50 18 bd 13 cb f5 bc
       -0.031358935 -0.011705138 -0.037186462 -0.03000406
000210 2e 8f cf 3c 88 4c 09 3c a8 62 9a 3b 30 f1 08 bb
       0.025336828 0.008380063 0.004711468 -0.0020895712
000220 25 49 05 3d 86 da e2 3c e2 06 c4 3c 28 08 3d 3c
       0.03254046 0.02769209 0.023929063 0.011537589
000230 38 54 44 bd 56 f7 98 bc 07 ae c6 bc f1 c4 01 3d
       -0.04793188 -0.018672626 -0.024252905 0.03168196
000240 8c 6c 44 bc 82 85 49 bd 52 cb cb 3c 26 81 fd 3c
       -0.01198877 -0.04919959 0.024877224 0.030945372
000250 6c c8 03 3c 40 f4 b6 ba ba 7e 8d 3c b5 0d 21 3d
       0.00804339 -0.001395829 0.017272342 0.039319713
000260 b2 bb 29 bd b2 e6 f3 3c 6f 16 07 3d e0 c7 73 bc
       -0.041438766 0.02977309 0.03298038 -0.014879197
000270 06 97 94 3c 40 bc dd 3a 60 e3 a3 bc a3 3e 13 bd
       0.01813842 0.0016917065 -0.020005882 -0.035948407
000280 80 9a 4c 3b 98 9b 64 bc 50 0a 03 bd 27 c7 36 3d
       0.003122002 -0.013953112 -0.031992257 0.04462352
000290 13 4a 3b bd 18 a1 55 bc ee c1 09 bd 90 b4 8e 3b
       -0.04572494 -0.013038896 -0.03363221 0.004355021
0002a0 8a f4 21 bd c0 f6 52 3a 7d 1b 40 bd cd b0 30 bd
       -0.03953985 0.0008047633 -0.046901215 -0.04313736
0002b0 20 4d 41 3b 18 00 ea bb 92 49 a3 3c 98 d7 41 bd
       0.0029495433 -0.0071411245 0.019932542 -0.047324747
0002c0 80 d2 9e b9 50 65 e4 bb 77 82 23 3d 80 30 dd bb
       -0.00030292943 -0.006970085 0.039919343 -0.0067501664
0002d0 08 ab 2d bd d4 8c 0a bd 53 51 28 3d d4 2a 34 bc
       -0.042399436 -0.03382571 0.04109318 -0.010996539
0002e0 97 5d 47 bd 58 02 1d bc 63 0e 12 bd 56 3e ab 3c
       -0.04867324 -0.009583078 -0.03565825 0.020903748
0002f0 93 08 cf bc 2a b8 dc 3c 25 0a 22 3d 7b aa 2a 3d
       -0.025272643 0.026943285 0.039560456 0.04166649
000300 a7 85 4c 3d b9 b6 25 3d 80 38 08 bd 07 68 2d bd
       0.04993215 0.04045746 -0.033257008 -0.042335536
000310 67 08 c3 bc dd 6c 42 3d af 20 33 3d 4c 59 71 bc
       -0.023807717 0.0474671 0.04373234 -0.014730763
000320 c0 a0 a0 3b 27 0c fe bc 2c d4 13 bc 6d e6 3c 3d
       0.0049019754 -0.031011654 -0.009022754 0.04611819
000330 3d d6 d0 bc 43 ef ba bc aa 13 c2 3c cd 24 20 bd
       -0.025492782 -0.022819167 0.023691017 -0.039097596
000340 48 e4 45 bd de 35 9b 3c e7 0f bc bc 7e 3a d9 3c
       -0.04831341 0.018946584 -0.022956802 0.026517149
000350 ff e3 3c bd e6 e0 ec 3c de 49 e3 3c b8 e9 2b bc
       -0.04611587 0.028915834 0.027745184 -0.010492735
000360 1a 18 c3 3c 30 f7 a4 3b 18 3b 1e 3c a0 b3 5a bc
       0.023815203 0.00503435 0.009657644 -0.01334849
000370 fb ba 49 bd 60 8e 4a bc 82 bc a7 3c 26 3d 00 bd
       -0.049250584 -0.012363046 0.02047563 -0.031308316
000380 18 b4 9d 3b bd 6e 25 bd c5 e3 26 bd 58 f6 99 3b
       0.0048127286 -0.04038881 -0.04074456 0.004698556
000390 85 40 4a 3d 04 d7 50 3c a0 8b b3 bc d8 8c 3c 3c
       0.049377937 0.012746576 -0.021917164 0.011508189
0003a0 1a bb 90 bc 00 ad 16 bc 20 0b 14 3c fd 55 21 bd
       -0.017667342 -0.00919652 0.0090358555 -0.039388645
0003b0 03 8d f9 bc 5a 43 96 bc 38 98 1b 3c aa 03 d0 bc
       -0.030462747 -0.018342663 0.009496741 -0.025392372
0003c0 34 bf 67 3c 92 b2 10 bd 44 8e 72 3c 07 54 1a 3d
       0.0141447075 -0.035326548 0.014804427 0.03767779
0003d0 a6 f0 81 bc 16 ec 88 bc 1a 50 9e 3c 68 3e 14 bd
       -0.01586182 -0.016714137 0.019325305 -0.036192328
0003e0 ec 82 6e bc c3 58 13 3d 78 2e 1e 3c 26 0d af 3c
       -0.014557581 0.03597332 0.009654634 0.021368574
0003f0 10 18 96 bb 69 9e 0e 3d 94 57 26 3c e2 e1 d9 3c
       -0.004580505 0.03481904 0.010152716 0.026596967

bias f4 [120]
000000 58 03 bf bb de c5 95 3c 86 5c d7 3c 10 b2 a0 bb
       -0.005829256 0.018282827 0.026289236 -0.004904039
000010 39 76 02 3d 3a 63 87 3c b9 73 0e 3d e8 61 96 bb
       0.031851027 0.016526807 0.03477833 -0.004589308
000020 f4 9e 3a 3c a3 a4 16 bd b7 00 c6 bc 14 52 06 bd
       0.011390436 -0.036778104 -0.024170263 -0.03279312
000030 20 a3 9e bc 41 a0 29 3d 0d 91 19 3d 60 c6 26 bc
       -0.019364893 0.041412596 0.037491847 -0.010179132
000040 80 2b 46 3b 75 7d 09 bd ad 9b 07 bd 37 dc 31 3d
       0.003023833 -0.03356691 -0.03310745 0.043422904
000050 f1 52 44 3d 4b 06 1a bd e3 19 1a 3d 3a 4e 21 bd
       0.04793066 -0.037603658 0.037622344 -0.039381243
000060 cc ce 03 bd 62 78 b4 3c 49 46 2f 3d d8 f8 7e bc
       -0.03217964 0.02203006 0.04279164 -0.015562259
000070 d8 72 68 bc 20 5c 77 bc b6 16 92 3c f8 84 6a bc
       -0.014187537 -0.015097648 0.017833095 -0.014313929
000080 8f 77 0a 3d 8a 45 f2 bc 18 48 e0 3b ea b9 cc bc
       0.033805426 -0.029574174 0.0068445317 -0.024990994
000090 c8 3d 29 3c c0 c1 b0 3b 9d e1 3e 3d d9 e7 01 3d
       0.010329671 0.0053941905 0.04660188 0.031715248
0000a0 aa 94 f1 3c da c2 ba bc 0a 9c 85 bc 3f d5 2d bd
       0.029489834 -0.02279799 -0.016309757 -0.042439695
0000b0 58 02 12 bc 73 75 48 3d 8a 9b 81 bc 61 52 37 3d
       -0.008911692 0.048940133 -0.015821237 0.044756297
0000c0 4a d8 a7 bc bf 41 0e 3d e2 08 bc 3c d8 49 41 3c
       -0.020488877 0.03473067 0.022953454 0.011797391
0000d0 00 65 e3 bb d2 e8 3f bd 80 89 40 3c cf ec 3d 3d
       -0.0069395304 -0.046852894 0.011751533 0.046368416
0000e0 cd 63 37 bd 9d cf 30 bd 9b a2 0a 3d 13 4c 9e bc
       -0.04477291 -0.043166745 0.03384648 -0.019323384
0000f0 fd 46 b3 bc 5a b3 f9 bc cc 44 53 3c cc 68 38 3c
       -0.021884436 -0.03048103 0.01289482 0.011255454
000100 e0 ff 25 bc ac 3d 77 3c 5a 2a a7 bc 40 99 fe 3a
       -0.010131806 0.015090387 -0.020405937 0.0019424334
000110 9f a8 22 3d 12 0c d6 3c a0 bb 22 3b 26 d7 fc 3c
       0.03971159 0.026128802 0.0024831071 0.03086431
000120 1a 32 1f bd 38 01 2a 3c e6 11 ca 3c 30 57 43 3b
       -0.03886614 0.010376267 0.024666738 0.0029806606
000130 4d 0e c9 bc 04 19 66 3c d1 8f 06 3d 43 38 a4 bc
       -0.024542952 0.01404405 0.032851998 -0.020046359
000140 2d ab d9 bc 8a de 34 bd bd fe a6 bc c0 c3 b5 ba
       -0.02657088 -0.044157542 -0.02038514 -0.0013867542
000150 d2 68 d4 3c e0 f1 23 bb 08 43 0c bc 28 19 1b bc
       0.025928888 -0.0025015995 -0.008560903 -0.009466447
000160 e0 30 5a bb 15 63 42 3d d8 1a 46 bc c2 4a a1 3c
       -0.0033293292 0.047457773 -0.012091361 0.019688968
000170 93 ba 33 3d 12 1d c5 3c 7d f9 2c bd 00 62 8e ba
       0.043879103 0.024061713 -0.042230118 -0.0010862947
000180 47 c0 08 3d 40 81 3b bc 9c 69 7c 3c 8e 48 8f 3c
       0.033386495 -0.01144439 0.015406039 0.017490651
000190 c3 6b b2 bc 0a 72 b7 bc 30 21 c6 bc 30 93 1c bd
       -0.0217799 -0.022393245 -0.024185747 -0.038226306
0001a0 1b 23 26 3d e0 33 50 bb b6 78 06 bd 30 10 db 3b
       0.040560823 -0.00317692 -0.032829963 0.0066852793
0001b0 67 fc 10 3d 1e 8b 87 3c fe 33 1a bd d0 04 95 3b
       0.03539696 0.016545828 -0.03764724 0.004547693
0001c0 05 b1 2a bd d8 a3 0d bc b3 40 10 3d 91 20 22 3d
       -0.041672725 -0.00864502 0.035217952 0.03958184
0001d0 c0 bc d5 ba 94 97 29 bc a1 9e 40 3d ec b7 77 bc
       -0.0016306862 -0.01035108 0.04702628 -0.015119534

weight f4 [84, 120]
000000 b0 1d 8d 3d 95 67 92 bd 78 55 a1 3d fc 8e bd bc
       0.06890428 -0.07148663 0.0787763 -0.02313947
000010 6e 13 a1 bd 55 9c 58 bd c8 c3 7a 3d 7c 05 99 bc
       -0.07865034 -0.052883465 0.061221868 -0.018679373
000020 2e 42 9e bd 10 04 7f 3d 4b bb 16 bd b7 f8 ac bd
       -0.077274665 0.062259734 -0.03679971 -0.08445876
000030 b8 2b 53 bc 80 f4 e1 3a ab e5 88 bd 9d 50 91 bd
       -0.012888841 0.0017239004 -0.06684431 -0.07095454
000040 18 aa 5d 3d e4 9c ec bc 40 29 81 3b a0 64 a2 3d
       0.054117292 -0.028883405 0.003941685 0.07929349
000050 aa 0c b1 3d 88 4a da 3c 44 0f 9f 3d 00 2e 20 3d
       0.086449936 0.026646867 0.077665836 0.03910637
000060 fc f8 40 3d c8 d9 aa bd 90 61 4f 3c 94 c4 ae bc
       0.04711245 -0.0834232 0.012657538 -0.02133397
000070 96 78 a6 bd e0 86 16 bb 9b 0c 05 bd 1c 57 a8 3c
       -0.08128469 -0.0022968575 -0.032482725 0.02054935
000080 4e fe 96 3d 90 1e aa 3d 7c 60 a9 3c f0 c6 1f 3d
       0.073727235 0.083066106 0.02067589 0.03900808
000090 a4 66 e3 bc 1e 4b 81 3d ba 53 55 bd 9c 6f a6 bd
       -0.027758904 0.063131556 -0.0520818 -0.081267565
0000a0 5c 52 a4 bd 40 d1 5d bd e0 47 fd bc 58 5a 55 bd
       -0.08023521 -0.054154634 -0.030918062 -0.05208811
0000b0 b0 93 59 bd 38 93 90 3d 10 33 aa bb 6e 5d a6 3d
       -0.05311936 0.0705933 -0.0051940754 0.08123289
0000c0 38 a8 47 3d 0a 97 ab bd 7c 9b 94 bd d7 3e 54 bd
       0.04874441 -0.08378418 -0.07256219 -0.05181774
0000d0 3c a7 4d 3d 80 16 53 bc 6e 64 a0 3d cc 51 3f 3d
       0.050208315 -0.012883782 0.078316554 0.046708867
0000e0 b8 84 b1 3d c6 a2 01 3d e0 a4 73 3c 24 ec 03 3d
       0.08667892 0.031649373 0.014870852 0.032207623
0000f0 b8 8b 31 3c 58 69 ea bc 1c 9c 53 bd f6 db 94 bd
       0.010836534 -0.028614685 -0.05166255 -0.07268517
000100 6c 53 73 3d a2 06 b9 3d 87 02 19 bd 04 e1 87 bd
       0.05940573 0.09034468 -0.037355926 -0.06634715
000110 80 95 5c 3a 44 3b df bc 94 70 91 bc d9 f6 1d bd
       0.0008414611 -0.02724994 -0.017753877 -0.03856549
000120 c6 70 09 bd 14 e8 cf bc 94 58 90 3d a9 3b 1c bd
       -0.033554815 -0.025379218 0.07048145 -0.038142834
000130 88 49 b0 bd f7 b4 42 bd 30 97 30 3d 68 87 d3 3c
       -0.08607775 -0.047535863 0.043112934 0.025821403
000140 d4 45 08 bd 90 6d b0 3d 4c 12 47 3d 2a c4 5a bd
       -0.03326972 0.086146474 0.048601434 -0.053409733
000150 c0 77 fe 3c 96 ea 1f bd d7 9e 54 bd 5a d7 7f bd
       0.03106296 -0.039042078 -0.051909294 -0.062461235
000160 00 bf cf 3c e8 50 57 3d 88 0d 8c 3d 9c a2 78 3d
       0.02535963 0.052567393 0.068385184 0.06070195
000170 2e 08 a2 bd f6 1d af bd 4c 3e c4 bc 58 81 82 3c
       -0.079117164 -0.085506365 -0.023955487 0.015930817
000180 70 6f 81 bc d0 6b 9c bd 16 7e 9e 3d bc fc 9f 3d
       -0.015800208 -0.07637751 0.07738893 0.07811877
000190 55 f6 9b bd 83 96 ad bd 24 03 39 3d 1a a6 8f bd
       -0.076153435 -0.084759735 0.04516901 -0.07014103
0001a0 00 35 6d 3c e0 14 8f 3c 06 d1 aa 3d e4 3c 43 bd
       0.014477968 0.017466009 0.08340649 -0.04766549
0001b0 88 25 99 bc c6 74 f4 bc 7c 7b d0 3c d0 06 ad bd
       -0.018694654 -0.029840838 0.025449507 -0.08448565
0001c0 f4 7d d9 bc 58 1f 3a 3c 2c f5 d2 3c 80 e2 f5 ba
       -0.026549317 0.011360012 0.025751673 -0.0018759519
0001d0 80 7e b7 bd 88 9e b6 bd 70 9d cd bc e8 ac 85 3c
       -0.08959675 -0.08916956 -0.025099486 0.0163178
0001e0 d1 4c a7 bd 70 c1 35 3d 58 4c 43 bd 9c 3b 71 3d
       -0.081689484 0.04437393 -0.04768023 0.05889474
0001f0 8f 00 65 bd f7 ec 98 bd b8 db 17 bc f1 0f 9d bd
       -0.055908736 -0.074670725 -0.009268694 -0.07669056
000200 a0 92 8c 3c 78 f0 71 bc e2 35 9c 3d a8 5c 80 bc
       0.01715976 -0.014766805 0.07627465 -0.015669182
000210 30 ad 98 3d 00 0f 96 ba 12 8a 97 3d f4 92 c8 bc
       0.07454908 -0.0011448562 0.07399382 -0.024484135
000220 64 5f 9c 3d 50 1d ab 3b a4 fe bf 3c 8a 72 7a bd
       0.07635382 0.005222 0.023436852 -0.06114439
000230 20 cd 5b bd 0c bc ec 3c c0 bb 8b bd 18 a5 84 bd
       -0.05366242 0.028898261 -0.0682292 -0.06476802
000240 78 ad 6f 3d b8 9d 3c 3c c6 c4 a4 bd e7 46 12 bd
       0.058515042 0.011512212 -0.08045344 -0.03571215
000250 d2 ed 0f bd 78 b7 a3 bd 73 8a b0 bd 78 30 58 3d
       -0.035138912 -0.07993978 -0.08620157 0.0527806
000260 80 c1 97 bd 60 f2 05 bd b3 f6 33 bd 38 bd f8 bc
       -0.07409954 -0.03270185 -0.043936443 -0.030363664
000270 46 64 93 3d b7 4d af bd 84 5c 72 3d 1f db ac bd
       0.0719686 -0.08559745 0.05917026 -0.084402315
000280 24 a5 21 3d 7c 5b b9 3d ab 1c 0b bd e8 8a 51 bc
       0.03946413 0.090506524 -0.033962887 -0.0127894655
000290 5b 7c 4c bd 4f 5e 6f bd ba d4 a4 3d 54 4e 17 3d
       -0.049923282 -0.05843955 0.08048387 0.036939934
0002a0 00 18 65 39 a8 bf ab 3d 4f c3 5a bd fc 86 7f bd
       0.00021848083 0.08386165 -0.053408917 -0.06238459
0002b0 82 44 7d bd da 37 0b bd 5e d7 a3 3d 3d 8d 8f bd
       -0.061832912 -0.03398881 0.080000624 -0.07009361
0002c0 e0 c1 90 bd 84 32 59 3d f4 88 a4 3d 40 c7 bb 3b
       -0.07068229 0.05302669 0.08033934 0.0057305396
0002d0 98 f2 16 3d 28 d8 05 3d 44 42 ca 3c 40 66 af bd
       0.03685245 0.032676846 0.024689801 -0.085644245
0002e0 3c a3 cf 3c ac 1b 7e 3d de 78 3f bd 1a ab a3 3d
       0.02534639 0.06203811 -0.046746127 0.079916194
0002f0 43 07 60 bd d0 3c 85 3b 66 e5 60 bd 4b 11 08 bd
       -0.054694425 0.0040660873 -0.05490627 -0.033219617
000300 90 27 ac bb 7c 1d 41 bd 9c f1 84 bd b0 17 b9 bc
       -0.0052537397 -0.04714726 -0.06491396 -0.022594303
000310 e6 ef 82 3d 8c 7e d9 bc a0 05 b9 bd 60 79 9e bc
       0.06393413 -0.0265496 -0.09034276 -0.019344985
000320 c8 60 ec 3c 60 c4 a6 3c 77 33 66 bd 50 76 8e 3c
       0.028854743 0.02035731 -0.056201424 0.0173904
000330 82 02 96 3d a0 44 80 3d fb db 3b bd 00 92 45 ba
       0.07324697 0.06263089 -0.045864087 -0.00075367093
000340 b8 53 b6 3d de a2 b8 3d f0 31 94 3c c6 45 7d bd
       0.08902687 0.090154395 0.018090218 -0.06183412
000350 74 86 9d bd d0 63 a1 bd ac db 0d bd c0 4b 1e 3b
       -0.076916605 -0.07880366 -0.034633324 0.0024154037
000360 68 13 bf bc 79 cb 63 bd 88 f0 9f 3d 80 c4 be bc
       -0.023324683 -0.05561397 0.078095496 -0.023287058
000370 64 4c 0b bd 8c ed 2f bd cc fc 94 3d e0 c7 f8 bb
       -0.0340084 -0.04295115 0.0727478 -0.0075921863
000380 d6 63 b0 3d 88 4f 8f 3d 0c 9a b0 3c 8e 3c 88 bd
       0.08612792 0.06997591 0.02155783 -0.06652175
000390 b4 1c 65 3d 59 24 12 bd 50 eb 89 bc 74 b5 91 3d
       0.055935577 -0.035679195 -0.016835839 0.071146876
0003a0 03 ae a1 bd e0 19 cd bc fc 3a 7f bd f2 fd ac bd
       -0.07894518 -0.025036752 -0.06231211 -0.08446874
0003b0 90 0a 9f bd 14 d8 7d 3d 2c 7b 8c bc f4 d2 96 3d
       -0.077656865 0.061973646 -0.017148577 0.07364455
0003c0 cd 3b 79 bd 06 0c ab 3d dc de d4 bc b0 cc 8f 3d
       -0.060848046 0.08351903 -0.025985174 0.07021463
0003d0 f4 1e b9 bd ec 3d 5d bd 84 c8 dd 3c c8 26 27 3d
       -0.09039107 -0.05401413 0.027073152 0.04080847
0003e0 78 68 d3 3c 7f 24 35 bd c0 3a 80 3a 41 1b 4a bd
       0.02580665 -0.04422426 0.0009783134 -0.049342398
0003f0 84 e4 a8 3d 73 3b 05 bd c8 52 e4 3c 65 2e 9e bd
       0.08246711 -0.0325274 0.027871504 -0.07723693

bias f4 [84]
000000 9d e8 b4 bd fc 00 e2 3c d9 4b 9b bd 9c b1 ca 3c
       -0.0883343 0.02758836 -0.07582826 0.024742894
000010 50 03 d7 bc a2 27 ab 3d 58 39 77 3c 20 98 18 3d
       -0.026246697 0.08357169 0.015089355 0.037254453
000020 fc af 9f 3c 98 d0 c1 3c ba 24 aa 3d 80 a9 77 ba
       0.019493096 0.023659036 0.08307786 -0.000944756
000030 c8 b3 2a bc f8 1f c9 bc 28 42 9b 3d 6d 31 59 bd
       -0.01041884 -0.024551377 0.07580978 -0.05302565
000040 a8 a7 72 3d 54 10 25 3d 78 87 5b bc f2 f9 97 3d
       0.05924192 0.040298775 -0.0133989975 0.0742072
000050 97 65 3e bd 98 46 aa 3d 47 d6 87 bd e8 c2 6b bd
       -0.046483602 0.08314246 -0.06632667 -0.057558924
000060 6c c8 99 bd d0 a3 e8 bb d8 29 a2 3d d7 8e 49 bd
       -0.075089306 -0.007099606 0.07918137 -0.04920849
000070 42 c6 ba 3d e8 9b 0c bc b0 e1 b3 bc e8 54 08 3d
       0.09119846 -0.008582093 -0.021958202 0.033284098
000080 ac 19 f6 3c 8e 15 5e bd c0 f5 c6 3a cb 1f 9e bd
       0.030041538 -0.054219775 0.001517944 -0.07720908
000090 88 77 a8 3c a4 35 34 3d 04 56 9f bc 20 3d 28 3b
       0.02056481 0.04399647 -0.019450195 0.00256712
0000a0 35 a2 83 bd 00 20 80 bb 80 43 b4 3c 84 0f b5 3c
       -0.06427423 -0.0039100647 0.022004843 0.022102125
0000b0 4a 96 f5 bc 60 44 55 bc 04 c2 8b bc 7c 11 7b bd
       -0.02997889 -0.01301679 -0.017060287 -0.06129597
0000c0 fa a3 92 3d 80 70 93 bd fd 87 a2 bd 8c 25 c3 bc
       0.07160182 -0.07199192 -0.07936094 -0.023821615
0000d0 84 d7 24 3d 00 bd 85 bc a0 4e 3e 3d 45 73 01 bd
       0.040244594 -0.016325474 0.0464617 -0.03160407
0000e0 e7 10 35 bd 6d 70 3d bd 52 fa a8 3d 60 4d 98 bc
       -0.044205572 -0.046249796 0.0825087 -0.018591583
0000f0 da a2 f6 bc f9 b3 88 bd d8 93 42 3c 7c 68 20 3d
       -0.03010695 -0.06674952 0.011876069 0.039162144
000100 14 7e 40 3d 3c eb 52 3d f9 2c 98 bd 32 b9 b7 3d
       0.046995237 0.05149387 -0.07430453 0.0897087
000110 50 ef 99 3d 18 62 4d 3c b0 9e 28 bc 68 ef 1f 3c
       0.07516348 0.012535594 -0.01029174 0.009761669
000120 a8 a6 90 bc 2c c8 a4 bd d6 5e b3 3d a0 f2 60 3c
       -0.017657593 -0.08045992 0.08758323 0.013729721
000130 d8 e2 21 3d b8 80 92 3d 7a 93 04 3d 05 04 a8 bd
       0.039522976 0.071534574 0.032367207 -0.08203892
000140 04 18 76 3d 7f a5 a3 bd 5f 0f 46 bd 20 93 a6 3d
       0.060081497 -0.0799055 -0.048354503 0.081335306

weight f4 [10, 84]
000000 12 aa 63 bd c0 64 5f bc 7f 3e d4 bd 10 b2 57 bc
       -0.055582114 -0.0136348605 -0.10363483 -0.013165012
000010 b2 1e 83 bd 20 66 89 bb da 20 c7 bd e6 17 52 3d
       -0.06402339 -0.0041930825 -0.09723063 0.051292323
000020 a0 e7 44 3c 80 70 a9 bc 56 ef 12 bd 64 20 f8 3c
       0.012018114 -0.020683527 -0.03587278 0.030288883
000030 6a 23 94 bd a4 5d 11 bd 99 43 ca 3d e1 e6 c8 3d
       -0.07233317 -0.035489693 0.098761745 0.09809662
000040 1b 8b a5 3d 62 9f 13 3d 2b cc ac 3d 10 d6 97 bb
       0.08083173 0.03604067 0.084373794 -0.0046336725
000050 48 81 6a 3c dc 62 7a bd 66 d6 51 3d 1d e7 9d bd
       0.01431305 -0.061129436 0.051229857 -0.07710097
000060 74 7d c4 bd 38 6e ca bc 52 bf 7b 3d b9 7b dc 3d
       -0.09594241 -0.02471076 0.061461754 0.10765786
000070 0f 71 9a 3d bd c9 dd 3d be cc 68 3d 88 b7 ba bd
       0.075410955 0.10829494 0.056835882 -0.09117037
000080 20 80 db bd dc 69 15 bd 8f 0e 83 bd 4d b6 d5 bd
       -0.10717797 -0.03647791 -0.06399261 -0.10435162
000090 1f 2b 8f bd 13 cf 85 bd ce eb 19 3d 09 e2 dd 3d
       -0.069906466 -0.06533637 0.037578396 0.108341284
0000a0 c8 57 83 bc 90 f5 6c bc 8c 96 a9 bd d4 8e 83 bc
       -0.016033068 -0.014462844 -0.08280668 -0.016059317
0000b0 30 31 98 3b f6 68 22 bd 38 07 06 3c b9 df b5 3d
       0.0046445355 -0.03965088 0.008180432 0.08880562
0000c0 54 0c 9f bc 23 81 82 3d f7 79 99 3d 41 6f ae 3d
       -0.019415058 0.06372287 0.07493966 0.08517314
0000d0 17 7e 9e 3d 2d a0 87 3d a4 4e c2 3c 86 ad 7c 3d
       0.077388935 0.06622348 0.02371914 0.061688922
0000e0 f0 14 88 3b f7 fa 3f bd 89 0f b4 3d f5 60 85 bd
       0.0041528866 -0.046870198 0.087920256 -0.06512634
0000f0 0e 96 7e 3d 35 42 cf 3d e0 69 10 bb 58 2a 81 bd
       0.062154822 0.1012005 -0.0022035763 -0.063069046
000100 d0 0a 06 bc f9 e7 b8 3d af a8 b2 3d f2 91 56 bd
       -0.008181289 0.0902862 0.0872358 -0.052385278
000110 a0 09 24 bb e0 41 c3 bb bc 21 2b bd 4e f5 6b bd
       -0.002503015 -0.0059587806 -0.04178022 -0.057606988
000120 9a c9 06 3d 98 c1 ab bc 79 d0 ad 3d 00 e5 8c b9
       0.032907106 -0.020966336 0.08487029 -0.000268735
000130 62 f1 d8 bd dc db 16 bd 34 6b 61 bd 12 56 1a 3d
       -0.10592915 -0.036830768 -0.055033877 0.03767974
000140 09 b4 90 bd 9f c9 bc 3d d0 8b c4 3b b4 22 d2 3c
       -0.07065589 0.09218144 0.0059981123 0.025651313
000150 64 b1 1b bd 38 92 04 3c ed 06 95 3d a5 07 4f bd
       -0.03801097 0.008091502 0.072767116 -0.0505444
000160 54 fa 20 bd 39 cd cf 3d c8 a8 61 3c 58 0a c8 bd
       -0.03930123 0.10146565 0.013773151 -0.09767598
000170 0e 2a 50 3d 8c 4d 40 bd 58 e6 65 bc f5 78 56 bd
       0.050821356 -0.046948954 -0.014031969 -0.052361447
000180 64 e3 2c bd 34 ed 9c 3c 3c 2a 93 bc 80 8b ea ba
       -0.042209044 0.019156076 -0.017964475 -0.0017894357
000190 09 9e d8 3d ac e7 7f bd 56 85 02 3d e0 69 6c bb
       0.10577018 -0.0624768 0.03186544 -0.0036073849
0001a0 c7 e7 a0 bd 22 26 22 3d 44 0e cb 3c 19 51 9e bd
       -0.07856708 0.039587148 0.024787076 -0.07730312
0001b0 e2 c3 53 3d 40 96 ea 3b 92 ee 82 bd f0 a5 2a bd
       0.05170048 0.0071590245 -0.0639316 -0.041662157
0001c0 e4 09 d0 3c 63 14 b9 3d 2a 78 1e bd 02 17 37 bd
       0.025395341 0.090370916 -0.038688816 -0.044699676
0001d0 6a 57 07 3d 76 5a 00 bd 68 b6 14 bd e9 96 cb bd
       0.03304235 -0.03133627 -0.03630677 -0.09940893
0001e0 a0 db d9 bd 16 c0 0a 3d 2e d0 72 3d e3 1e 90 3d
       -0.10637593 0.033874594 0.059280567 0.07037141
0001f0 f8 ee 63 3c 80 fc 70 bc 99 00 be 3d 0c 30 bd 3c
       0.013911955 -0.014708638 0.09277458 0.0230942
000200 e5 7f b8 3d 70 7e ad bc a3 3e c9 3d 1c 1e b8 bd
       0.09008769 -0.021178454 0.098264 -0.08990118
000210 90 47 80 bc f9 a7 c1 3d c1 6d a0 3d c4 96 bb 3c
       -0.015659124 0.09455866 0.07833434 0.02289904
000220 72 05 47 3d 46 2c ab bd 90 e6 99 bc a7 33 a7 bd
       0.048589177 -0.08358054 -0.018786699 -0.08164149
000230 e2 00 41 bd e9 19 c1 bd 18 14 c1 bc 83 f0 99 3d
       -0.047119983 -0.0942877 -0.023569152 0.07516577
000240 ed 5b df 3d 53 84 d0 bd e6 a2 c6 bd 5b 53 d9 bd
       0.10906205 -0.10181489 -0.09699039 -0.10611602
000250 d0 66 0e bd a6 f7 c4 bd 64 f2 e5 3c f8 19 4b bc
       -0.03476602 -0.09617548 0.028069682 -0.012396328
000260 86 71 dd bd 80 5d 56 bc 95 19 98 3d bc e7 a4 3c
       -0.108126685 -0.013083816 0.074267544 0.02013003
000270 94 d8 b8 bd 35 60 c4 bd c3 f0 d1 bd e3 a6 c2 bd
       -0.09025684 -0.095886625 -0.10251 -0.09504487
000280 40 1f 98 bd b0 ea af bb c1 a1 a3 bd 68 ec 39 bd
       -0.074278355 -0.005368553 -0.079898365 -0.04539147
000290 bf 9c 88 bd 1a 69 32 bd 12 66 23 3d ce 6a 3d 3d
       -0.06670522 -0.043557264 0.039892264 0.046244435
0002a0 14 7a e6 bc 72 ba 56 3d 58 fe c3 bd 15 17 96 3d
       -0.028134383 0.0524239 -0.095699966 0.07328621
0002b0 33 ea a6 bd 8c 96 72 bd c4 9d af 3c 8c d2 dc bc
       -0.08150139 -0.059225604 0.021437533 -0.026955865
0002c0 00 b0 a8 3a c6 48 73 3d 07 60 8c bd 30 cc 02 bc
       0.0012869835 0.059395574 -0.06854253 -0.007983252
0002d0 fe 08 46 3d d0 0b 95 bd 4e d6 23 3d c4 31 0d bd
       0.04834842 -0.07277644 0.0399993 -0.03447129
0002e0 b0 a7 22 bc c4 37 00 bd a8 1f 6e 3c 68 c7 a6 bd
       -0.009927675 -0.031303182 0.014533915 -0.081435025
0002f0 ef 7d 53 bd c2 b9 0b bd 33 e0 b2 3d a1 fd dd bd
       -0.05163377 -0.0341127 0.08734169 -0.108393915
000300 e2 bf 20 bd 8f 5c 94 bd 01 85 c7 3d 42 66 99 bd
       -0.039245494 -0.07244217 0.09742165 -0.07490207
000310 38 df 2b bd 54 f5 21 bd 89 02 d9 3d 2c 52 e3 3c
       -0.041960925 -0.039540604 0.10596187 0.027749144
000320 04 ed 9a bd d2 d9 48 3d f6 47 41 3d 9e 52 69 bd
       -0.075647384 0.049035855 0.047187768 -0.056963556
000330 4e fb 1c 3d 68 25 71 3c b8 34 1a bc 20 b0 a3 bd
       0.0383256 0.014718391 -0.009411983 -0.079925776
000340 18 2b eb bc 7b 55 9a 3d ca 4e 04 bd 2c f1 b7 3c
       -0.028707072 0.07535835 -0.0323017 0.022453867
000350 80 e5 f2 3b c2 b7 1b 3d 6d 7d dd 3d 2e f7 57 3d
       0.0074126124 0.038017042 0.10814939 0.052725963
000360 f7 0c b0 3d 0a f8 ce bd c4 e8 82 bc 68 b1 fd bc
       0.08596223 -0.101059034 -0.015980132 -0.030968383
000370 25 b6 b8 3d da 84 c2 bd 90 35 6d bc 9c 24 83 3c
       0.09019116 -0.09497996 -0.014478102 0.016008668
000380 9b f5 91 3d a6 0f 8e bd 2d 8d c1 3d 20 6d e5 bb
       0.07126924 -0.069365785 0.09450755 -0.007001534
000390 43 b2 8a 3d 72 54 af bd 54 96 6e bd 28 22 0e bc
       0.06772282 -0.085610285 -0.058248833 -0.008675136
0003a0 62 68 05 3d 3d 31 b4 bd 3d dc ca bd 08 ab 20 3c
       0.03257025 -0.08798454 -0.09905288 0.009806402
0003b0 b0 b7 cc bd 8c f7 a3 3c 60 5b 1e 3c bf 64 95 3d
       -0.09995973 0.0200155 0.00966534 0.072946064
0003c0 60 59 1a 3c 40 cf 2a bd 88 10 b9 bd dc 8b c6 bd
       0.009420723 -0.041701555 -0.09036356 -0.09694645
0003d0 98 93 cb bc f7 1e d4 bd c0 61 91 bc 77 3b a1 bd
       -0.024850652 -0.103574686 -0.017746806 -0.0787267
0003e0 56 23 d2 bd 3c f3 59 bd cc d3 91 bc 97 09 c3 bd
       -0.10260646 -0.053210482 -0.017801188 -0.095233135
0003f0 5c 64 ed 3c 8c f2 38 bd d8 a3 0a bd 44 c5 ab 3c
       0.02897852 -0.045153186 -0.03384766 0.020968087

bias f4 [10]
000000 f9 8d a5 bd b0 bb c2 bd 80 a0 29 3b 73 18 83 3d
       -0.0808372 -0.09508455 0.002588302 0.06401148
000010 26 89 d2 bd 15 1e de bd 9d 9a 9e 3d 08 53 e2 bc
       -0.10280065 -0.108455814 0.07744334 -0.027627483
000020 63 f1 b6 3d 35 32 c1 3d
       0.089327596 0.09433404
