seq2seq/models/no_agreement_2.pt (torch_old, 261607 bytes, 10 tensors)

weight f4 [6, 3, 5, 5]
0	0xbcbfe800	-0.023426056
1	0xbd5a06bf	-0.05322909
2	0x3d7db6f4	0.061942056
3	0x3d51ae20	0.05119145
4	0x3dceae06	0.10091786
5	0xbdcd8e1d	-0.100368716
6	0xbd1aca6c	-0.0377907
7	0x3de51a54	0.11186662
8	0xbd012b52	-0.031535454
9	0xbdba16cf	-0.09086382
10	0xbdc33b65	-0.09532813
11	0x3c66daf0	0.014090285
12	0xbd8faca4	-0.070153505
13	0xbdbcd181	-0.09219647
14	0x3b4908c0	0.0030675381
15	0x3c032b50	0.008005932
16	0x3c73b0b0	0.014873669
17	0x3cc4b608	0.02401258
18	0xbde7dee7	-0.11321812
19	0xbcf2d150	-0.029640824
20	0xbd3e9ca2	-0.046536095
21	0xbde42e84	-0.11141685
22	0xbd52136a	-0.051288046
23	0xbd1b0b8c	-0.03785281
24	0x3d1787fc	0.03699492
25	0x3dd89f96	0.105773136
26	0xbdb830d6	-0.0899369
27	0x3dbffd12	0.09374441
28	0x3d8f25d8	0.0698964
29	0x3d14aed4	0.03629954
30	0xbafbb540	-0.0019203797
31	0x3c8a3af0	0.016873807
32	0x3db3d348	0.08780533
33	0xbcf46380	-0.029832602
34	0x3d7410b8	0.059586257
35	0xbd1bc754	-0.03803189
36	0xbd118e2c	-0.035535976
37	0x3d767630	0.060171306
38	0xbde8ebed	-0.11373124
39	0xbd6284dc	-0.055302486
40	0x3d503b68	0.050837904
41	0x3da546aa	0.08070119
42	0x3d0bdee0	0.034148097
43	0x3de13606	0.10996632
44	0xbdb9a7df	-0.09065222
45	0xbddb2b3b	-0.10701605
46	0x3d92f5c0	0.07175779
47	0x3d19daa4	0.037562028
48	0xbd099d26	-0.033597134
49	0xbd9129fa	-0.070880845
50	0xbc3fc568	-0.01170478
51	0xbdd905d5	-0.105968155
52	0xbd49fb46	-0.0493119
53	0x3d071f50	0.032988846
54	0x3d767d8c	0.060178325
55	0x3d0f6bec	0.03501503
56	0xbd8419a2	-0.064502016
57	0x3b76cbe0	0.003765814
58	0x3d34fb6c	0.044185087
59	0xbc62e460	-0.013848394
60	0x3d28d360	0.041217208
61	0xbd95fb4d	-0.073233224
62	0x3b319000	0.0027093887
63	0x3d317b10	0.043330252
64	0x3d555c94	0.052090243
65	0x3d92d6f8	0.07169908
66	0x3d5d4c8c	0.05402808
67	0x3d3897bc	0.04506658
68	0x3c9664d0	0.018358618
69	0x3dabb8a6	0.08384828
70	0xbd8dfe8c	-0.069333166
71	0x3d60fd20	0.0549289
72	0xbb1fa240	-0.0024358183
73	0x3cf98768	0.030460075
74	0x3d745b78	0.059657544
75	0x3d4c1104	0.049820915
76	0xbcb20818	-0.021732375
77	0x3d61f7b8	0.055167884
78	0x3c0aa738	0.00846272
79	0x3ca626d8	0.020282194
80	0xbde9c2bb	-0.11414095
81	0xbda77656	-0.08176868
82	0x3daa7ef8	0.083249986
83	0xbdd0294c	-0.10164127
84	0xbdaf222a	-0.08551438
85	0x3d58b298	0.052904695
86	0x3ae5f500	0.0017544329
87	0x3d416470	0.047214925
88	0x3cda5ee8	0.026656583
89	0xbcf01e50	-0.02931133
90	0x3d5cbdb0	0.053891838
91	0xbd94bcba	-0.07262559
92	0x3d7ef724	0.06224741
93	0x3dcb193e	0.09916924
94	0x3c1b0758	0.0094622
95	0xbc3ba8c0	-0.011453807
96	0x3d2a0294	0.041506365
97	0xbd72ed27	-0.059308197
98	0xbd22fb1c	-0.039790258
99	0xbdbab9f4	-0.09117499
100	0xbdd6843c	-0.104744405
101	0xbd7d3ff9	-0.061828587
102	0x3c848ef8	0.016181454
103	0x3ca4bb50	0.020108849
104	0x3d7d1598	0.06178817
105	0xbc61bca8	-0.013777889
106	0x3de2a650	0.11066878
107	0x3d811ada	0.0630395
108	0x3ce1ef30	0.027579874
109	0xbd446be6	-0.047954462
110	0x3c159cf8	0.009131663
111	0xbd464f88	-0.04841569
112	0xbd938534	-0.07203141
113	0xbd93c0fe	-0.07214545
114	0xbde3fde2	-0.11132409
115	0xbd82d017	-0.06387346
116	0x3ceac1d8	0.028656885
117	0xbdd1a1de	-0.10235952
118	0x3d85ae72	0.065274134
119	0xbdc975f6	-0.098369524
120	0x3d7f33c0	0.062305212
121	0xbca69fcc	-0.020339869
122	0xbd04541c	-0.032306775
123	0x3dab4da6	0.0836442
124	0x3ad80400	0.0016480684
125	0xbcf33e1c	-0.029692702
126	0xbcb8d484	-0.022562273
127	0xbd5969e8	-0.053079516
128	0x3db209fa	0.08693309
129	0xbccc65f8	-0.024950966
130	0x3c92b3c0	0.017907977
131	0x3d4cc35c	0.049990997
132	0xbda6084c	-0.08107051
133	0xbdabebe5	-0.08394603
134	0xbd0eaa14	-0.034830168
135	0x3dce8fde	0.10086034
136	0xbde974f4	-0.1139926
137	0xbdce4e2d	-0.100735046
138	0x3cd38e08	0.025824562
139	0xbcb73f08	-0.022368923
140	0xbdcfbde6	-0.10143642
141	0x3ddc737c	0.107642144
142	0xbdb913e0	-0.09036994
143	0x3dc5b6ac	0.096539825
144	0x3c6900b0	0.014221355
145	0x3d720e28	0.05909553
146	0xbdb6175a	-0.08891173
147	0xbcc3e2d4	-0.023911871
148	0x3c37df30	0.011222646
149	0x3a981a40	0.0011604503
150	0xbd7720d1	-0.06033403
151	0x3dcefef4	0.10107222
152	0x3d0afff0	0.033935487
153	0x3cb58620	0.022158682
154	0xbd94ac6e	-0.07259451
155	0xbd48bfc4	-0.049011007
156	0xbd8785fd	-0.06617353
157	0x3d9ab69a	0.0755436
158	0x3c5a18f0	0.01331161
159	0xbcf3d0e8	-0.0297627
160	0xbdc67f7e	-0.09692286
161	0xbdb92cdc	-0.09041759
162	0xbdc86454	-0.09784761
163	0xba16da00	-0.00057545304
164	0xbdb00c0c	-0.08596048
165	0x3d9f74aa	0.07785924
166	0xbd09728a	-0.0335565
167	0xbd7bdb46	-0.061488412
168	0xbde002e0	-0.10938048
169	0x3dc48344	0.095953494
170	0xbc7f9d48	-0.015601464
171	0x3d532010	0.05154425
172	0x3c881288	0.016610399
173	0xbd1fc5d0	-0.039007008
174	0x3d5c84ec	0.0538377
175	0x3dc8be7c	0.09801957
176	0x3c76d420	0.015065223
177	0x3d54b094	0.05192621
178	0xbd402a88	-0.04691556
179	0x3c2ee1e0	0.01067397
180	0xbc6cb000	-0.014446259
181	0x3d8f4acc	0.06996688
182	0x3d5606a4	0.052252427
183	0xbd89bac0	-0.06725073
184	0x3d94428e	0.07239257
185	0x3d433c84	0.047665134
186	0xbd0bc0ae	-0.0341193
187	0xbd0abdcc	-0.03387241
188	0x3dd5aebc	0.104337186
189	0x3db24e8e	0.08706389
190	0x3daf44ba	0.085580304
191	0x3dcaa8e2	0.09895493
192	0xbd753f59	-0.059874866
193	0xbd9c62f2	-0.0763606
194	0x3de1b64e	0.110211
195	0xbd9ab373	-0.075537585
196	0x3dbbec2c	0.091759056
197	0x3d449d64	0.048001662
198	0x3db7e6fc	0.08979604
199	0x3c32efc0	0.010921419
200	0xbcac9c00	-0.02107048
201	0x3db35172	0.08755769
202	0x3dce3322	0.100683466
203	0x3d31bcd8	0.043392986
204	0x3c89f3c8	0.016839877
205	0x3c1faf90	0.009746447
206	0xbba78710	-0.0051125363
207	0x3d66d7a0	0.05635798
208	0x3db59c44	0.08867696
209	0x3d57d4e8	0.052693278
210	0xbd8e00ca	-0.06933744
211	0xbdc6547e	-0.09684084
212	0xbca4a018	-0.02009587
213	0x3ddd7d80	0.10814953
214	0xbd110020	-0.03540051
215	0x3d41cbbc	0.047313437
216	0x3cbb6f88	0.02288033
217	0xbd27c0f6	-0.040955506
218	0xbb56c240	-0.003276959
219	0xbdbc0d16	-0.091821834
220	0x3cd65128	0.026161745
221	0x3ae14840	0.001718767
222	0xbdac055c	-0.0839946
223	0x3d2b3d44	0.041806474
224	0xbb4c4020	-0.0031166151
225	0x3cdaba88	0.026700273
226	0xbd9319b7	-0.07182639
227	0xbd9b5dfe	-0.07586287
228	0x3dbeb0d0	0.09311068
229	0x3de88036	0.11352579
230	0x3dba8fee	0.09109484
231	0xbdb1bb7d	-0.08678339
232	0xbca07130	-0.019585222
233	0xbda45603	-0.08024218
234	0xbcc5d488	-0.024149194
235	0x3dd31690	0.10307038
236	0xbd4a906e	-0.049454145
237	0x3d5f16c8	0.054465085
238	0x3b91c9c0	0.0044490993
239	0x3da02618	0.07819766
240	0xbdc75f5a	-0.09734984
241	0x3d7253b8	0.05916187
242	0xbcd21270	-0.025643557
243	0xbd1cd9fa	-0.038293816
244	0xbc60fff8	-0.013732903
245	0x3d3c9f7c	0.046050534
246	0x3d931876	0.071824
247	0x3bd1e5c0	0.006405562
248	0x3c72cf00	0.01481986
249	0x3d5dca4c	0.054148003
250	0xbcb482dc	-0.022035055
251	0xbdd85923	-0.105638765
252	0xbd301430	-0.042988002
253	0xbc08d238	-0.008350901
254	0x3de285ba	0.110606626
255	0x3c58d350	0.013233975

bias f4 [6]
0	0xbc850a78	-0.016240343
1	0x3d9ed2cc	0.0775505
2	0xbccd01c8	-0.025025263
3	0x3d264328	0.04059139
4	0xbdb23144	-0.08700803
5	0xbde449d7	-0.11146896

weight f4 [16, 6, 5, 5]
0	0x3c9390e8	0.018013433
1	0xbb6626e0	-0.0035118386
2	0x3d51c354	0.05121167
3	0xbd67b9aa	-0.056573547
4	0x3ccf3648	0.025294438
5	0xbc8d9e20	-0.017287314
6	0x3d078364	0.03308429
7	0xbd8df84a	-0.06932123
8	0xbcce4bc2	-0.025182609
9	0xbcc59484	-0.02411867
10	0x3d8cf726	0.06883077
11	0x3d5580a4	0.052124634
12	0xbc4eda20	-0.012625247
13	0xbd30f9be	-0.043206923
14	0xbcc6984e	-0.024242546
15	0xbd0850da	-0.03328023
16	0x3d99bf96	0.07507245
17	0x3d4338ac	0.04766147
18	0xbbb836d0	-0.0056217685
19	0x3c87d6f4	0.01658199
20	0xbd6832ba	-0.056689
21	0x3cc3f8a8	0.02392228
22	0xbd800a66	-0.06251983
23	0xbd737313	-0.059435915
24	0xbd51afc8	-0.05119303
25	0x3d4a3cc0	0.049374342
26	0xbd7c7dcd	-0.06164341
27	0x3cea3400	0.028589249
28	0x3cd03140	0.02541411
29	0xbd274a57	-0.04084238
30	0x3cc2dd3c	0.023787133
31	0xbd11d888	-0.03560689
32	0x3bc05ed0	0.0058706775
33	0x3d6932d4	0.05693324
34	0x3d344108	0.04400733
35	0x3cb4c130	0.022064775
36	0xbc3f6f08	-0.011684187
37	0xbd97e812	-0.07417311
38	0xbc93c3b4	-0.018037654
39	0x3ccf9100	0.025337696
40	0xbd54c6c6	-0.051947378
41	0xbcbd96ce	-0.023143198
42	0xbc9566c4	-0.018237479
43	0xbd3df541	-0.04637647
44	0xbcfe3894	-0.031032838
45	0x3ce411b8	0.02784048
46	0xbd183fd3	-0.037170243
47	0xbd44a37a	-0.048007466
48	0x3d4cad54	0.049969986
49	0xbbd95a20	-0.006633058
50	0x3d95d1c2	0.07315399
51	0xbcfbd888	-0.030742899
52	0xbd6e7816	-0.05821999
53	0xbd5983b6	-0.053104125
54	0xbc0544f0	-0.008134112
55	0xbd430bbd	-0.047618616
56	0xbcd7e1e6	-0.026352834
57	0xbd6f3b3a	-0.058406092
58	0x3c320cf8	0.01086735
59	0xbcd498a4	-0.025951691
60	0x3c8fc8ac	0.017551742
61	0x3d88503a	0.06655927
62	0x3d248ff0	0.040176332
63	0x3d8c1844	0.06840566
64	0x3a1fcf00	0.0006096214
65	0x3c187e78	0.009307496
66	0x3cfb7f0c	0.03070023
67	0xbcaadf86	-0.020858537
68	0x3d4ad36c	0.049518034
69	0x3ca93464	0.020654865
70	0x3bc12050	0.0058937445
71	0xbd9b4175	-0.07580844
72	0xbd7b9f78	-0.061431378
73	0x3caa28c4	0.020771392
74	0x3d2c5f9c	0.042083368
75	0x3d658820	0.056038022
76	0xbc161690	-0.009160653
77	0x3d47c0f0	0.048767984
78	0x3d59b1e4	0.053148165
79	0x3c97e798	0.01854305
80	0x3d8ba7f2	0.068191424
81	0x3d5617a8	0.052268654
82	0x3d64f9d8	0.055902332
83	0xbb340a60	-0.0027472004
84	0x3c376298	0.01119294
85	0x3c1eb3b0	0.0096863955
86	0x3da04c56	0.0782706
87	0x3d2f9076	0.042862378
88	0xbcf7d838	-0.030254468
89	0xbc92c208	-0.017914787
90	0x3da0cd24	0.078516275
91	0xbd18504c	-0.037185952
92	0x3d82a260	0.06378627
93	0x3d9b0112	0.075685635
94	0xbc8382ac	-0.01605352
95	0xbd9f6ab3	-0.07784023
96	0xbd507a60	-0.050897956
97	0xbd323409	-0.043506656
98	0x3da239cc	0.0792118
99	0x3da67a12	0.08128752
100	0x3d984670	0.0743531
101	0x3d8ec096	0.069703266
102	0x3d97e93e	0.07417534
103	0xbd42bdfa	-0.047544457
104	0x3cf9ed64	0.030508704
105	0xbd6d03c8	-0.057864934
106	0x3c8d26e0	0.017230451
107	0xbc2cd648	-0.0105491355
108	0xbcf2952a	-0.029612143
109	0x3d7e4190	0.062074244
110	0xbd591be0	-0.0530051
111	0x3c8d19bc	0.017224185
112	0x3d908942	0.0705743
113	0x3d78e248	0.060762674
114	0x3b6740e0	0.0035286471
115	0xbcef135c	-0.029184036
116	0xbd8bdf52	-0.06829704
117	0x3d9368b2	0.071977034
118	0xbd661ac6	-0.056177877
119	0xbd7346ec	-0.05939381
120	0xbcdbf748	-0.026851311
121	0xbd96b146	-0.07358031
122	0xbcde028e	-0.027100828
123	0x3cc3656c	0.023852073
124	0xbd71c9b0	-0.059030235
125	0xbd0265ca	-0.031835355
126	0xbd659c9a	-0.05605755
127	0xb9ddf200	-0.0004233271
128	0xbb25ba20	-0.002528794
129	0x3d904c12	0.07045759
130	0x3d556c60	0.052105308
131	0x3d0677ec	0.03282921
132	0x3d9bc4e4	0.07605913
133	0xbc9d1026	-0.01917274
134	0xbb19c540	-0.0023463517
135	0x3d9f0f7a	0.07766624
136	0xbd51107c	-0.05104111
137	0xbd286595	-0.0411125
138	0x3d8c1e62	0.068417326
139	0xbd4802ee	-0.04883092
140	0xbd915bbc	-0.07097575
141	0x3c651ae0	0.013983458
142	0xbc87e830	-0.016590208
143	0x3d1a4830	0.0376665
144	0x3d67287c	0.056435093
145	0xbd716c84	-0.05894138
146	0xbd8a14c6	-0.067422435
147	0x3d765c34	0.060146526
148	0x3d48aa64	0.048990622
149	0x3d07d48c	0.033161685
150	0xbd878c52	-0.06618561
151	0x3c34c210	0.011032596
152	0x3a812340	0.0009852424
153	0xbd9763d5	-0.07392088
154	0xbbdc0890	-0.006714888
155	0x3c2f75e0	0.010709256
156	0x3d8c427c	0.068486184
157	0xbd84a79f	-0.06477284
158	0xbd3c256c	-0.045934126
159	0xbd82e199	-0.063906856
160	0xbc08a5d0	-0.008340314
161	0xbd34ad9d	-0.044110883
162	0x3ce947c0	0.028476596
163	0xbd298bde	-0.041393153
164	0x3d62006c	0.055176184
165	0xbd59237c	-0.053012356
166	0xbd5baf83	-0.053634178
167	0xbd930896	-0.07179372
168	0xbd1ba07c	-0.037994847
169	0x3da3150e	0.07963
170	0xbd850e4e	-0.06496869
171	0x3d1bfea2	0.038084634
172	0x3ca17964	0.019711204
173	0xbcf37510	-0.029718906
174	0x3d5c906c	0.05384867
175	0x3d768360	0.060183883
176	0x3c737148	0.014858551
177	0xbd3ee42b	-0.046604317
178	0xbd74ed15	-0.05979641
179	0xbda3424c	-0.079716295
180	0x3d62d648	0.055380136
181	0xbd44dea9	-0.048063908
182	0xbd9b0e43	-0.075710796
183	0xbd4a45a0	-0.049382806
184	0x3c4df480	0.0125705
185	0x3cdc5fa8	0.026901081
186	0x3b5b5260	0.0033465847
187	0xbb225e60	-0.002477549
188	0x3d7579cc	0.059930608
189	0xbc086c48	-0.0083265975
190	0x3ccd1a78	0.025037035
191	0x3d861778	0.06547445
192	0x3d266704	0.040625587
193	0x3d72cfd0	0.059280217
194	0x3d963cfc	0.073358506
195	0xbd9da2ac	-0.07697043
196	0x3d67b3f0	0.056568086
197	0xbd198383	-0.037478935
198	0xbcc8e072	-0.024521086
199	0xbd6c2f32	-0.057662196
200	0xbd8e11df	-0.069370024
201	0xbd3df387	-0.046374824
202	0xbd83a206	-0.06427388
203	0xbcd628f4	-0.026142575
204	0x3d22c2d8	0.0397366
205	0xbd40f45a	-0.04710803
206	0x3ba24250	0.0049517527
207	0xbd851eb2	-0.06499995
208	0x3d0a7714	0.033804968
209	0xbbe0db90	-0.0068621114
210	0x3cd65c98	0.026167199
211	0xbd71f004	-0.059066787
212	0x3d34d064	0.04414405
213	0x3ca2a9c8	0.019856349
214	0x3d92fbd0	0.07176936
215	0xbc7a9130	-0.015293404
216	0xbca43d8e	-0.020048883
217	0xbc191c00	-0.009345055
218	0x3d3e3fcc	0.04644756
219	0x3cea3cb0	0.028593391
220	0xbb890ba0	-0.004182294
221	0xbd155a23	-0.036462914
222	0x3d8dff1e	0.06933425
223	0x3d90dd74	0.07073489
224	0x3d909a36	0.070606634
225	0xbd503832	-0.050834842
226	0x3cbb3a94	0.02285508
227	0x3d6b5f24	0.05746378
228	0xbce49e66	-0.027907562
229	0xbd0f929e	-0.035051934
230	0xbcfc69da	-0.030812193
231	0x3cd0a224	0.02546794
232	0x3d4b6ca0	0.04966414
233	0x3cbdb910	0.023159534
234	0xbd20cb7e	-0.039256565
235	0x3d768b3c	0.060191378
236	0x3b6ea9a0	0.0036417022
237	0xbd03f372	-0.03221459
238	0xbd7bfbf8	-0.061519593
239	0x3b014860	0.0019726977
240	0x3d350f24	0.044203892
241	0x3d91575e	0.07096742
242	0xbd3b34a0	-0.045704484
243	0xbd860926	-0.06544714
244	0x3d6d8060	0.057983756
245	0xbda28896	-0.07936208
246	0xbd2b4b0b	-0.041819613
247	0x3d240f4c	0.04005365
248	0xbd844ad7	-0.06459587
249	0xbbfd2180	-0.007724941
250	0xbd2af416	-0.041736685
251	0xbd85bcb5	-0.06530134
252	0xbcc9cda8	-0.024634197
253	0xbd891d4c	-0.06695041
254	0xbd04071d	-0.032233346
255	0xbd3e7ba1	-0.04650462

bias f4 [16]
0	0x3da2d2ae	0.0795034
1	0xbda11726	-0.07865743
2	0xbd56965c	-0.052389488
3	0x3d931134	0.071810156
4	0xbd57e0a2	-0.05270446
5	0x3d72a1e4	0.059236422
6	0x3d6337d8	0.05547318
7	0x3b41cec0	0.0029572695
8	0x3d856030	0.06512487
9	0x3cee6704	0.029101856
10	0xbce64a58	-0.028111622
11	0x3ba50cf0	0.0050369427
12	0xbd725f5a	-0.059172966
13	0xbd8fec6e	-0.07027517
14	0x3c980cbc	0.01856076
15	0xbd5e4336	-0.054263316

weight f4 [120, 400]
0	0x3d029589	0.03188089
1	0x3d3479eb	0.044061583
2	0xbd0c40ca	-0.034241475
3	0xbc6f07ac	-0.014589231
4	0xbc8e5cf4	-0.017378308
5	0xbc1ff698	-0.009763382
6	0xbc01e7a8	-0.007928766
7	0xbd01c7dd	-0.031684745
8	0x3cf06622	0.029345576
9	0x3d173569	0.03691617
10	0x3c9163d2	0.017747793
11	0xbd0de7ce	-0.034644894
12	0xbd37a50b	-0.04483513
13	0xbc8f591a	-0.017498542
14	0xbcc3a0cd	-0.023880387
15	0xbd0f6a7b	-0.035013657
16	0x3c0f6038	0.008750968
17	0x3c5ef254	0.01360758
18	0xbbcd3d70	-0.0062634274
19	0x3c48d728	0.0122583285
20	0x3b2f2a20	0.002672799
21	0xbd324b40	-0.043528795
22	0x3d1c0c7b	0.03809784
23	0x3c27fee8	0.0102536455
24	0x3d396ed9	0.04527173
25	0x3d16bc2d	0.036800552
26	0xbc4ee5d4	-0.0126280375
27	0x3c8cae16	0.017172854
28	0xbc3761cc	-0.01119275
29	0xbd2aa996	-0.041665636
30	0x3c97219e	0.018448647
31	0x3ceb8fd6	0.02875511
32	0x3d1d7017	0.038436975
33	0x3c0729a8	0.008249678
34	0xbc781640	-0.015142024
35	0x3b0b4400	0.0021250248
36	0x3c0c2aa8	0.008555092
37	0x3c96e92a	0.018421728
38	0x3bf07590	0.0073382333
39	0xbc269d40	-0.010169327
40	0x3d43a657	0.047766056
41	0xbcff6e80	-0.03118062
42	0x3c1a03b8	0.009400301
43	0xbaaa9bc0	-0.0013016388
44	0xbb0a0ea0	-0.0021065846
45	0x3d40c189	0.04705957
46	0x3c9b511e	0.018959578
47	0x3d2f5709	0.042807613
48	0x3b222aa0	0.0024744645
49	0x3ca53b26	0.020169806
50	0xbd4a3a85	-0.049372215
51	0xbd2fea00	-0.04294777
52	0xbc366b20	-0.011133939
53	0xbc9b8963	-0.01898641
54	0x3d0547f3	0.03253932
55	0x3d12b36d	0.035815645
56	0xbc2ddc58	-0.010611616
57	0x3d475417	0.04866418
58	0xbd2edb57	-0.042689648
59	0x3cc29422	0.023752276
60	0xbcc3d50a	-0.023905296
61	0xbd266645	-0.040624876
62	0xbd49eceb	-0.04929821
63	0x3c7c69f4	0.015406121
64	0x3ca21552	0.019785557
65	0xbc80746a	-0.01568051
66	0xbce87243	-0.028374797
67	0xbc878f1c	-0.016547732
68	0xbbf4e7e8	-0.0074739344
69	0x3d1ad1b5	0.03779765
70	0x3c7dff9c	0.015502837
71	0xbc96c656	-0.01840512
72	0x3d1ca5e1	0.038244132
73	0xbc8d1ba6	-0.017225098
74	0x3d21c9d9	0.039499138
75	0x3cd83ef2	0.026397202
76	0xbd319b7d	-0.043361176
77	0x3bcbeef0	0.006223552
78	0x3cd2b482	0.025720838
79	0x3c216320	0.009850293
80	0x3c14e568	0.009087898
81	0x3d02c7a1	0.031928662
82	0xbcd8139d	-0.02637654
83	0x3d127483	0.035755645
84	0x3d1525fb	0.036413174
85	0x3cf39fe2	0.029739324
86	0x3d23e0d1	0.040009324
87	0x3d4065db	0.046972137
88	0xbca6d1da	-0.020363737
89	0xbd43f3e2	-0.047840007
90	0x3d0fc809	0.035102878
91	0xbb18a150	-0.002328951
92	0xbaf7ba00	-0.0018900037
93	0x3cb76382	0.022386316
94	0x3bc24e10	0.005929716
95	0x3cf0fa2a	0.029416163
96	0x3ac89ba0	0.0015305169
97	0xbbb78a18	-0.005601179
98	0x3d35a0e1	0.04434288
99	0x3d4bc657	0.0497497
100	0x3cf26b86	0.029592287
101	0xbb72e4b0	-0.0037062578
102	0x3cfafda6	0.030638527
103	0x3c1c0ecc	0.009525012
104	0xbd1eee85	-0.03880169
105	0xbd3153da	-0.043292858
106	0x3d31cbd3	0.043407273
107	0x3c1af9d8	0.009458981
108	0x3c89c32e	0.016816702
109	0x3d283869	0.041069422
110	0x3d070a39	0.032968733
111	0x3c1eea74	0.009699453
112	0xbd38f6c5	-0.045157213
113	0x3d0204af	0.031742748
114	0x3d454bd7	0.04816803
115	0x3a8e3440	0.0010849312
116	0xbbfd1370	-0.0077232644
117	0x3c2722cc	0.010201167
118	0x3c6875ac	0.014188211
119	0x3c90949a	0.017648984
120	0x3d2676a1	0.040640477
121	0xbc5018ac	-0.012701195
122	0x3d4220cb	0.047394555
123	0x3cd440b2	0.025909755
124	0x3d055fcd	0.032562066
125	0x3d372cc7	0.044720437
126	0xbcbd75a0	-0.023127377
127	0xbc6be8b8	-0.014398746
128	0x3c837ef2	0.016051743
129	0x3b66b500	0.00352031
130	0xbcfb1c23	-0.030653065
131	0xbd2a529e	-0.041582696
132	0xbd24edae	-0.04026573
133	0x3d1ebdc9	0.038755212
134	0x3bfa6370	0.0076412484
135	0xbc82622c	-0.015915953
136	0xbca62f3d	-0.020286197
137	0xbc41380c	-0.011793148
138	0x3cd5a992	0.026081834
139	0xbd3bd295	-0.045855124
140	0x3c253fc8	0.010086007
141	0x3cba4676	0.022738677
142	0x3beea300	0.0072826147
143	0x3cd3d0d2	0.02585641
144	0x3c703bc4	0.014662687
145	0xbd2f0938	-0.0427334
146	0x3d3afc53	0.04565079
147	0xbc6c9db8	-0.0144419
148	0xbcd1d2b7	-0.025613172
149	0x3d268117	0.040650453
150	0xbcb6ba5d	-0.022305662
151	0x3d1e964d	0.038717557
152	0x3b528ea0	0.0032128468
153	0x3cbd5bca	0.023115057
154	0xbabbfd00	-0.0014342368
155	0xbc2ffcac	-0.010741394
156	0xbd2a63ee	-0.041599207
157	0xbd080898	-0.03321132
158	0xbc67936c	-0.014134269
159	0xbd2b59bb	-0.04183362
160	0x3b1db580	0.0024064481
161	0x3d03fb87	0.032222297
162	0xbcdf0297	-0.027222915
163	0xbd0224ec	-0.031773493
164	0xbd32647f	-0.04355287
165	0xbd1685e0	-0.036748767
166	0xbd1b5cd2	-0.037930317
167	0xbc9fb343	-0.019494658
168	0xbb8ca4e8	-0.0042921193
169	0x3c9e10da	0.019295145
170	0x3c14b048	0.009075232
171	0xbb9a43d0	-0.004707791
172	0xbc29ff2c	-0.010375779
173	0x3cc0425a	0.023469139
174	0xbd029b4c	-0.031886384
175	0x3d4ba859	0.049721096
176	0xbc5c3bd4	-0.0134419985
177	0x3c919802	0.017772678
178	0xbb6bece0	-0.0035999343
179	0xbca1e3fa	-0.019762028
180	0x3b86a500	0.004109025
181	0x3d23f5f1	0.04002947
182	0xbd05123e	-0.0324881
183	0xbc5e05d8	-0.013551198
184	0x3cfab526	0.030603956
185	0xbb518900	-0.0031972528
186	0x3d230e43	0.039808523
187	0xbd41f3e7	-0.047351744
188	0xba7ef2c0	-0.00097255036
189	0x3d49572f	0.04915541
190	0x3d249541	0.040181402
191	0xbca69343	-0.020333892
192	0xbc8f58c6	-0.017498385
193	0x3c6b49ec	0.014360886
194	0x3ce43caa	0.027860958
195	0xbd4cbdf2	-0.049985833
196	0xbae33ea0	-0.0017337389
197	0xbca5659a	-0.020190049
198	0x3cd0cbaa	0.02548774
199	0x3ca0bd46	0.019621503
200	0x3d101fbb	0.03518651
201	0x3d249da1	0.04018939
202	0xb802f400	-3.1221658e-05
203	0x3d328f77	0.04359385
204	0x3d1b8a7d	0.03797387
205	0x3cd518ba	0.026012767
206	0xbcb8c163	-0.022553151
207	0x3d22256b	0.039586466
208	0x3d355dd1	0.044278923
209	0x3d0f2d3b	0.034955245
210	0x3d0f886b	0.035042208
211	0xbc8efed4	-0.017455496
212	0xbc929e5c	-0.017897777
213	0x3ca1b522	0.019739691
214	0x3d1ce1b7	0.038301196
215	0xbd2d2a25	-0.04227652
216	0x3d0807bb	0.033210497
217	0xbc51db48	-0.012808628
218	0x3a68fac0	0.00088874623
219	0x3d1794cf	0.03700715
220	0xbcd1a433	-0.025590992
221	0xbc7616ec	-0.015020113
222	0x3cf1f042	0.02953351
223	0x3d2752e9	0.040850554
224	0x3d48d5b1	0.049031917
225	0xbcdd6850	-0.02702728
226	0x3d04da39	0.032434676
227	0xbc43f18c	-0.011959445
228	0x3c22f7cc	0.009946775
229	0x3c46b054	0.012127001
230	0x3d1be76f	0.03806251
231	0x3d06152f	0.032735046
232	0x3b94da40	0.004542619
233	0x3b6c5000	0.0036058426
234	0xbc716f74	-0.014736045
235	0x3ca1a96a	0.019734103
236	0x3c9aceea	0.018897492
237	0xbafb9940	-0.0019195452
238	0xbc5974cc	-0.013272475
239	0xbd4bae4f	-0.04972678
240	0x3cd4fd06	0.025999557
241	0x3ca36a36	0.019948106
242	0xbd3bc672	-0.04584355
243	0x3c7cd94c	0.015432667
244	0x3c8f141a	0.01746564
245	0xbd475c58	-0.04867205
246	0xbd4ada00	-0.049524307
247	0xbd2d8e75	-0.042372186
248	0x3b51ee30	0.003203284
249	0xbb4b7580	-0.0031045377
250	0x3c238b48	0.009981938
251	0x3ca65062	0.020302001
252	0xbcb806ea	-0.022464234
253	0xbcc0d633	-0.023539638
254	0x3cdbca26	0.02682979
255	0xbc3f2780	-0.011667132

bias f4 [120]
0	0xbc655d08	-0.013999231
1	0xbd3fec00	-0.046855927
2	0xbd3159c7	-0.04329851
3	0x3d467cd9	0.048458908
4	0x3d0ef1df	0.034898635
5	0xbd29be5a	-0.0414413
6	0x3c750cc4	0.014956657
7	0xbd18a7f3	-0.037269544
8	0xbd0651dd	-0.032792915
9	0xbb847c50	-0.0040431395
10	0x3bd66e10	0.006543882
11	0x3ce927c2	0.02846134
12	0xbb664c20	-0.003514059
13	0xbd0e4322	-0.03473199
14	0x3d0e3421	0.034717683
15	0xbcf3d487	-0.029764427
16	0x3d35a745	0.044348974
17	0x3cc183aa	0.023622353
18	0xba580e80	-0.0008241907
19	0x3d4731b9	0.048631404
20	0xbd26fcbe	-0.040768377
21	0xbd37eeeb	-0.044905584
22	0x3d0d6bad	0.034526516
23	0xbd34c8a2	-0.04413665
24	0xbcef4bf7	-0.029211028
25	0x3cd238f2	0.02566192
26	0xbb2aed20	-0.002608128
27	0x3cfec582	0.031100038
28	0xbcb93b40	-0.02261126
29	0xbc03d354	-0.00804599
30	0x3c240178	0.010010116
31	0xbd474c6a	-0.04865686
32	0x3ba0d828	0.0049085803
33	0xbca3a7a7	-0.019977404
34	0x3d1f5073	0.03889508
35	0xbd23d356	-0.039996468
36	0x3cdcb192	0.02694014
37	0xbd09266d	-0.03348391
38	0x3bec38d8	0.0072089247
39	0x3c825826	0.015911173
40	0xbcada96a	-0.021198947
41	0xbcc536f0	-0.024074048
42	0x3c44ad74	0.012004245
43	0xbd3c9fc8	-0.046050817
44	0xbc5c9e2c	-0.0134654455
45	0x3d2acb81	0.041697983
46	0xbd473913	-0.048638415
47	0xbd44ef97	-0.048080053
48	0xbc17aa18	-0.009256862
49	0x3d23d0bb	0.039993983
50	0xbbf462e8	-0.0074580796
51	0x3cb0b716	0.021571677
52	0xbcde85b3	-0.027163362
53	0x3d1c5e01	0.038175587
54	0x3d1ce243	0.038301717
55	0x3d3c0421	0.045902375
56	0x3d3996c7	0.045309808
57	0x3d218565	0.039433856
58	0x3cf27dd2	0.029601011
59	0xbd38338a	-0.044971026
60	0xbd0e4ce8	-0.034741312
61	0xbd224265	-0.0396141
62	0x3cabac7e	0.020956274
63	0xbd00b905	-0.03142645
64	0x3d305159	0.04304633
65	0x3d11b375	0.035571534
66	0xbb6e2c50	-0.003634233
67	0xbcbac630	-0.022799581
68	0x3d010683	0.03150035
69	0xbc392374	-0.011299957
70	0xbd3de1dd	-0.046357978
71	0x3cad584e	0.021160271
72	0x3b1961d0	0.0023404248
73	0x3d1c3e79	0.038145516
74	0xbc8b19bc	-0.016980045
75	0xbc169500	-0.009190798
76	0x3d3b2a6b	0.04569475
77	0xbc1f15c0	-0.009709775
78	0xbc8f1630	-0.017466635
79	0x3d468cd3	0.048474144
80	0xbd4b6cc8	-0.04966429
81	0x3d0f6e71	0.035017435
82	0xbd387ef3	-0.045042943
83	0x3d14548f	0.036213454
84	0x3bf84d10	0.007577546
85	0x3d3e17a9	0.046409283
86	0x3d43b019	0.04777536
87	0xbd44f272	-0.048082776
88	0xbc818980	-0.015812635
89	0xbd46e500	-0.048558235
90	0xbcc14c80	-0.023596048
91	0xbc137b54	-0.009001572
92	0x3d4067cb	0.046973985
93	0xbc99eec7	-0.018790616
94	0xbc836544	-0.016039498
95	0x3ce04402	0.027376179
96	0x3d09fb43	0.033686887
97	0xbd2ed383	-0.042682182
98	0xbcbf6e63	-0.023368066
99	0xbc68fca8	-0.014220394
100	0xbca5c133	-0.020233726
101	0x3b7de120	0.0038738921
102	0x3d07d857	0.033165302
103	0x3d385c7d	0.04501008
104	0x3d17c853	0.03705628
105	0xbd41c42b	-0.04730622
106	0xbc21a968	-0.00986705
107	0x3c9c883a	0.019107927
108	0x3d11a4fb	0.03555773
109	0x3c74ed84	0.014949206
110	0xbca10513	-0.01965574
111	0xbd2bd07e	-0.04194688
112	0xbccafd63	-0.024779027
113	0x3b7b3e20	0.003833659
114	0x3c9d337e	0.019189592
115	0x3c48f200	0.012264729
116	0xbc03aff8	-0.00803756
117	0x3cbf9f0e	0.023391273
118	0xbd3d8cd3	-0.04627688
119	0xbd4c3627	-0.04985633

weight f4 [84, 120]
0	0x3d2f298c	0.04276423
1	0x3d6c6ed8	0.057722896
2	0xbdaca7fc	-0.08430478
3	0x3da7905c	0.08181831
4	0xbc2faa80	-0.010721803
5	0xbd2038f2	-0.039116807
6	0x3dadaa2c	0.08479723
7	0xbc2a75f0	-0.010404095
8	0x3c1ee758	0.009698711
9	0xbc59f188	-0.013302214
10	0xbda91a80	-0.082570076
11	0xbd84a336	-0.064764425
12	0x3af71540	0.0018850937
13	0x3db18d8c	0.08669576
14	0x3cba2e04	0.02272702
15	0x3c4e52a0	0.0125929415
16	0x3d9c6fa2	0.0763848
17	0x3c80ea80	0.015736818
18	0xbd2c5b72	-0.042079397
19	0xbd32444a	-0.043522157
20	0xbbcee970	-0.006314449
21	0x3c19e7f8	0.009393685
22	0x3d95e34a	0.073187426
23	0x3c47d238	0.012196116
24	0x3daf2e08	0.08553702
25	0x3cd66780	0.0261724
26	0xbc38a0a8	-0.011268772
27	0x3d804a5a	0.062641814
28	0xbdbaaec0	-0.09115362
29	0xbce9b848	-0.028530255
30	0xbcc20660	-0.02368468
31	0xbd9a2c32	-0.07527961
32	0xbc0a7800	-0.008451462
33	0x3b269260	0.0025416836
34	0xbd4ff765	-0.050773043
35	0x3db4777c	0.08811852
36	0x3af35ac0	0.0018566474
37	0xbd6a589f	-0.057213422
38	0xbc894ecc	-0.016761206
39	0x3d6551e0	0.055986285
40	0x3ba44350	0.005012907
41	0xbcc56d3c	-0.024099939
42	0xbd0cdb65	-0.03438892
43	0x3d994bea	0.074851826
44	0xbd58bfac	-0.052917168
45	0x3d6e1a5c	0.058130607
46	0xbcd576cc	-0.026057623
47	0xbaf59800	-0.0018737316
48	0x3cbe7d60	0.023253143
49	0xbd9489f8	-0.07252878
50	0x3d665734	0.056235507
51	0x3d3784f8	0.044804543
52	0xbd8674e5	-0.065652646
53	0xbd8666e0	-0.065625906
54	0xbd9d0a29	-0.076679535
55	0xbd7a9aa6	-0.06118264
56	0x3d82dcd0	0.06389773
57	0xbda5bb52	-0.08092369
58	0x3cb6ec64	0.022329517
59	0xbd7a9eba	-0.06118653
60	0xbdae6abf	-0.08516454
61	0x3d476954	0.048684433
62	0xbc0e0c40	-0.008669913
63	0x3c6952d8	0.014240943
64	0x3d5410d8	0.051773876
65	0x3d4d9868	0.050194174
66	0xbd0a670b	-0.033789676
67	0xbd927cec	-0.07152733
68	0xbc8f13c4	-0.01746548
69	0xbd63e6c1	-0.055639986
70	0x3d0eb668	0.034841925
71	0xbd32031c	-0.043459997
72	0x3dae3644	0.08506444
73	0x3d180f5c	0.037124023
74	0x3d3b9f48	0.0458062
75	0xbd01b8f7	-0.031670537
76	0x3d8ce4e2	0.068795934
77	0xbd3606a6	-0.044439934
78	0x3d9cb20e	0.07651149
79	0xbcd043d0	-0.02542296
80	0xbbe67250	-0.00703267
81	0xbd10e9d2	-0.03537924
82	0xbd8ece6a	-0.06972964
83	0xbd581684	-0.052755848
84	0x3cb554bc	0.022135131
85	0xbd57fd93	-0.05273206
86	0xbdb6f916	-0.08934228
87	0x3da2fb28	0.079580605
88	0xbd3c53e6	-0.04597845
89	0xbc173250	-0.009228304
90	0xbd102ca0	-0.035198808
91	0xbdb3d5d8	-0.08781022
92	0xbd3e75e0	-0.046499133
93	0xbc501918	-0.012701295
94	0x3d28c6e4	0.041205302
95	0xbd9c6ec8	-0.07638317
96	0x3d0b6c24	0.034038678
97	0x3d3ca5a0	0.04605639
98	0xbc29ce38	-0.010364108
99	0xbc99e740	-0.018787026
100	0xbd66b56a	-0.056325354
101	0xbc91d454	-0.017801441
102	0xbdb99566	-0.090616986
103	0xbbd82430	-0.0065961108
104	0x3cc8bc6c	0.024503909
105	0xbd39e829	-0.04538742
106	0x3d862b90	0.06551278
107	0xbd408c33	-0.047008704
108	0x3d63f20c	0.055650756
109	0xbd44b47b	-0.048023682
110	0x3aff3500	0.0019470751
111	0x3daf57d2	0.08561672
112	0xbc6d4f48	-0.014484234
113	0xbd2e2cff	-0.04252338
114	0x3b007de0	0.0019606277
115	0x3d9e0142	0.07715084
116	0x3dafbb36	0.085806295
117	0x3d556154	0.052094772
118	0x3c916940	0.017750382
119	0x3d7e3434	0.062061504
120	0xbdad7174	-0.08468905
121	0xbd8026a0	-0.06257367
122	0xbd310d03	-0.0432253
123	0x3cf538dc	0.02993434
124	0xbcd8ff60	-0.02648896
125	0x3cc2d514	0.023783244
126	0x3db4511e	0.088045344
127	0xbdb21525	-0.08695439
128	0xbd9fad9d	-0.07796786
129	0x3bdcddf0	0.006740324
130	0x3c330bd8	0.010928117
131	0xbda13768	-0.07871896
132	0x3c10d608	0.0088400915
133	0x3d6236e0	0.055228114
134	0xbd4dac7a	-0.050213315
135	0x3c98e190	0.018662244
136	0xbdaed405	-0.08536533
137	0x3d40aef8	0.047041863
138	0x3b4bbb40	0.0031086951
139	0x3da7cd82	0.081934944
140	0x3d2414f0	0.04005903
141	0x3c0b3548	0.00849659
142	0xbd353710	-0.044241965
143	0xbd85846d	-0.06519399
144	0x3cb2e2f4	0.021836735
145	0x3ba4fa20	0.0050347
146	0xbcecd190	-0.028908521
147	0xbd93c5c1	-0.07215453
148	0x3d7ed2cc	0.06221275
149	0x3da4dd88	0.08050066
150	0xbd85168e	-0.064984426
151	0xbda5424c	-0.08069286
152	0x3d044a94	0.032297686
153	0x3c9c185c	0.019054584
154	0xbd7e9062	-0.062149413
155	0xbb531620	-0.0032209232
156	0x3d81f15e	0.06344865
157	0x3d1b9bc0	0.03799033
158	0xbcc171a8	-0.023613766
159	0xbb088360	-0.0020830259
160	0x3d96feea	0.0737284
161	0xbcae634c	-0.021287583
162	0x3d0c4a10	0.03425032
163	0xbd314368	-0.043277174
164	0x3cbb83b4	0.02288995
165	0xbd8a5417	-0.0675432
166	0x3d988136	0.0744652
167	0x3db2b630	0.08726156
168	0x3d161e14	0.03664978
169	0xbccdabdc	-0.025106363
170	0xbbe54080	-0.0069962144
171	0x3d4edebc	0.050505385
172	0xbcbe2640	-0.023211598
173	0x3da5ba04	0.0809212
174	0xbcf16bf0	-0.029470414
175	0xbd6c4136	-0.057679377
176	0xbd652d3b	-0.05595134
177	0x3d2d118c	0.042253062
178	0xbd7ae37c	-0.061252102
179	0xbd631f5f	-0.05544984
180	0xbd8f0563	-0.06983449
181	0x3d49a7d0	0.049232304
182	0x3d95dd92	0.07317652
183	0x3d81085e	0.06300424
184	0x3daea42a	0.085274056
185	0xbd8495da	-0.064738944
186	0xbda64eae	-0.08120476
187	0xbd64ccde	-0.05585944
188	0xbd629ad9	-0.055323455
189	0x3d01491e	0.03156387
190	0x3cdf8c08	0.027288452
191	0xbcef917a	-0.029244173
192	0x3d5e3c70	0.054256856
193	0xbd743f4a	-0.05963067
194	0xbc428a58	-0.011873804
195	0xbd922a7a	-0.07137008
196	0xbbad72b0	-0.005293213
197	0x3daa8496	0.0832607
198	0x3da36848	0.079788744
199	0xbd49bad8	-0.049250454
200	0xbd0dc023	-0.034607064
201	0xbc58ee68	-0.013240434
202	0x3da93840	0.08262682
203	0xbcd17e14	-0.025572814
204	0xbda3a846	-0.0799108
205	0x3d6f0e74	0.058363393
206	0x3d18c30c	0.037295386
207	0xbc919754	-0.017772354
208	0xbd50de1d	-0.050993074
209	0xbce1a8e4	-0.027546354
210	0x3c7e1d80	0.015509963
211	0xbdb15a39	-0.08659787
212	0xbcb9a390	-0.022661
213	0x3d34f440	0.044178247
214	0xbdad2cbd	-0.08455799
215	0xbd9a4d56	-0.07534282
216	0xbd2555b7	-0.040364947
217	0x3d6079c4	0.054803625
218	0x3ba1f9a0	0.0049430877
219	0x3da83582	0.08213331
220	0x3cc6e058	0.024276897
221	0x3d53665c	0.05161129
222	0x3db77ee4	0.08959749
223	0xbd8b2895	-0.0679485
224	0xbc30df40	-0.010795414
225	0xbc169390	-0.009190455
226	0xbbb1a9e0	-0.005421862
227	0x3d7ac2d0	0.061220944
228	0xbdabbdc5	-0.08385805
229	0xbd749415	-0.059711535
230	0xbc951cb8	-0.01820217
231	0xbd6bf728	-0.057608753
232	0x3c340528	0.0109875575
233	0xbcd12b9c	-0.02553349
234	0x3d89a134	0.067202
235	0x3d7977bc	0.060905203
236	0xbbd20eb0	-0.0064104423
237	0xbd2a0803	-0.041511547
238	0xbda739ec	-0.081653446
239	0xbc665d28	-0.014060296
240	0xbb0bec00	-0.0021350384
241	0x3db41f58	0.08795041
242	0xbd8a688c	-0.06758222
243	0x3aee64c0	0.0018187985
244	0x3d6ad7c8	0.05733469
245	0x3d2f9714	0.04286869
246	0x3d2700ac	0.040772125
247	0x3d8d4436	0.06897776
248	0xbda41428	-0.08011657
249	0xbd60bf72	-0.054870076
250	0xbcaf4ab0	-0.021397918
251	0x3cea419c	0.028595738
252	0xbbf8d6c0	-0.0075939596
253	0xbd52ff3f	-0.051512953
254	0x3d2486e0	0.04016769
255	0xbdb6af4a	-0.089201525

bias f4 [84]
0	0x3d855744	0.06510785
1	0x3d2be724	0.04196848
2	0xbd503a4f	-0.050836857
3	0x3d8bfa56	0.06834857
4	0x3d596df0	0.05308336
5	0x3d68a458	0.056797355
6	0x3d915736	0.07096712
7	0xbd98cc2a	-0.07460816
8	0x3cc2dd8c	0.023787282
9	0x3d1c36a0	0.038138032
10	0x3d6cc278	0.057802647
11	0x3c9bb1f4	0.019005753
12	0xbda781a2	-0.08179022
13	0xbce7abf8	-0.028280243
14	0xbd43e407	-0.047824886
15	0xbd9daede	-0.07699369
16	0xbd6a1b06	-0.057154678
17	0xbbfe5350	-0.0077613965
18	0xbda112e8	-0.07864934
19	0x3d90f182	0.07077314
20	0xbcef5574	-0.029215552
21	0x3d459ca8	0.048245102
22	0xba316d80	-0.0006768331
23	0x3c50aea0	0.012736946
24	0xbd40b694	-0.04704912
25	0x3d8d36ae	0.06895195
26	0xbd90f663	-0.070782445
27	0xbdaaab02	-0.083333984
28	0xbcc7e840	-0.024402738
29	0xbb859f20	-0.004077807
30	0xbd59b5bc	-0.05315183
31	0x3bee7f10	0.0072783306
32	0x3c3846c0	0.011247337
33	0xbd7b667e	-0.06137704
34	0x3c706230	0.014671847
35	0xbbd5b490	-0.006521769
36	0x3dac03b4	0.08399144
37	0xbcaf78d8	-0.021419927
38	0x3c375588	0.011189826
39	0xbdb3047b	-0.08741089
40	0xbd63623e	-0.055513613
41	0x3c387750	0.011258915
42	0xbda5e74f	-0.08100759
43	0x3c9f00b0	0.019409508
44	0x3d83df68	0.06439096
45	0x3d3f602c	0.046722576
46	0xbc7b7c18	-0.0153494105
47	0x3d11a548	0.035558015
48	0xba99a100	-0.0011720955
49	0xbd8fa5aa	-0.0701402
50	0xbdb52d7b	-0.08846565
51	0xbc4051c8	-0.011738248
52	0x3db45970	0.08806121
53	0xbc67b278	-0.014141671
54	0xbc5aa960	-0.013346046
55	0x3d582a8c	0.05277495
56	0x3d9e1606	0.077190444
57	0x3d89e7c0	0.06733656
58	0x3d84b53e	0.06479882
59	0xbd9ad4b4	-0.07560101
60	0x3d028ca4	0.031872407
61	0x3d585f24	0.05282511
62	0x3cb1b7c8	0.021694079
63	0x3d8d9458	0.0691306
64	0x3bbcb460	0.005758807
65	0x3d9d1458	0.07669896
66	0x3d6c6044	0.057708994
67	0xbc34bad8	-0.011030875
68	0xbd962a82	-0.073323265
69	0x3d0bf05c	0.03416477
70	0xbcdb3a00	-0.026761055
71	0x3d343794	0.043998316
72	0xbd9f5ff6	-0.07781975
73	0x3c112c38	0.00886064
74	0xbd5e0b5d	-0.054210056
75	0x3ced8c28	0.028997496
76	0x3db73272	0.089451686
77	0x3da6ccb0	0.0814451
78	0x3d896f08	0.06710631
79	0xbca8c75c	-0.020602874
80	0xbd1a7bf4	-0.037715867
81	0xbd8d4e2c	-0.06899676
82	0xbc28e4b8	-0.010308437
83	0xbd6c92cd	-0.057757188

weight f4 [10, 84]
0	0xbb2c6c00	-0.002630949
1	0xbdd2b462	-0.102883115
2	0x3cf5d43c	0.030008428
3	0x3db6ee37	0.089321546
4	0xbd119ebc	-0.03555177
5	0xbd6af6e7	-0.05736437
6	0x3c3c9a20	0.011511356
7	0x3d84a6bf	0.06477117
8	0xbad2da00	-0.0016086698
9	0x3d9ca7b1	0.07649172
10	0xbd1f3fb2	-0.038879104
11	0x3bc36b00	0.005963683
12	0x3ab91080	0.0014119297
13	0xbcbc951c	-0.02302032
14	0x3d8e5b89	0.06951053
15	0xbdb18d8c	-0.08669576
16	0x3c05ae90	0.008159295
17	0x3d71ec6a	0.059063353
18	0xbdcb88c6	-0.09938197
19	0x3db1cc55	0.08681551
20	0x3dd725a1	0.10505224
21	0xbdc0bfbe	-0.09411572
22	0x3d1ca9de	0.038247935
23	0xbcc36514	-0.023851909
24	0x3b12db00	0.0022408366
25	0xbdd54ffe	-0.10415648
26	0x3dad7aaf	0.08470666
27	0x3bf0d220	0.0073492676
28	0x3cf3934c	0.029733323
29	0x3dbb2bc7	0.09139209
30	0x3c7898d8	0.01517316
31	0xbdab7a02	-0.083728805
32	0x3d7a5992	0.061120577
33	0xbd412c87	-0.047161605
34	0xbd0d6866	-0.03452339
35	0xbbb155d0	-0.005411841
36	0x3cc4cdd4	0.024023928
37	0xbce4dd38	-0.027937517
38	0xbcc496c8	-0.02399768
39	0xbd3fbbc4	-0.046809927
40	0x3cf1838c	0.029481672
41	0x3dddda47	0.10832649
42	0xbd962f46	-0.073332354
43	0xbd10d0bc	-0.035355315
44	0xbc9049b8	-0.017613277
45	0xbabb4d00	-0.0014289916
46	0xbd957bf2	-0.07299031
47	0x3c2cad38	0.010539345
48	0x3d7fbd06	0.062436126
49	0xbd8a0655	-0.06739489
50	0x3d713d62	0.05889643
51	0xbdc7c176	-0.097536966
52	0x3d97a3f1	0.07404316
53	0x3dc3870d	0.09547243
54	0x3d8bc6c3	0.0682502
55	0x3c284498	0.01027026
56	0xbc78fe10	-0.015197292
57	0x3c53b8c0	0.012922466
58	0xbcd407f4	-0.025882699
59	0xbdc25f62	-0.09490849
60	0xbc099470	-0.008397207
61	0x3c975ac4	0.018475898
62	0xbd44fca4	-0.0480925
63	0xbddb6256	-0.107121155
64	0x3d38352e	0.04497259
65	0xbd49c986	-0.049264453
66	0xbc561fc0	-0.013069093
67	0x3d0aca5e	0.0338844
68	0xbd8dfe06	-0.06933217
69	0xbd5b8bcb	-0.053600114
70	0xbd057744	-0.032584444
71	0xbc8314d8	-0.01600115
72	0x3dc5a155	0.09649912
73	0x3caf4b2c	0.02139815
74	0x3d69de12	0.05709655
75	0xbcee7494	-0.029108323
76	0x3d772482	0.06033755
77	0x3d7db97a	0.061944462
78	0xbdb2aec2	-0.08724739
79	0x3d817e4b	0.063229166
80	0x3d89ff7f	0.06738185
81	0x3c0625d0	0.008187726
82	0x3d9f4b1d	0.077779986
83	0x3dd80eb9	0.10549683
84	0xbd0ef5fe	-0.034902565
85	0x3b2cc5e0	0.002636306
86	0xbcfd6740	-0.030933022
87	0x3d8093c5	0.06278185
88	0x3d8fe8ed	0.07026849
89	0xbd5bdb89	-0.053676162
90	0x3d0a32f2	0.03373999
91	0x3c82cae4	0.015965886
92	0xbdcda4ec	-0.10041222
93	0xbd3c4066	-0.045959853
94	0xbda0c740	-0.07850504
95	0x3dab913b	0.0837731
96	0x3db38a5b	0.087666236
97	0xbd4ea8fa	-0.050454117
98	0xbd990562	-0.0747173
99	0xbdcc5852	-0.09977783
100	0x3be0f540	0.0068651736
101	0xbbb2c5a0	-0.0054556876
102	0xbdc47c62	-0.09594037
103	0xbb6f5a00	-0.003652215
104	0x3d1c3efe	0.03814601
105	0xbdc5bdb6	-0.09655325
106	0xbd057214	-0.032579497
107	0xbce275c0	-0.027644038
108	0x3dc0b9e9	0.094104595
109	0x3c023b00	0.007948637
110	0xbc8ea7e8	-0.017414048
111	0x3da68251	0.08130325
112	0x3ddea31d	0.10870955
113	0xbb37dee0	-0.0028056428
114	0x3da09f11	0.078428395
115	0xbce52c3c	-0.027975194
116	0x3ce19604	0.027537353
117	0x3db46061	0.08807445
118	0xbccfc2e0	-0.025361478
119	0xbd847b0d	-0.064687826
120	0xbc5cfcb8	-0.013487987
121	0x3bb38d70	0.005479507
122	0x3d52eb76	0.051494084
123	0x3d925f27	0.07147055
124	0x3d7ea04e	0.062164597
125	0x3c0af998	0.008482359
126	0x3d2eef22	0.042708524
127	0x3d7370c6	0.05943372
128	0xbd3852e8	-0.04500094
129	0x3d3ec4e6	0.046574496
130	0x3d6c3d12	0.05767543
131	0x3d23c25a	0.03998027
132	0xbd7e9f41	-0.062163595
133	0x3d9075e9	0.070537396
134	0x3cf540b4	0.02993808
135	0x3db12605	0.0864983
136	0xbd8783d3	-0.0661694
137	0xbd2ebbe2	-0.042659648
138	0x3d143b7e	0.03618955
139	0xbdbe37e0	-0.09288001
140	0xbd088d3e	-0.033337824
141	0xbdd3c6ed	-0.103406765
142	0x3d0aab42	0.03385473
143	0x3d25296a	0.0403227
144	0x3dbf914d	0.09353886
145	0x3db1e629	0.08686478
146	0x3d8308bb	0.063981496
147	0x3dc6eddb	0.09713336
148	0xbce9d1e8	-0.028542474
149	0xbdc8029f	-0.09766125
150	0xbdafcccd	-0.085839845
151	0xbcb8ddd8	-0.02256672
152	0x3dd40bad	0.103537895
153	0xbd1d4580	-0.03839636
154	0x3dd098c7	0.1018539
155	0xbdc7e4de	-0.0976045
156	0x3d8acffb	0.067779504
157	0xbd114b72	-0.03547234
158	0x3d616efe	0.05503749
159	0xbb6cc1c0	-0.0036126226
160	0xbc6c79e8	-0.014433362
161	0xbad36980	-0.0016129464
162	0x3d10ad76	0.035321675
163	0x3dc1fa0b	0.0947152
164	0xbcbe4940	-0.023228288
165	0xbdcefa7d	-0.101063706
166	0xbdb3a4f7	-0.08771699
167	0x3cf9b38c	0.030481122
168	0x3ddab231	0.106785186
169	0x3c8d8a74	0.017277934
170	0x3dd2069d	0.10255168
171	0xbdd354f8	-0.10318941
172	0x3c116138	0.008873276
173	0x3ca9733c	0.02068483
174	0xbd8b0fa8	-0.067900956
175	0xbdcf3bf1	-0.10118855
176	0x3dbd5e73	0.092465304
177	0x3dd85727	0.10563498
178	0xbd8b2c42	-0.06795551
179	0xbd0a312c	-0.0337383
180	0x3d47a512	0.048741408
181	0xbd7e09d1	-0.06202108
182	0xbdb55df6	-0.08855812
183	0xbbbd64c0	-0.0057798326
184	0x3d6f7bca	0.058467664
185	0x3d9146c3	0.07093575
186	0x3dd01c49	0.10161645
187	0x3d91f057	0.07125919
188	0xbdc74690	-0.097302556
189	0xbc338d28	-0.010958947
190	0xbcd0f8e8	-0.025509313
191	0xbd1367da	-0.035987712
192	0xbd2152a6	-0.03938546
193	0x3d25cca2	0.040478356
194	0x3d9f2c45	0.077721156
195	0x3d5a364a	0.05327443
196	0x3d13246e	0.035923414
197	0xbc214660	-0.009843439
198	0x3b52ca80	0.0032164156
199	0x3d84b5a1	0.064799555
200	0x3ce7f82c	0.02831658
201	0xbda886a4	-0.08228806
202	0x3d487742	0.048941858
203	0x3dd26d0f	0.102747075
204	0x3d491012	0.04908759
205	0xbca87de8	-0.02056785
206	0x3d1c35ba	0.038137175
207	0x3d92a829	0.0716098
208	0x3c568570	0.013093337
209	0x3dc12b45	0.09432081
210	0x3da515fb	0.08060833
211	0x3c2612f8	0.010136358
212	0x3dd698fb	0.104783975
213	0x3da7230f	0.08160984
214	0x3b49f7a0	0.0030817762
215	0xbd8de627	-0.06928664
216	0x3d8da99f	0.06917118
217	0x3c699058	0.014255606
218	0xbcba2090	-0.022720605
219	0xbd28ffba	-0.041259505
220	0x3da6f1d5	0.081515945
221	0x3da64c23	0.08119991
222	0xbd87d056	-0.06631534
223	0x3d51e2b6	0.0512416
224	0x3d93513b	0.07193228
225	0x3dbd6369	0.092474766
226	0xbd55d1d5	-0.052202065
227	0x3dc892f9	0.09793658
228	0xbd8d1779	-0.06889243
229	0xbcd1b0f4	-0.025597073
230	0xbbd15430	-0.0063882098
231	0x3d7bf9c2	0.061517484
232	0xbd42686c	-0.047462866
233	0x3d820d5f	0.063502066
234	0x3c96833c	0.018373124
235	0x3dc12799	0.09431381
236	0xbdd4db91	-0.103934415
237	0x3cd9f334	0.026605226
238	0xbcb91038	-0.022590742
239	0xbd71f4eb	-0.059071463
240	0x3db77c1d	0.089592196
241	0xbdccb03e	-0.09994553
242	0x3cbe8d6c	0.023260795
243	0x3d08c81e	0.03339397
244	0xbc15d630	-0.009145305
245	0xbd585f57	-0.0528253
246	0x3b502980	0.0031763017
247	0x3d89b4e5	0.06723956
248	0xbdc9e632	-0.098583594
249	0xbc2f5a88	-0.010702737
250	0x3d8caced	0.068689205
251	0xbcd901b8	-0.026490077
252	0x3db71b69	0.08940775
253	0x3d792c5a	0.060833313
254	0xbd34c702	-0.0441351
255	0x3c8ddaf4	0.017316319

bias f4 [10]
0	0xbd037362	-0.03209246
1	0xbd952aac	-0.0728353
2	0x3d2ace4a	0.04170064
3	0xbd20a408	-0.039218932
4	0xbab97540	-0.0014149323
5	0x3dc1dfb3	0.09466495
6	0xbdced66a	-0.1009949
7	0xbdb2f33f	-0.08737802
8	0xbc85c090	-0.016327173
9	0x3dc9489f	0.098283045
