seq2seq/models/no_agreement.pt (torch_old, 261427 bytes, 10 tensors)

weight f4 [6, 3, 5, 5]
00000000: 0499 dd3d 0e92 983d 30d4 063d 86db a03d
00000010: 1882 46bc 6cd8 85bd d9ab dbbd 68f9 d73d
00000020: a01f 7b3d df76 71bd 7e17 0fbd f06a 3ebd
00000030: f874 c4bd f0a5 e83c 502c 623d 74d2 b1bc
00000040: 6463 d6bd 8e49 25bd fc14 2abd c0bb 1ebb
00000050: c06f dfbd 80d5 8c3c e399 debd 5823 613d
00000060: 7c65 e5bd cc4f 023d 20aa 233c face cdbd
00000070: 29e1 8bbd e0ac bdbb 66e8 a1bd c062 aa3c
00000080: 6035 b4bb b8af 80bc e2a6 a53d b88d 03bc
00000090: cb4d ecbd 50ad 2b3d 167b d43d 0ead c7bd
000000a0: 6dd3 d9bd b0ce a33b f331 5dbd f0c8 d7bd
000000b0: eed8 a43d 6025 7fbc 785d 343d 8056 e13d
000000c0: f9e1 bcbd b02c 7d3c 62d2 43bd 3e5d 79bd
000000d0: c5fd bfbd 4036 b13c b0b5 cbbd dc0f a43d
000000e0: 34e8 e6bc 108b 6e3d 9885 c83d 6075 c7bc
000000f0: 1c91 a43d 08d4 c83d b22c c33d 1852 363d
00000100: 0091 e43c d0d8 3dbd 34dc 60bd 785e 113d
00000110: 5425 b3bc 12a9 eb3d 7021 da3d 3882 de3d
00000120: 22bf c33d 401e 763c 7c47 2e3d b01f 77bd
00000130: 5c6a 103d 8202 ac3d 6613 b53d 7e62 8d3d
00000140: e4aa aa3d 1a47 8e3d e6e4 943d f05d cc3c
00000150: f665 b1bd dcc5 303d 9806 393d 9a45 ae3d
00000160: d6ab e43d 80a4 423a 488f 503d c05b 5b3c
00000170: e03e 23bd 88aa d9bc 603a 943b 9863 ed3c
00000180: 6cab c5bd 1a67 33bd 1057 a33c 181b 9cbc
00000190: 18a6 f4bc 2876 bc3d 1491 7b3d 9e0b cd3d
000001a0: d416 283d 3847 8b3c 4a52 a33d e4a0 5d3d
000001b0: d04b 033d a0b1 553d d069 7e3c 2e23 86bd
000001c0: be9a a53d d294 59bd 8633 9f3d 68e7 833c
000001d0: 1cac 14bd d248 81bd b853 773d c477 67bd
000001e0: aea9 d63d 981b 153d 64b2 233d d0dc 763c
000001f0: fcac 593d 14eb 813d 6c57 81bd eef8 01bd
00000200: 30ff 51bd 3c0c da3d 7416 a1bc 8458 703d
00000210: a088 82bc c02d 6f3d fc5b 2ebd a01a ba3b
00000220: 3b67 d1bd 003d 493b 0a5b 91bd 2185 6dbd
00000230: 184d 84bc ac61 153d c667 4ebd 381d f6bc
00000240: 780c 633d d857 e6bd 991b 98bd 20b8 bb3d
00000250: f028 82bd 16f7 9ebd 15f9 c3bd bec9 dd3d
00000260: 642d 30bd 22dd 3cbd 3cb4 a63d 0065 17bb
00000270: 68f0 773d 602a 203c 9c2a 3cbd 6c4b 713d
00000280: 680c 5cbc 2cfa 893d d041 2e3c 9c1a 173d
00000290: 4423 e0bc d08f cd3c b04e d33b 2c55 6bbd
000002a0: 9b6f 5fbd 822d a23d 02eb 973d 9a86 13bd
000002b0: d0f0 093c 1ce5 e9bc e088 c7bd 9ed8 dbbd
000002c0: e46e 18bd 56fc da3d 4f2d ecbd 1c43 b6bd
000002d0: aea6 cd3d e899 acbd 5a73 a5bd 44de c63d
000002e0: 5794 d3bd a0fa 33bc 90ad 203c 0084 bf3a
000002f0: 40db 52bd f49a e43d 17ec d2bd 596c a2bd
00000300: 00c5 463c 60ce 473c 84be c8bd 646e c13d
00000310: 1602 993d a8ca b6bd a86d a23d c0cb a93d
00000320: 8074 003b 5b5d 66bd 8e33 8f3d 68a1 f23c
00000330: 7cea 2f3d 2cad 2b3d 1cd5 cc3d 70b1 46bc
00000340: c625 2abd 5203 b6bd e053 e8bb d0dd ef3b
00000350: 78d6 e53d d442 e03d 584b a23c 9e83 aa3d
00000360: 76c5 c8bd f41e afbc de1f b63d 54c0 b93d
00000370: 9017 e5bc aed7 03bd 3477 9a3d c0da 703c
00000380: 22b3 4abd 00bb d2bb 94a9 07bd 3827 303d
00000390: 34d4 b73d 00e9 703a fa5d 33bd c054 9e3d
000003a0: 98aa 8a3c 6099 41bc 00f4 a43c 7c07 92bc
000003b0: 3689 97bd bca5 c6bc be3e b73d f002 c83c
000003c0: 0cff dd3d 8e61 c8bd 0a87 ddbd 200e 70bb
000003d0: 94fa 623d ece9 233d aa7c e03d 84dc 093d
000003e0: 54e7 87bd 74f8 953d fce8 293d 1607 11bd
000003f0: a48d 38bd 023e d33d 3119 8abd 8ff8 5dbd
0.10820201 0.07449733 0.0329172 0.07854371 -0.012115978 -0.0653542 -0.10726137 0.10545617
0.061309457 -0.058951255 -0.034934513 -0.046488702 -0.095926225 0.028399438 0.05521804 -0.021706797
-0.10468176 -0.04035335 -0.04152392 -0.0024220794 -0.109099865 0.017191648 -0.10869195 0.054965347
-0.11200997 0.03181438 0.009989291 -0.10049243 -0.06830055 -0.0057884306 -0.079056546 0.02079904
-0.005499527 -0.01570879 0.08088471 -0.008029394 -0.11538275 0.04191333 0.10375039 -0.097498044
-0.106360294 0.0049990043 -0.054002713 -0.10536373 0.080491886 -0.015572876 0.04403445 0.11002827
-0.09222788 0.015452549 -0.04780806 -0.06087994 -0.093745746 0.021632314 -0.099467635 0.080108374
-0.028186895 0.05823809 0.09791106 -0.024347961 0.0803549 0.09806067 0.09530009 0.044511884
0.027901173 -0.046349347 -0.054897502 0.035490483 -0.021868385 0.11506857 0.10650909 0.10864681
0.0955794 0.015021861 0.04254864 -0.060332954 0.035257682 0.08398916 0.088415906 0.069035515
0.08333376 0.06947155 0.072702214 0.024947137 -0.08662026 0.043157443 0.045172304 0.08509369
0.111655876 0.0007425025 0.050917894 0.013388574 -0.039854884 -0.026570573 0.0045235604 0.028978154
-0.09651837 -0.043799497 0.019938976 -0.019055888 -0.029864356 0.09202224 0.061417654 0.100119814
0.041037396 0.017001733 0.0797468 0.054108515 0.032054722 0.05217135 0.015528157 -0.06549679
0.08086155 -0.05312044 0.07773499 0.016101554 -0.03629695 -0.063127175 0.060382575 -0.0565107
0.104815826 0.03640327 0.03996505 0.015067294 0.053143486 0.06343666 -0.063155025 -0.03173154
-0.051268756 0.10646865 -0.019664027 0.058678165 -0.015934289 0.05839324 -0.042568192 0.0056794435
-0.10224768 0.0030706525 -0.070974424 -0.05798829 -0.016150042 0.0364701 -0.050391935 -0.03004323
0.055431813 -0.112472236 -0.07427139 0.091659784 -0.063554645 -0.07761972 -0.09568993 0.10829495
-0.043012038 -0.046109326 0.08139846 -0.0023100972 0.060532004 0.009775728 -0.045939073 0.05890982
-0.013430692 0.067371696 0.010635808 0.03689061 -0.027360566 0.02509299 0.0064485893 -0.057454273
-0.054549795 0.07918836 0.07417871 -0.036017038 0.008419231 -0.02855163 -0.09742904 -0.10734676
-0.03721513 0.106926605 -0.115320794 -0.08899519 0.10041557 -0.08427793 -0.08078642 0.097103626
-0.10331028 -0.010985047 0.0098070055 0.0014611483 -0.051478624 0.111623675 -0.10298937 -0.07930822
0.012131929 0.0121952 -0.09801963 0.094448835 0.07471101 -0.08925372 0.079310715 0.08290815
0.001960069 -0.056241374 0.06992255 0.02961798 0.04294823 0.041913196 0.10001585 -0.012127265
-0.04153993 -0.08887352 -0.007090077 0.0073201433 0.11222547 0.109502465 0.019811317 0.08325885
-0.09803288 -0.021377064 0.08892797 0.09069887 -0.027965337 -0.03218811 0.075422674 0.014700592
-0.04948724 -0.0064309835 -0.033120707 0.043006152 0.089760214 0.0009189993 -0.043790795 0.077310085
0.016927049 -0.011816353 0.02013588 -0.017825834 -0.07399218 -0.02424895 0.08947514 0.024415463
0.10839662 -0.09784232 -0.10816772 -0.0036629513 0.05541475 0.040018007 0.10961278 0.033657566
-0.06635919 0.07322779 0.041481957 -0.03540715 -0.045056954 0.103145614 -0.06743086 -0.054192122

bias f4 [6]
00000000: b81d bebd ae48 da3d a8eb 5a3d 7468 9d3d
00000010: e455 bfbd eca1 833d
-0.09283012 0.10658394 0.053447396 0.076859385 -0.09342554 0.064273685

weight f4 [16, 6, 5, 5]
00000000: fdc3 92bd 3084 fa3b d425 073d 543f 8dbd
00000010: f0a5 2fbc b075 463c b8d3 8b3d 0c97 89bd
00000020: 7ce3 9bbd 1014 193d 789f fa3c 4436 92bc
00000030: 6cc5 473d c9a0 23bd c963 0dbd 4b5c a3bd
00000040: bcbb dc3c f6bb 5ebd 7064 2bbd 9e4b 59bd
00000050: 8f70 98bd 8e27 53bd 7a6e fdbc e0e9 533d
00000060: 2c03 6b3d 78c8 f8bc eaca 33bd dce0 7a3d
00000070: 5811 f63c 785b 72bc 8eaa bbbc 84b4 8b3c
00000080: f189 18bd f4ab 5a3d a458 663d 2ced 213d
00000090: 0e33 a7bd c5df 46bd 963f debc f072 073c
000000a0: 1a0a 82bd 086d 293d 60ee bcbb a817 9cbd
000000b0: a052 e9bc 2485 823d f831 033c b099 bf3c
000000c0: ac9a a03d 0098 fe3c ac4c 06bd f868 823c
000000d0: ac5a babc 88ad 96bd 10cf 323d 74bd b4bc
000000e0: c7c9 32bd a0c7 343b 4448 583d d03e 95bb
000000f0: 6844 3bbc 00b0 7538 484e c23c 3823 aa3c
00000100: 63d9 02bd 10b7 c6bb f08f 54bc d4ed 3d3d
00000110: 009c 69ba b0a7 1e3d a4cc 223d 709d c2bc
00000120: 9097 583d be01 4ebd 50a7 603c 3545 82bd
00000130: be86 1e3d 78b5 4e3d 3ce4 a5bd 00fe 25b9
00000140: c238 cbbc 6c3e 753d dc9a 043d 20f5 cbbc
00000150: 824a ffbc 9ccb 9e3d 70b0 b8bb 708f 5c3d
00000160: 48cc 71bc 5e3f 53bd 71f9 55bd c9f3 73bd
00000170: 6e76 22bd ba93 debc 3a1a 8e3d 6323 17bd
00000180: 4a24 0f3d 0aa7 82bd 76b7 86bd e46d 47bd
00000190: a075 383c 103f 3ebd 80e5 803b eae9 3dbd
000001a0: d870 723c e0b1 3d3d 4696 d4bc 1081 2f3c
000001b0: 3ce2 2d3d f4a7 643d 7c5e dc3c a0cf 5a3d
000001c0: 78e4 6f3c e4fd 003d 6302 92bd 9c17 ef3c
000001d0: f805 353c 8840 0e3c 9aa1 d9bc 4c7a 9bbc
000001e0: 54ce 6bbd 465c 1a3d 916d 37bd a12c 1abd
000001f0: c0dd bebc 14ab 563d c279 7fbd d778 9ebd
00000200: 2b56 2bbd 36ec 9f3d eca0 a93c ed73 14bd
00000210: 3036 1a3c 6418 ccbc a6fa 2e3d 8dfa 11bd
00000220: 8648 86bd 1c54 8dbc bc81 df3c eb1f 84bd
00000230: a001 47bb e824 62bc a008 bc3b c086 cbbc
00000240: 44bb 83bc 2e16 59bd 8068 e43c f855 3dbc
00000250: 22f1 09bd fca4 3abd 66b6 75bd 58d0 febc
00000260: be77 8abd c0f3 483b 9cab 993c e0ea 33bc
00000270: 341a 133d 9c7a 693d 002f a33a 7868 a8bc
00000280: 08f2 253c 9389 6dbd 2688 1ebd 205d 74bc
00000290: 4ca7 cd3c ccf2 5fbd 902d acbb 8e25 853d
000002a0: 3c71 a73c da87 7cbd a4a8 5d3d 456f a3bd
000002b0: f0cb 6d3d 2287 5abd 65d8 1cbd a8d0 433d
000002c0: b835 9abc 0c4f a33d 7019 b23b fa56 7bbd
000002d0: 1289 923d 2893 c9bc 7e2a 1cbd 1809 983d
000002e0: 1057 6a3c de24 44bd b4f6 ce3c b094 313d
000002f0: 000e 783d de86 94bd 40cb fc3b 8473 953d
00000300: 94d8 a2bd 403c 7e3c 4098 003c 0068 a73a
00000310: ec21 58bd 45c3 52bd f00c c2bb e2fe 56bd
00000320: 60e5 c4bc bc01 563d c5c7 1dbd 0013 773c
00000330: 2e6d 8f3d 841e 81bd 3ae7 4abd dc8a 9e3c
00000340: 187b 8fbc c4e3 edbc a153 87bd 445b e1bc
00000350: 760b 74bd a8d1 6a3c 70b7 a63d 62cc 2e3d
00000360: cc12 23bd a03c 48bd fd81 0abd e828 243c
00000370: 8f8c 98bd 06a5 a43d 1b2f a7bd f87a 8cbd
00000380: 804a 01bb 00d6 d6b9 854b 84bd c66b 253d
00000390: 7b28 3fbd b20e b2bc e43c 983d 23e7 4fbd
000003a0: 307b f4bb 0e00 0b3d 3a32 6bbd 244d cf3c
000003b0: d72f 82bd 98b8 40bc 008a 3fb9 002d d53a
000003c0: 80e0 ad3c 394b 5abd fe7e 52bd 408b 623b
000003d0: 4acd 003d 0059 23ba 84e9 34bd 049f 9f3d
000003e0: 185a 753c 6039 b33b 9c0e 223d 7aee 72bd
000003f0: 8053 4f3b a4cc 6abd 2886 b13c 4c3e 3a3d
-0.07166288 0.0076451525 0.03299506 -0.068968445 -0.010720715 0.01211302 0.068274915 -0.06718263
-0.076117486 0.03737265 0.030593619 -0.017848141 0.04877226 -0.03994826 -0.03451899 -0.07976588
0.026944987 -0.054378472 -0.04184383 -0.05305063 -0.07443344 -0.051551394 -0.030936468 0.051736712
0.05737607 -0.030369028 -0.043894686 0.0612496 0.030037567 -0.014792316 -0.022908475 0.01705385
-0.037240926 0.053386644 0.056236878 0.039532825 -0.08164035 -0.048553247 -0.02712993 0.008267149
-0.06349583 0.041363746 -0.005765721 -0.076216996 -0.028481781 0.06373051 0.008007519 0.023388714
0.07842001 0.031078339 -0.032787964 0.015919194 -0.022748314 -0.07357317 0.0436545 -0.022062995
-0.04364946 0.0027584806 0.052803293 -0.004554607 -0.011429884 5.8576465e-05 0.023718968 0.020768747
-0.031945597 -0.006064303 -0.0129737705 0.04636939 -0.00089114904 0.038734138 0.03974594 -0.023756713
0.052878916 -0.05029463 0.013711765 -0.063608564 0.03870272 0.05046603 -0.08100173 -0.00015830249
-0.024807338 0.059873983 0.032374248 -0.024897158 -0.031163458 0.07753679 -0.0056362674 0.05384773
-0.014758177 -0.051574104 -0.05223984 -0.059558664 -0.039663725 -0.02717005 0.06938596 -0.03689898
0.034946717 -0.063795164 -0.06577961 -0.048688784 0.011258513 -0.04644686 0.0039336085 -0.046365656
0.014797412 0.046312213 -0.025950562 0.010711923 0.042452082 0.055824235 0.026900522 0.053420663
0.014641874 0.03149213 -0.071293615 0.029186063 0.011048786 0.008682378 -0.026566315 -0.018979214
-0.057569817 0.037685655 -0.044782225 -0.037640218 -0.023299098 0.052409247 -0.062371977 -0.07737892
-0.041830223 0.078087255 0.020706616 -0.036243368 0.009412333 -0.024913974 0.042719506 -0.035639334
-0.065568015 -0.01725202 0.027283542 -0.064514 -0.0030365959 -0.013802744 0.005738333 -0.024844527
-0.016080506 -0.052999668 0.02788186 -0.011556141 -0.033677228 -0.045567498 -0.0599884 -0.031105205
-0.0676112 0.0030662864 0.018758588 -0.0109812915 0.03591366 0.057001695 0.001244992 -0.020557627
0.0101285055 -0.05799253 -0.03870406 -0.014914781 0.025104187 -0.05467491 -0.005254455 0.065013036
0.020439737 -0.061652996 0.054115906 -0.07980207 0.058055818 -0.05335153 -0.038292307 0.047806412
-0.018824443 0.07974061 0.0054351613 -0.061362244 0.0715505 -0.024606302 -0.03812646 0.074236095
0.014302984 -0.04788672 0.025264122 0.04335469 0.060560226 -0.072522864 0.007714659 0.072974235
-0.07951465 0.015517294 0.007848799 0.0012772083 -0.052766725 -0.051455755 -0.0059219524 -0.05248917
-0.024035156 0.052247748 -0.038520593 0.015080214 0.07003246 -0.063046485 -0.04953692 0.019353323
-0.01751475 -0.029039271 -0.06607748 -0.02750934 -0.059581243 0.0143322125 0.08140457 0.042675383
-0.039812848 -0.04888594 -0.033815373 0.010019518 -0.074486844 0.08039288 -0.081632815 -0.06859392
-0.0019728243 -0.00040976703 -0.06459717 0.040385984 -0.046669465 -0.021735523 0.07433489 -0.05075754
-0.007460974 0.0339356 -0.057420947 0.025305338 -0.06356781 -0.011762761 -0.00018266588 0.0016264021
0.021225214 -0.053294394 -0.05139064 0.0034567863 0.03144578 -0.00062312186 -0.04416801 0.07794002
0.014975093 0.005469486 0.039564714 -0.05930946 0.0031635463 -0.057324067 0.021670416 0.045469567

bias f4 [16]
00000000: 7875 a3bc 2698 82bd 025d 4fbd a6ea 9d3d
00000010: 9cd3 d23c d412 4abd e06f 273c 8af7 77bd
00000020: cd0c 8dbd 709b 953d 34bd 913c e00e 28bb
00000030: 1ce4 393d be50 953d b242 923d 3c0f a63d
-0.019953474 -0.06376676 -0.05062581 0.07710771 0.025735669 -0.049334362 0.010219544 -0.060538806
-0.06887207 0.07305038 0.017790414 -0.0025643632 0.045383558 0.07290791 0.07141627 0.081083745

weight f4 [120, 400]
00000000: c099 b5ba 3218 c53c f097 9cbc c81b 0dbd
00000010: 400c 63bc d99a 093d 0da3 143d 00e0 e639
00000020: a5ff 4abd b60a 99bc 36ad c83c 30af f93b
00000030: 2b8c 0fbd c06a 7a3a 4d71 22bd 1753 32bd
00000040: ad3f b1bc 3272 d93c 8767 46bd ed80 d5bc
00000050: cd22 38bd c9dc 373d d4f1 583c cbb3 133d
00000060: a7ba 4c3d 3932 2a3d 73b5 32bd ca0e b53c
00000070: 161d b33c f85f 21bd 930e 153d 5223 aa3c
00000080: b005 693b d16a 013d ed8f d4bc 9438 10bc
00000090: 407e 863a 3c28 6f3c e4c0 05bd d79e 49bd
000000a0: c06f 413c 07ce f2bc 40a3 c4bc d035 93bb
000000b0: dee3 cd3c 80aa 7cbb 38fd 1dbd 7423 34bc
000000c0: e8c7 2c3c 18d4 15bd 60c2 edbc 40eb bf3b
000000d0: d154 113d 6c84 18bc f15a 103d db32 3ebd
000000e0: 8c54 7bbc 923c 973c 1879 8e3b d380 42bd
000000f0: f0c2 95bb 901a cf3b e833 b7bb 9284 41bd
00000100: f4ce 0cbc 40a7 c13b cd0f bdbc 4d67 dcbc
00000110: 700a 98bb 00c8 18bc d928 173d 60b5 023b
00000120: dbd6 063d e7d1 f2bc 2361 2abd e82c bebb
00000130: ef61 1f3d fe48 0cbd 4167 403d 70fe e4bc
00000140: a06b 2d3c 6046 b03a 0025 34bb 4de6 0ebd
00000150: b202 8c3c a0b3 39bd 0397 a2bc 421b 913c
00000160: 5883 0a3c 6037 f63a 1e93 27bd 0036 db3b
00000170: e87b 99bb 8816 49bd e3db 473d 63f5 313d
00000180: e0fd b9bc 7a15 b6bc 09f9 463d 4008 b2bc
00000190: 565c 9a3c 8675 ae3c c0a1 e13a 1aad cb3c
000001a0: e40b 5f3c fa6c a5bc 60b0 f33a 248b 793c
000001b0: c259 cb3c a823 82bb 2c99 3d3c 5805 993b
000001c0: 89d5 163d a707 aabc 5db3 0f3d e40d 5a3c
000001d0: c286 b13c dd5d fcbc 0032 21bb 4c99 66bc
000001e0: ace0 413c 2618 c63c 822d 36bd e257 a73c
000001f0: 16aa c13c 8c36 2a3c 0427 89bc a3d5 d3bc
00000200: 72d3 aa3c ebdd 2ebd 0db2 eabc 3a54 bb3c
00000210: 60b0 edba bcc9 6a3c fea3 e13c 123d 3fbd
00000220: edc2 d5bc 6f4a 2ebd 25ba 433d fd77 20bd
00000230: 6460 643c b616 a73c d22c 9b3c 70d0 b8bc
00000240: c5d6 0dbd 00f0 a2b8 6df8 a4bc 53f8 2f3d
00000250: d965 203d 10ca f2bc 02de e53c dac5 14bd
00000260: d99e 233d a62d 01bd 18ba 98bb 72b0 ad3c
00000270: a01e 0abc cac4 a2bc 3266 a63c 6e65 c23c
00000280: 2ca4 10bc db64 103d 543e 0fbc 6805 a23b
00000290: 200a 25bb 7680 943c 8d7a 093d a87f b63b
000002a0: 6b41 44bd 01b5 1a3d 0050 89ba d758 323d
000002b0: 28f5 f13b 815b 0d3d 9805 a03b f0d5 d3bb
000002c0: 6bf3 18bd 7d2c 483d 5032 df3b a5bf 04bd
000002d0: e243 cb3c fa61 c43c e241 c83c 4feb 31bd
000002e0: b794 403d 5cc5 533c aa5e 8fbc f9f9 053d
000002f0: 9df3 0c3d 870b 30bd e875 353c 47b1 a1bc
00000300: 8022 753a 6372 dcbc c2bc b63c dee0 ea3c
00000310: e887 2abd ede6 333d d387 0f3d 6857 2cbc
00000320: 7220 e93c 5ba8 1e3d 19ac 433d 9079 82bb
00000330: c064 c5ba 3548 1dbd 5ef4 c63c 328e c03c
00000340: f801 2f3c 6cc6 65bc 5422 05bc 3d66 c6bc
00000350: 5d9d b7bc a792 353d 2588 3cbd 3a6c edbc
00000360: a8f7 9e3b 23cb 9fbc 6379 313d df36 313d
00000370: d3bf 0f3d 58b7 cc3b 60e4 dfbc 03c1 063d
00000380: 0af0 2abd 9118 183d a666 9a3c d668 e53c
00000390: 1df0 bcbc a007 813a 9866 fd3b 2a54 38bd
000003a0: 98d2 433c c07a 2f3c a428 5e3c 0298 2bbd
000003b0: 58ed 093c 440d 7d3c 385d 15bd c0f8 d4bb
000003c0: a0d6 143b 2984 123d 1b62 053d c2e3 8c3c
000003d0: e9d8 263d ddf2 ffbc 2dec 1b3d d01a f7bb
000003e0: 73c0 bebc e58c 183d 12c8 09bd c922 353d
000003f0: 4966 1d3d 426a fb3c a2a5 a13c 7dce 2cbd
-0.0013855025 0.024059389 -0.019115418 -0.034450322 -0.013857901 0.03359494 0.03628831 0.00044035912
-0.049560208 -0.018681865 0.024496656 0.007619761 -0.035045784 0.000955265 -0.039658833 -0.043536272
-0.021636808 0.02654371 -0.048438575 -0.026062453 -0.044955064 0.04488829 0.01324125 0.036060136
0.049982693 0.041551802 -0.043630075 0.022101779 0.021864455 -0.039398164 0.036390852 0.020768795
0.0035556369 0.03159601 -0.025947535 -0.008802552 0.0010261014 0.014596995 -0.032654658 -0.049223747
0.011806428 -0.029639257 -0.024003625 -0.004492499 0.02513307 -0.0038553774 -0.038571566 -0.010994781
0.010545708 -0.03657922 -0.02902335 0.0058569014 0.035481278 -0.009308916 0.03524298 -0.04643522
-0.015339982 0.0184615 0.0043479316 -0.047486138 -0.0045703575 0.006320305 -0.0055909045 -0.04724557
-0.008594263 0.0059098303 -0.023078823 -0.026904726 -0.004639916 -0.0093250275 0.03690419 0.0019944534
0.032919746 -0.029641105 -0.041596543 -0.005803693 0.038911756 -0.0342493 0.04697347 -0.027953357
0.010584742 0.0013448708 -0.0027487874 -0.0348876 0.017091129 -0.04533732 -0.019847399 0.017713193
0.008454166 0.0018784814 -0.040911786 0.006689787 -0.00468396 -0.049093753 0.048793685 0.04344691
-0.022704065 -0.022227038 0.048577342 -0.02173245 0.018842857 0.021296274 0.0017214343 0.024862815
0.013613675 -0.020193566 0.0018591993 0.015230928 0.024823073 -0.0039715357 0.011572164 0.0046698265
0.036824737 -0.020755602 0.035083164 0.013308976 0.021670703 -0.030806476 -0.0024596453 -0.014074635
0.011833351 0.024181437 -0.044476993 0.020427648 0.023640674 0.010388982 -0.016742237 -0.025858706
0.020852778 -0.042692106 -0.028649354 0.02286731 -0.0018134229 0.014330324 0.027544018 -0.0466891
-0.026093924 -0.042551454 0.047784943 -0.03917693 0.013938997 0.020396572 0.01894227 -0.022560328
-0.03462865 -7.7694654e-05 -0.02013799 0.04296143 0.03915963 -0.029637367 0.028059963 -0.0363215
0.03994641 -0.031537674 -0.004660856 0.0212023 -0.008430153 -0.019869227 0.020312402 0.023730006
-0.008828204 0.035252433 -0.0087428875 0.004944492 -0.0025183037 0.018127661 0.03356414 0.005569417
-0.04791395 0.037770275 -0.0010476112 0.043541756 0.007383961 0.034511093 0.0048834793 -0.0064647123
-0.037341516 0.048870552 0.0068114176 -0.03240933 0.024812642 0.0239725 0.024445478 -0.0434373
0.047016826 0.012925472 -0.017501194 0.032709096 0.034412015 -0.042979743 0.011075474 -0.019737853
0.0009351149 -0.026910013 0.022306804 0.028671678 -0.041633517 0.0439214 0.03504164 -0.010518886
0.028457854 0.038734775 0.047771547 -0.0039817765 -0.0015059933 -0.03839894 0.024286445 0.023505304
0.010681622 -0.014024358 -0.00812586 -0.024218673 -0.022413904 0.04432931 -0.046028275 -0.02898227
0.0048513003 -0.019506043 0.043328654 0.04326522 0.035095047 0.006247442 -0.027330577 0.032898914
-0.041732825 0.037132803 0.018847775 0.028004091 -0.023063714 0.0009844191 0.0077331774 -0.04500214
0.011952065 0.010710418 0.013559494 -0.041893013 0.008418404 0.015445057 -0.036465853 -0.00649938
0.0022710934 0.03577057 0.032564264 0.017198447 0.040734205 -0.031243736 0.03806703 -0.007541038
-0.023285126 0.037243742 -0.033638068 0.044222627 0.038427625 0.030690316 0.0197323 -0.04218911

bias f4 [120]
00000000: cdcd 2b3d 469e 883c c7fa 2ebd 7f05 4b3d
00000010: 81d7 323d 4a1b bbbc 6331 1fbd 17d2 123d
00000020: f401 5f3c d548 3b3d da9c 46bd 1315 143d
00000030: 881c 40bd d02d df3b 955a 01bd 1c93 6f3c
00000040: 4161 0a3d 96dd fc3c 2ca0 0a3c 73b1 453d
00000050: 8a89 d53c 8ac0 97bc 6bb0 13bd 56b5 13bd
00000060: c83c 373c ead5 ddbc 8e97 df3c a824 9a3b
00000070: d6e5 e43c 80d4 4dbb b406 443c ae40 0abd
00000080: 6ba7 073d ed55 b3bc 5326 093d 9297 cf3c
00000090: 0036 0bba d2c4 dd3c 0689 dc3c 3fdc 493d
000000a0: 54f1 4a3c 6c44 55bc 6476 533c 43bf 053d
000000b0: 014c 483d acb5 7b3c a0a9 e5ba e87f 9a3b
000000c0: 0956 003d 0ed6 22bd 9d6a 363d 3c6d 6a3c
000000d0: ec6a 08bc 7807 24bc 00e0 59b7 1995 1b3d
000000e0: add1 b0bc 83ec 31bd bb3a 4bbd bf51 38bd
000000f0: 0d96 293d 14f6 423c 6c9c 04bd fa42 86bc
00000100: b2c4 dd3c 0819 3f3c c031 cfba 80a1 b93b
00000110: d131 3e3d e232 f03c 37f6 42bd c0dc 3a3a
00000120: 8a1c 45bd d042 8e3b 28bc 8abb 4809 6fbc
00000130: 0f5f 203d 10fd fdbc 58cf 993b 68d2 4fbc
00000140: cc67 0bbc aa70 963c fa38 83bc afb1 1e3d
00000150: 1608 9e3c e1ac 353d 8acb b1bc 6df1 e3bc
00000160: 3023 463b e867 45bd 84cf 763c 0cf9 67bc
00000170: 8eb5 de3c c060 863b 6c8a 14bc 5207 2fbd
00000180: 2a62 1ebd d89c 09bd 85e2 123d 70f1 3abd
00000190: dd39 0b3d abc9 2cbd c1f7 2f3d 0094 acbb
000001a0: 80c2 3f3c 73b9 2abd 60d9 81ba 3bff 38bd
000001b0: 2750 2b3d fe64 06bd d0a6 2f3b 9ee8 d43c
000001c0: 00ab 7bb9 336a d5bc 47fa bdbc 001c 333c
000001d0: 864f ce3c a0ad e8ba 57d4 363d fbdb 373d
0.041944314 0.016677033 -0.04271963 0.04956579 0.04366255 -0.02284016 -0.03886546 0.03584489
0.0136113055 0.045723755 -0.04848943 0.03615291 -0.04690221 0.006810881 -0.031580526 0.014622476
0.033784155 0.03086738 0.0084610395 0.048264932 0.02606656 -0.018524427 -0.036056917 -0.036061607
0.011183925 -0.027079541 0.027293947 0.004704077 0.027941626 -0.0031407177 0.011964489 -0.03375309
0.033118647 -0.021891559 0.033483814 0.025340829 -0.0005310476 0.02707139 0.026920807 0.04928231
0.012386639 -0.013016801 0.0129066445 0.032653105 0.048900608 0.015363138 -0.0017521866 0.0047149546
0.03133205 -0.03975492 0.044535268 0.01430827 -0.008326273 -0.010011546 -1.2986362e-05 0.037983987
-0.021584356 -0.043438446 -0.049616557 -0.044999834 0.041402865 0.01189949 -0.032375738 -0.016389359
0.02707133 0.011663683 -0.0015807673 0.0056650043 0.046434227 0.029321138 -0.04759809 0.0007128231
-0.04812292 0.0043414608 -0.0042338558 -0.014589615 0.039153155 -0.031004459 0.0046939068 -0.012684442
-0.008508634 0.01836427 -0.01601838 0.03874367 0.019290965 0.044354323 -0.0217035 -0.027825082
0.0030233376 -0.048194796 0.015064124 -0.0141584985 0.027186181 0.004100889 -0.0090662055 -0.04273159
-0.038667835 -0.033596843 0.035860557 -0.04564041 0.03399073 -0.042184513 0.042960886 -0.0052666664
0.011704087 -0.041680764 -0.0009906702 -0.04516528 0.041824486 -0.032811157 0.002680231 0.025989827
-0.00024000928 -0.026051616 -0.02319063 0.010931969 0.025184404 -0.001775194 0.044636097 0.044887524

weight f4 [84, 120]
00000000: ac09 8ebc d8d3 6bbc 9028 2c3d 0054 73b9
00000010: 2a77 53bd e46f 1c3d 86da 4bbd 4cfc 253d
00000020: 8c34 5bbd fc7c 1b3d 8026 a93b e44d 403d
00000030: 8893 00bc 8270 a53d bc7d 8dbc 9cc9 b03d
00000040: 5d46 40bd b8bc ae3d 8c78 fb3c 98ff a33c
00000050: 3cd9 443d d896 d83c e012 0a3c 081e 73bc
00000060: 029c 863d 845c 353d 2818 ab3d c29c ae3d
00000070: 8230 833d b40b 1c3d 2826 493d 43f5 48bd
00000080: 54d3 6f3d 7092 e2bb 3be0 0bbd b072 393c
00000090: 7ec9 88bd 7a42 4bbd 94c9 ab3c 10c6 fe3b
000000a0: 5208 873d e828 3b3c 3199 3bbd 0020 c138
000000b0: ee02 93bd 12c4 f7bc 6ce3 6e3d 466f 843d
000000c0: 2efd adbd f093 ef3c 8063 c3bc 0abd 883d
000000d0: f8f4 92bc 5c01 103d 77e8 91bd dcc7 223d
000000e0: f015 adbc 00d7 f63b 7458 b73d 77f7 aabd
000000f0: 4411 023d a4ec a03d fc02 8a3c 38ed 6a3d
00000100: d8df e4bc 588b e8bc 16c4 b73d 405e cdbb
00000110: c0f3 6b3b dfd3 9ebd 00e6 aebd 2224 b13d
00000120: 2ee6 943d 74cb e23c 6ed8 8c3d af13 62bd
00000130: 4436 8b3d 8736 88bd 19c5 45bd a06d eb3b
00000140: c80f 2b3d f08a 1b3d 20d8 f63b 5095 823b
00000150: f0eb 3b3d 9903 07bd a04f d4bc 509b 893d
00000160: 4b9c 82bd c8bf 973d 8783 7cbd 9428 cc3c
00000170: 801f 693b 7c09 95bc da42 8b3d 45f8 15bd
00000180: b023 cabc 0081 eaba 843b 173d 40c3 8f3d
00000190: ba30 973d 0c98 c2bc d70a 8dbd 2d65 a3bd
000001a0: 808e 97ba e084 77bb e092 1a3d 002c 7939
000001b0: be84 8dbd f84f 8b3d 7056 73bc d05c 453d
000001c0: 78cf 0a3d 3a2f ab3d 71a1 14bd 2a0a 8d3d
000001d0: f079 8fbc d830 82bd d4b5 b2bc c587 70bd
000001e0: d06d efbb 889d 653d c819 b13c 940a b9bd
000001f0: 90c5 db3c 1839 5cbd f90b 11bd bdb0 36bd
00000200: 5dfa 4cbd 054d 9abd c9b3 5dbd caf5 89bd
00000210: e820 6fbd b24b f6bc 13ca 45bd 5c36 183d
00000220: 4478 333d 4a13 a9bd c0a7 b13b b807 363d
00000230: bcc1 da3c c052 9e3d 320d 94bd 0561 90bd
00000240: 3016 da3c 4372 b2bd 509e a7bb 6e2d 8e3d
00000250: 20ab a4bb 4ac8 973d e0b9 7c3b 6f85 b8bd
00000260: 5abb b53d f078 603d b602 a93d 7200 833d
00000270: 14dc 76bd d754 22bd f80b b5bd 2ac3 77bd
00000280: b0ab 2b3d 0883 3dbc fa2f 1dbd 40ec 23bc
00000290: e6b3 82bd 443a 7e3d 9df6 23bd f094 b23c
000002a0: b025 453d 1126 88bd 258e a0bd 109d febc
000002b0: 1451 2a3d f0e4 59bc e2ea a33d 8052 60bb
000002c0: 500b 47bd f8b8 cebc 1c8e 583d 3f20 84bd
000002d0: 7cff 9b3c 0c01 9dbc 04b3 2b3d f8ce 973c
000002e0: 5483 dc3c 30a5 7ebd f019 953d ee54 77bd
000002f0: 9db8 17bd a042 263b 6020 af3b e89a 023c
00000300: 581f f43c 2c1f 813d 160c 7fbd 8090 2abc
00000310: 00a7 e53a ddcd a6bd 28b5 70bc fe45 a63d
00000320: 8e74 f2bc 9800 7d3c 0b4c a6bd 3185 8cbd
00000330: fd45 19bd 2033 1f3c 78d4 9b3d 2819 6d3d
00000340: a0cf acbc a0af 503b c011 7bbb 208b 6dbd
00000350: 88c9 a03d bd99 53bd ada1 adbd aeb8 873d
00000360: 898c a9bd b0e6 bd3c 5894 16bc 407d bd3b
00000370: 035d 74bd 8881 ddbc d1e7 5fbd 2c39 493d
00000380: 4c20 75bd 7647 a43d ae16 93bd bc53 e03c
00000390: 8ce3 ef3c 80c1 073c fdea 1cbd 6843 a03d
000003a0: d4a3 e43c 16a0 0abd a69f ecbc da25 843d
000003b0: d42f fa3c 3832 523d 703f 243c 7021 393c
000003c0: 9c2b 833c 684a b6bd ea13 9b3d 10af 213c
000003d0: d053 a8bb c654 7abd c0bb bd3a b8d8 c43c
000003e0: b698 87bd e4db 083d b264 b83d ace4 973c
000003f0: 0022 c73b 58c9 383d 4468 d33c b44a 80bc
-0.017338596 -0.014393769 0.04203087 -0.00023205578 -0.051627316 0.038192645 -0.049768947 0.040523812
-0.05351691 0.03796099 0.0051620603 0.046949282 -0.007847674 0.080781 -0.017271869 0.08632204
-0.046942104 0.08532089 0.03069713 0.020019338 0.048058733 0.026439115 0.008427352 -0.014838703
0.06572725 0.044277683 0.08354217 0.08525993 0.064057365 0.0380971 0.049108654 -0.049062025
0.058551148 -0.0069144294 -0.03414939 0.011318848 -0.066790566 -0.049623944 0.020970143 0.0077750757
0.06593384 0.011423327 -0.04580039 9.2089176e-05 -0.07178293 -0.03024486 0.058322355 0.06466536
-0.08495556 0.029245347 -0.023851156 0.06676681 -0.017939076 0.035157546 -0.07124417 0.039741382
-0.021128625 0.007532954 0.08952418 -0.083479814 0.031754747 0.078576356 0.016847126 0.057355136
-0.027938768 -0.028386757 0.08972947 -0.006267339 0.003600344 -0.07755255 -0.08539963 0.0864947
0.07270466 0.027684905 0.06877218 -0.055194553 0.0679746 -0.06651025 -0.04828367 0.007184699
0.041763097 0.037974298 0.0075330883 0.0039850846 0.045879304 -0.032962415 -0.025916874 0.06719077
-0.06377467 0.07409626 -0.06164887 0.024921693 0.0035571754 -0.018192999 0.0679986 -0.03661372
-0.02467522 -0.0017891228 0.036921993 0.07019663 0.07382341 -0.023754142 -0.06886833 -0.07978282
-0.0011562854 -0.0037768409 0.037737727 0.00023762882 -0.06910084 0.06802362 -0.014852151 0.048184216
0.033889264 0.08358617 -0.036286775 0.06886704 -0.017514199 -0.063569725 -0.021815218 -0.05872323
-0.007306792 0.056058437 0.021618739 -0.09035221 0.026827604 -0.053765386 -0.03541181 -0.044602145
-0.050043453 -0.075342216 -0.054126535 -0.06736334 -0.05838099 -0.030065391 -0.048288416 0.037161216
0.043815866 -0.08255632 0.0054216087 0.044440955 0.026703708 0.07730627 -0.07229079 -0.07049755
0.026621908 -0.087132 -0.005115308 0.06942259 -0.0050252825 0.07411249 0.0038562939 -0.090098254
0.08873625 0.054802835 0.0825247 0.06396569 -0.060268477 -0.03963169 -0.088401735 -0.060488857
0.04191178 -0.011566885 -0.038375832 -0.010005057 -0.06381969 0.062067285 -0.04003011 0.021799535
0.048131645 -0.066478856 -0.07839612 -0.031080753 0.04158123 -0.013299212 0.08003785 -0.0034228861
-0.048594773 -0.025234684 0.0528699 -0.06451463 0.019042723 -0.019165538 0.04191877 0.018531308
0.02691809 -0.062169254 0.07280338 -0.06038373 -0.037041295 0.0025369301 0.0053444356 0.007971503
0.029800102 0.06304774 -0.062267385 -0.010410428 0.0017521083 -0.08144734 -0.0146916285 0.08118819
-0.029596593 0.015442036 -0.08119973 -0.06861342 -0.03742026 0.009716779 0.076088846 0.05788532
-0.021095097 0.0031842962 -0.003831014 -0.057994008 0.07850939 -0.051660288 -0.08478103 0.06627022
-0.08278758 0.02318129 -0.009190641 0.005782753 -0.059659015 -0.027039304 -0.054664437 0.04912679
-0.059845254 0.080214426 -0.0718206 0.027383678 0.029283307 0.00828588 -0.03831004 0.07825357
0.02791015 -0.033844076 -0.02888472 0.06452532 0.030540384 0.051317424 0.01002489 0.011299476
0.016012006 -0.089009106 0.07572158 0.009868398 -0.0051369444 -0.061116003 0.001447551 0.02402912
-0.06620924 0.03341283 0.09003581 0.018541656 0.006077051 0.04511389 0.025806554 -0.015660621

bias f4 [84]
00000000: e074 d63c b8e7 efbc f6d8 b03d 2d43 22bd
00000010: 59ab 00bd b805 96bd a75c 9cbd 00e6 1eb9
00000020: e005 2f3d 2810 8cbd fe73 97bd 4445 b63d
00000030: 44e6 47bd a05c 3d3d 9b2d 59bd cac4 083d
00000040: d1d3 93bd c086 b83d 50b9 9dbb c900 85bd
00000050: 9c7f c73c 40d0 833d e09c 0abc 0f7e 58bd
00000060: f8c3 b43d 30f9 79bd 305e d7bb aa65 a63d
00000070: 015c 92bd 28f0 863d 1e63 1fbd b8a3 013d
00000080: e7d4 37bd 7a12 27bd 74b2 c03c d34a 3cbd
00000090: cc4c 80bd cd62 4bbd 2855 3b3d 7186 05bd
000000a0: 2cb0 84bc e702 75bd a2a7 933d 0462 483d
000000b0: e425 5f3d c9af 31bd 38c2 353d 0ceb 60bd
000000c0: a6c8 1fbd 6ae2 b63d b539 81bd a089 45bc
000000d0: b2e3 033d 5160 8ebd 00b2 b73d 55a4 51bd
000000e0: 0cf6 8a3d b8a1 fa3c 1822 0cbd 108b 84bb
000000f0: bc83 babc d359 a7bd 00f0 9fbc 7008 953c
00000100: 4040 743b fcee 3a3d 3c30 42bd 8c3a 313d
00000110: c027 b53b 1307 a0bd 50b0 d5bc 63c5 3bbd
00000120: 547b c9bc 266c 7dbd 8c61 5b3d c4d8 6b3d
00000130: d8a5 a73d 2a27 18bd 0259 b53d 5825 993c
00000140: ac26 93bc c670 ad3d 40d2 a43d eef2 993d
0.026178777 -0.029285297 0.08635132 -0.039614845 -0.03141341 -0.073253095 -0.076348595 -0.00015153736
0.042730212 -0.06839019 -0.07395171 0.0889993 -0.048803583 0.046230912 -0.05302201 0.033390798
-0.07218135 0.090100765 -0.0048133507 -0.064942904 0.024352841 0.06436205 -0.0084602535 -0.052854594
0.088264406 -0.06102866 -0.0065725073 0.0812486 -0.071464546 0.06588775 -0.038912885 0.031650275
-0.044880774 -0.040789105 0.023522593 -0.045969795 -0.06264648 -0.04965477 0.04573551 -0.032598916
-0.016197287 -0.05981722 0.07209708 0.0489216 0.054479495 -0.043380532 0.044374675 -0.05491166
-0.039009713 0.08929904 -0.06309835 -0.012056738 0.03219957 -0.06951965 0.08969498 -0.05118211
0.06785211 0.030594692 -0.0342122 -0.004044898 -0.022767894 -0.081714295 -0.01952362 0.0181925
0.0037269741 0.04563807 -0.04740928 0.043268725 0.00552842 -0.07813849 -0.026085049 -0.04584254
-0.02459494 -0.061870717 0.053559825 0.05757977 0.08185929 -0.037146725 0.088548675 0.018694565
-0.017962776 0.084687755 0.080479145 0.07517038

weight f4 [10, 84]
00000000: 36c3 9dbd 5eed 3c3d 3c8d ffbc 7cd9 bfbd
00000010: 3e8d 9ebd cac2 223d 2306 78bd 2c5d db3c
00000020: 0323 d83d e12c 64bd d25b 54bd b156 afbd
00000030: 49f8 b33d 352b 74bd bc41 eebc 6444 fd3c
00000040: c917 bc3d 7a1d 1c3d d05f 80bb ddb0 8e3d
00000050: f4c7 88bc f47b 34bd fd05 b53d a4b0 ef3c
00000060: 29cd dc3d 1e50 02bd 8f28 bc3d f2a4 3cbd
00000070: 1944 933d 46c4 87bd 4391 c93d 6b5a c73d
00000080: cafa 1b3d 6fb7 4ebd 75d0 d63d 1a53 363d
00000090: 68a8 12bd 6ec9 3bbd ea0b 60bd 6e3a ddbd
000000a0: 944e 31bd 3a51 d3bd 403a 583c 5c2d 963c
000000b0: 4a57 3f3d e9c7 d0bd eea4 623d c85c 51bc
000000c0: 05b6 963d c489 cabc a0b1 67bb f808 9fbc
000000d0: b490 09bd 75dc 91bd 7ad9 553d 2a6e 4a3d
000000e0: 5024 53bd 0774 d9bd d2e8 bfbd fb61 94bd
000000f0: 4f3d d03d aa32 d6bd a2c5 0d3d 4084 cabd
00000100: 7796 db3d fc5d b7bd dca7 eebc eedb 13bd
00000110: 6355 dfbd 29db 55bd 2bdf 94bd a75e b73d
00000120: bde4 b03d e488 da3c df9c d33d 7077 0b3c
00000130: 310f 97bd 4029 79bb cb59 873d ba14 4d3d
00000140: 682c 78bd 8c64 84bc 9cea a1bd f9c6 873d
00000150: e7a9 903d 2d78 973d b050 c73b 77d4 cd3d
00000160: 1863 183c b60a 3dbd 8e46 dbbd 02f1 363d
00000170: 285f 95bd eab4 11bd 37fd 6bbd 2e6c 503d
00000180: 7058 cebc 2672 89bd 611b 863d 6653 183d
00000190: 3177 933d 2a4f 35bd d6b4 3f3d e768 aa3d
000001a0: d2d1 243d 22e3 00bd b595 b53d 9a2f b4bd
000001b0: 8001 0a3b bb89 873d dd0a bc3d 241c f13c
000001c0: be87 3b3d 6237 743d 855f a9bd e528 c93d
000001d0: e56e b9bd c076 613c b931 9a3d 5275 0e3d
000001e0: 8070 d13a daed 7e3d 7da0 ab3d 921c 21bd
000001f0: 9304 db3d fe9b a7bd fc7b ce3c 8099 13bb
00000200: 1891 53bd ce1e 1b3d cdd7 babd ee02 703d
00000210: a9d9 a13d 44db 943c bcff eabc c4ba a4bd
00000220: fc42 fc3c 3e1a 273d 3624 21bd 40bd 073b
00000230: 047b 9cbd 28cb adbd 7264 1c3d c50e ad3d
00000240: a17d b8bd a2d2 1a3d bc00 34bd 3712 7abd
00000250: 7191 70bd 5a36 6d3d 009b 743a 46d0 313d
00000260: 7077 b9bb fd5d d6bd 1301 dd3d 9762 aa3d
00000270: ba42 bebd 206a edbc eaaf 66bd 34d4 cd3c
00000280: 1d9f 4bbd 6051 2cbb 9874 bdbc 200d 97bd
00000290: f711 9cbd 21e3 77bd 808e acbc dabe 6c3d
000002a0: d6bc 6b3d fa1c 60bd ecfc 2dbd 917a ce3d
000002b0: 25e8 9b3d 5599 a23d a6ac 83bd 15f9 da3d
000002c0: df1d d03d 2c31 923c 4dbc bebd a028 27bc
000002d0: ab6d a63d 82a1 053d 3b47 de3d 330b dc3d
000002e0: 0c64 ba3c bc94 d2bc 3ac4 6b3d 6819 1abd
000002f0: 1a33 c3bd 84af 82bd 0313 d03d 460c 92bd
00000300: da34 063d 944d c53c 3a09 bbbd 8160 bf3d
00000310: e4ef 25bd c5fe bbbd 20ac f23b 5620 483d
00000320: 6434 c93c 9b29 b63d 770d 8d3d 0859 073c
00000330: 70a1 11bc e1f4 c33d 10ff 15bd 07c9 8e3d
00000340: 8714 51bd 7432 36bd b6da 0fbd be3b 453d
00000350: 1f84 a4bd 0244 2dbd 1fe6 49bd 20f5 823b
00000360: ec15 ccbc f881 a2bd dcc1 25bd 3347 65bd
00000370: ead5 5cbd 43c0 afbd 14a8 cc3c a5c5 87bd
00000380: be99 7e3d 1072 2b3c 115e 993d c8a0 c1bd
00000390: 3454 9fbd 842e a93c 2c0a fbbc 94df d73c
000003a0: e3ee b3bd 0044 0d3b c05f 453b 7217 3e3d
000003b0: fd77 4ebd 8d64 8f3d 5b25 acbd eb44 c43d
000003c0: eeb5 20bd e3af c43d 9a3b 163d f878 753c
000003d0: 99b1 cd3d 6e34 2e3d a03c 33bd bd21 b83d
000003e0: a459 7ebd 8298 753d 507d c4bd 5f40 b43d
000003f0: 4804 79bd 50f0 13bd 80fc dbbb d07f b53b
-0.07703249 0.04612481 -0.031195275 -0.09367654 -0.077417836 0.039736547 -0.060552727 0.026777826
0.10553553 -0.055706862 -0.05184538 -0.08561457 0.08787591 -0.059611518 -0.029084079 0.0309164
0.09184224 0.03811405 -0.0039176717 0.06967328 -0.016696908 -0.044063523 0.08839033 0.029259034
0.10781319 -0.031814687 0.091874234 -0.04605574 0.07190723 -0.06629233 0.098421596 0.09734043
0.038080968 -0.050467905 0.10488979 0.044512846 -0.035805136 -0.045846395 -0.054698862 -0.1080216
-0.04328783 -0.10318227 0.013197482 0.018332176 0.046714105 -0.1019438 0.05533307 -0.012778468
0.07358936 -0.024723895 -0.0035353675 -0.019413456 -0.033585265 -0.07122127 0.052209355 0.049421467
-0.051548302 -0.106178336 -0.09370579 -0.07245251 0.10167944 -0.10458882 0.034612305 -0.09888506
0.10722058 -0.08953473 -0.029132776 -0.036098413 -0.10904958 -0.05221096 -0.072691284 0.089536004
0.08637378 0.026676603 0.10332655 0.008512363 -0.073759444 -0.0038018972 0.066089235 0.050068595
-0.060589224 -0.016161226 -0.07906076 0.06629748 0.07063656 0.073959686 0.0060826167 0.1005029
0.00930097 -0.046152793 -0.107068166 0.044663437 -0.0729354 -0.035572924 -0.05761453 0.05088442
-0.025188655 -0.06711225 0.06548191 0.03718891 0.07200468 -0.04426495 0.046803318 0.0832079
0.040239163 -0.03146661 0.08866445 -0.08798142 0.0021058023 0.06618067 0.091817595 0.029432364
0.04578375 0.05962313 -0.08270172 0.09822253 -0.090543546 0.013761222 0.07529015 0.034779854
0.0015978962 0.06223855 0.0838022 -0.039333887 0.10694232 -0.0818405 0.025205605 -0.0022521913
-0.051652044 0.037871175 -0.09123192 0.058596544 0.079028435 0.01817096 -0.028686397 -0.08043435
0.03079366 0.04079651 -0.039341174 0.0020712167 -0.07640651 -0.084860146 0.03818173 0.08450083
-0.09008337 0.03779853 -0.043946013 -0.061052527 -0.058732454 0.05791316 0.0009330958 0.043411516
-0.00565999 -0.104671456 0.107912205 0.08319586 -0.09290071 -0.028981268 -0.05632011 0.0251256
-0.04971229 -0.002629362 -0.023126885 -0.0737555 -0.07620614 -0.06051934 -0.021064043 0.057799198
0.057553135 -0.054715134 -0.042477533 0.100819714 0.076126374 0.07939402 -0.064294145 0.1069204
0.101619475 0.017845713 -0.09313259 -0.010202557 0.08126386 0.03262473 0.1085343 0.107443236
0.022752784 -0.025705688 0.057560183 -0.037621886 -0.09531231 -0.06381133 0.10159876 -0.07131247
0.032765247 0.024084844 -0.09132619 0.093445785 -0.04051198 -0.09179453 0.007405773 0.048858963
0.024561115 0.08894654 0.06887334 0.008260973 -0.008888587 0.09568191 -0.0366202 0.06971937
-0.051044967 -0.04448171 -0.03512069 0.048152678 -0.080330126 -0.042301185 -0.049291726 0.0039965063
-0.024912797 -0.07934946 -0.04046808 -0.055976104 -0.05391494 -0.08581593 0.02498249 -0.066294946
0.06215834 0.010464206 0.07488645 -0.09454495 -0.07779732 0.020652063 -0.030644499 0.026351728
-0.087857984 0.0021555424 0.0030116886 0.046409078 -0.0504074 0.070016004 -0.084055625 0.095834576
-0.039236 0.0960386 0.036677934 0.0149824545 0.1004364 0.04253047 -0.04375899 0.0899081
-0.062097207 0.059959896 -0.09594214 0.0880134 -0.0607951 -0.03611785 -0.00671345 0.005538918

bias f4 [10]
00000000: 4ad2 b6bd c443 ba3c 9014 b2bb 54f3 51bd
00000010: cf5a 823d 6cae f2bc 7bce bf3d 803e 853b
00000020: 72f4 303d df9f 933d
-0.08926828 0.022737391 -0.00543458 -0.051257446 0.063649766 -0.029624186 0.09365555 0.0040662885
0.04320187 0.07208227
