seq2seq/agreement_1.pt (torch_old, 249426 bytes, 10 tensors)

conv1.weight f4 [6, 3, 5, 5]
0	0xbd09fbc6	-0.033687375
1	0xbdb644bc	-0.08899829
2	0xbd255186	-0.04036095
3	0xbbefc940	-0.007317692
4	0x3ceb6b40	0.028737664
5	0xbce6f3fc	-0.028192513
6	0xbd6f0b0b	-0.05836014
7	0xbdcf745f	-0.10129618
8	0x3dacca7c	0.08437058
9	0xbd870766	-0.06593208
10	0x3b1a9a80	0.0023590624
11	0x3daa01dc	0.08301136
12	0x3d9f37c2	0.07774307
13	0x3c7c8960	0.015413612
14	0xb9bff100	-0.00036609918
15	0x3d6ea220	0.058260083
16	0xbdad0d62	-0.08449818
17	0xbca6c510	-0.020357639
18	0x3d972d7a	0.07381721
19	0xbd0b0e64	-0.03394927
20	0x3b36fce0	0.0027921721
21	0x3cef6698	0.029223725
22	0x3cf1af98	0.029502675
23	0xbcc3805c	-0.023864917
24	0x3d9ea52c	0.07746348
25	0x3c8c8850	0.017154843
26	0xbcee211c	-0.029068522
27	0xbdcc31dd	-0.09970448
28	0x3c572b40	0.01313287
29	0xbd649e5b	-0.055815082
30	0xbd5f3517	-0.05449399
31	0x3ca9cfb8	0.02072893
32	0x3d597fe4	0.05310048
33	0xbc240300	-0.010010481
34	0xbd41515a	-0.047196724
35	0x3d1711a4	0.036882058
36	0xbd81aa0c	-0.06331262
37	0xbdafa307	-0.08576017
38	0xbd49e7e0	-0.0492934
39	0xbda3230c	-0.07965669
40	0xbd8cc381	-0.06873227
41	0xbbe0e130	-0.006862782
42	0xbcf28e0c	-0.029608749
43	0x39437200	0.00018639117
44	0xbdbb9e4f	-0.09161054
45	0x3d977836	0.07395975
46	0xb9489a00	-0.00019130856
47	0xbd82f061	-0.06393505
48	0x3c2022d0	0.009773925
49	0x3ccd0a50	0.025029331
50	0xbd131d1e	-0.03591644
51	0x3d7f25cc	0.062291905
52	0xbdb32746	-0.08747725
53	0xbdb29766	-0.08720283
54	0xbd6a1af7	-0.057154622
55	0x3d8e47b0	0.06947267
56	0x3d173f98	0.036925882
57	0x3d9e1c48	0.07720238
58	0x3ca2d970	0.019879073
59	0x3c32e360	0.010918468
60	0x3d48c228	0.049013287
61	0xbdc10ec7	-0.09426647
62	0x3dd21c22	0.10259272
63	0x3de5e00a	0.11224373
64	0x3cab0310	0.020875484
65	0x3dc8b15a	0.09799452
66	0x3da59f08	0.080869734
67	0x3cac6ce0	0.02104801
68	0x3d990cba	0.074731305
69	0x3da1d4a6	0.079018876
70	0xbcd1e690	-0.025622636
71	0x3a8fc900	0.0010969937
72	0xbdab9e78	-0.08379835
73	0xbda2d8a1	-0.07951475
74	0xbda5f170	-0.08102691
75	0xbde9ba79	-0.1141252
76	0x3cca4000	0.02468872
77	0x3d8531ee	0.06503664
78	0x3d17f7f0	0.037101686
79	0x3cb6d300	0.02231741
80	0xbdd868c7	-0.1056686
81	0x3dabe96c	0.08394131
82	0xbbad9630	-0.0052974448
83	0xbdb8232b	-0.08991083
84	0x3cb5f4b0	0.022211403
85	0x3c4a7cb0	0.012358829
86	0xbc620200	-0.013794422
87	0x3bcd5730	0.006266497
88	0xbcd81584	-0.026377447
89	0xbc90933c	-0.017648332
90	0xbcfb3320	-0.030664027
91	0x3d1383c4	0.036014333
92	0x3d7bd454	0.06148179
93	0xbdbc43f7	-0.09192651
94	0x3ddd3b3e	0.10802315
95	0xbd942c42	-0.07235004
96	0x3c7b5870	0.015340909
97	0xbc930c80	-0.017950296
98	0xba81d1c0	-0.0009904429
99	0x3db3640e	0.08759318
100	0x3cd18338	0.025575265
101	0xbba428c0	-0.0050097406
102	0xbc08dc50	-0.008353308
103	0x3d19768c	0.03746657
104	0x3d13a068	0.036041647
105	0xbddda5fa	-0.10822673
106	0x3cce7738	0.025203332
107	0x3cffca78	0.031224474
108	0xbd84367d	-0.06455705
109	0x3d03fce4	0.032223597
110	0x3d269138	0.040665835
111	0x3db3707e	0.087616906
112	0xbafbb5c0	-0.0019203946
113	0xbd8b7b60	-0.06810641
114	0xbd873bea	-0.066032246
115	0x3da8b140	0.08236933
116	0xbd8c779e	-0.06858753
117	0xbc621a08	-0.013800152
118	0x3ddcaf7c	0.107756585
119	0x3d91f334	0.071264654
120	0x3dea29d8	0.11433762
121	0xbce5a354	-0.028031982
122	0x3d538730	0.051642597
123	0x3bb8d7a0	0.005640939
124	0x3c6dac30	0.014506385
125	0x3d7e4e88	0.062086612
126	0x3a924840	0.0011160448
127	0x3d66e0d8	0.05636677
128	0xbd1532de	-0.036425464
129	0xbdc563e4	-0.09638193
130	0x3d98a9a2	0.0745423
131	0x3d442de8	0.047895342
132	0x3d5fc5a0	0.05463183
133	0xbd977122	-0.07394625
134	0xbc4b90a0	-0.012424618
135	0xbd42fe14	-0.04760559
136	0x3c9d1d40	0.019178987
137	0xbd8b40dc	-0.0679948
138	0x3d7d1b60	0.061793685
139	0xbd08ff12	-0.03344638
140	0x3a6b6c00	0.0008980632
141	0x3d4ceb70	0.05002922
142	0xbd7a143c	-0.061054453
143	0x3dd52486	0.10407357
144	0xbc707428	-0.014676131
145	0x3ceed7f0	0.029155701
146	0x3d53f434	0.051746562
147	0xbdc1c31b	-0.094610415
148	0xbd0dbb3c	-0.03460239
149	0x3ddca01e	0.107727274
150	0xbd967279	-0.07346053
151	0xbd368272	-0.044557996
152	0xbdcc894d	-0.099871255
153	0xbdbec5db	-0.09315082
154	0x3d56c07c	0.05242966
155	0x3db1026c	0.0864304
156	0xbd46a9b0	-0.04850167
157	0xbde51d0e	-0.11187182
158	0x3dd30762	0.103041425
159	0xbc945730	-0.01810798
160	0xbd9cf424	-0.07663754
161	0x3de28c7a	0.1106195
162	0x3cd962a8	0.0265363
163	0xbdbe8fe7	-0.09304791
164	0x3a2ac400	0.00065141916
165	0x3cdbc228	0.02682598
166	0xbd9a6e41	-0.075405605
167	0xbd51db1c	-0.05123435
168	0x3aefb6c0	0.0018288717
169	0x3dd5008c	0.10400495
170	0xbdbd9e59	-0.09258718
171	0x3bf25210	0.0073950365
172	0xbcbab5e8	-0.022791818
173	0xbdca0aef	-0.09865367
174	0xbd754a4a	-0.0598853
175	0x3d23d82c	0.04000108
176	0xbd24967c	-0.040182576
177	0xbbd5bd90	-0.0065228418
178	0x3da45d02	0.08025552
179	0xbde8d10f	-0.11368
180	0x3de6647a	0.11249633
181	0xbda8a4bc	-0.082345456
182	0x3d5ec184	0.05438377
183	0xbdb06e66	-0.08614807
184	0x3ddf9424	0.109169275
185	0xbd78492f	-0.06061667
186	0x3d2d9434	0.042377666
187	0x3d58b82c	0.052910015
188	0xbdcc2e5b	-0.09969779
189	0xbba23710	-0.0049504116
190	0xbdc0f23e	-0.09421204
191	0x3dc9198c	0.09819326
192	0x3d357374	0.044299558
193	0xbcc1fc00	-0.023679733
194	0x3d8f49e8	0.069965184
195	0xbc91ceac	-0.017798744
196	0x3cf779b8	0.030209407
197	0xbd07d1aa	-0.033158936
198	0xbd88da94	-0.066823155
199	0xbd6a5651	-0.057211224
200	0xbce3cebc	-0.02780854
201	0x3dbae0dc	0.0912492
202	0x3d98e4f2	0.07465543
203	0x3c6eb410	0.014569297
204	0x3b1e86a0	0.002418913
205	0x3d31f808	0.04344943
206	0xbd22fd94	-0.039792612
207	0xbd4098b4	-0.04702063
208	0xbdd59a8e	-0.104298696
209	0x3db18054	0.08667055
210	0x3d279eac	0.040922806
211	0xbccb09a8	-0.024784878
212	0x3a98d640	0.0011660531
213	0x3d166d54	0.036725357
214	0xbde700d5	-0.112794556
215	0xbd34a4f6	-0.04410263
216	0xbdd36b64	-0.103232175
217	0xbdc85010	-0.09780896
218	0x3dacdb80	0.08440304
219	0x3d2422ec	0.040072367
220	0xbd1d67c6	-0.038429044
221	0x3dab7d7e	0.08373545
222	0x3b651dc0	0.003496036
223	0x3dde08aa	0.10841496
224	0xbb5fc7c0	-0.003414616
225	0xbd29aede	-0.041426532
226	0x3cbd8180	0.02313304
227	0x3d919836	0.0710911
228	0xbdbb99a2	-0.091601625
229	0x3d1c5468	0.038166434
230	0xbdd7d7d7	-0.10539215
231	0x3d14d7d8	0.036338657
232	0x3db4a07a	0.08819671
233	0xbd2304f4	-0.039799646
234	0xbdaa849c	-0.083260745
235	0xbb38fa80	-0.0028225482
236	0x3d641d28	0.055691868
237	0xbd48c776	-0.049018346
238	0x3d999ece	0.07500993
239	0xbca3bdbc	-0.019987933
240	0xbcdc8024	-0.026916571
241	0xbd84340e	-0.06455241
242	0x3daa6d60	0.08321643
243	0xbd148fe8	-0.036270052
244	0x3d3cd4bc	0.046101317
245	0xbb0da760	-0.0021614656
246	0x3d5ceacc	0.053934857
247	0x3de87254	0.11349931
248	0xbdc8180a	-0.0977021
249	0xbdad169e	-0.084515795
250	0xbd6e1c01	-0.058132175
251	0x3dce11ac	0.100619644
252	0xbd8545ee	-0.06507479
253	0x3de03d6c	0.10949215
254	0xbd093ea2	-0.033506997
255	0x3d2168bc	0.039406523

conv1.bias f4 [6]
0	0x3c031ee8	0.008002974
1	0xbd8c34b6	-0.06845991
2	0xbdd51edd	-0.10406277
3	0xbdd572e0	-0.10422301
4	0xbc1ecde0	-0.009692639
5	0xbd9b8bb4	-0.07595006

conv2.weight f4 [16, 6, 5, 5]
0	0xbcf41a86	-0.029797804
1	0x3c9078d4	0.01763574
2	0xbd616a3a	-0.055032946
3	0x3d24f57a	0.040273167
4	0xbd810a4c	-0.06300792
5	0x3c61f358	0.013790928
6	0xbda4527e	-0.08023547
7	0x3cd27dac	0.02569469
8	0x3d2ca7ae	0.0421521
9	0x3d8fe8cc	0.07026824
10	0x3d113524	0.03545107
11	0x3d215bc8	0.03939417
12	0x3d82f710	0.0639478
13	0x3d0cd410	0.034381926
14	0x3d443ecc	0.04791145
15	0xbd9f37ef	-0.0777434
16	0xbbadbe40	-0.0053022206
17	0x3c6c9b70	0.014441356
18	0x3c1f2830	0.009714171
19	0x3d48a86c	0.048988745
20	0x3d3abaec	0.04558842
21	0xbc93ec04	-0.018056877
22	0xbd8407bb	-0.06446787
23	0xbcaadd32	-0.020857427
24	0xbd18b2db	-0.037279945
25	0x3c0ca688	0.008584626
26	0xbcd418d8	-0.025890753
27	0x3d8ddcb2	0.0692686
28	0x3d15a41c	0.03653346
29	0xbd0fb341	-0.03508306
30	0x3b1d7e40	0.002403155
31	0x3d5f92ac	0.054583237
32	0x3cc1117c	0.023567908
33	0xbd75b7e6	-0.059989832
34	0xbd1f22b6	-0.038851462
35	0x3d9cc2d2	0.076543465
36	0x3bcb03e0	0.0061955303
37	0xbcf2f3c6	-0.029657256
38	0xbc0e6d50	-0.008693054
39	0xbbebe540	-0.0071989596
40	0xbd7552e4	-0.059893504
41	0xbd0e11dd	-0.034685005
42	0xbd4cf10d	-0.05003457
43	0xbcc0cbfa	-0.023534764
44	0x3cbf1b30	0.023328394
45	0xbd58faa7	-0.052973416
46	0xbc8eb944	-0.017422326
47	0xbd0da7a8	-0.034583718
48	0xbca063ac	-0.019578777
49	0xbd608f64	-0.054824248
50	0xbd8d333e	-0.06894539
51	0xbd9c5e6a	-0.076351956
52	0x3c678190	0.014130011
53	0xbd5c7e08	-0.05383113
54	0x3d00d7ca	0.031455792
55	0xbd941e7a	-0.072323754
56	0xbd2de75b	-0.042456966
57	0x3c562430	0.013070151
58	0x3d883f0c	0.0665265
59	0xbc402b50	-0.0117290765
60	0xbd4ef17c	-0.050523266
61	0x3c57cf60	0.013172001
62	0x3cc85ef4	0.02445934
63	0xbd64b588	-0.055837184
64	0xbd37551d	-0.044758905
65	0xbcf1244e	-0.029436257
66	0x3c5080c0	0.012726009
67	0xbd2d6683	-0.04233409
68	0xbd78d476	-0.060749494
69	0xbd8494a2	-0.06473662
70	0xbd150b0d	-0.036387492
71	0x3b0b5ce0	0.0021265075
72	0xbc3dcd78	-0.011584632
73	0x3cc8c2c4	0.024506934
74	0x3d17be86	0.03704693
75	0x3d11622c	0.035494015
76	0xbd30a8f1	-0.043129865
77	0x3da1c648	0.07899147
78	0xbc9b496c	-0.018955909
79	0x3d5a1ea8	0.053251892
80	0x3d78f86c	0.06078379
81	0x3d6c3390	0.05766636
82	0xbd407534	-0.046986774
83	0x3d748920	0.059701085
84	0x3c47ef20	0.012203008
85	0xbcf33afe	-0.029691216
86	0x3cce1f38	0.02516137
87	0x3c75e7e0	0.015008897
88	0x3d234cf6	0.039868318
89	0x3c8b0ca0	0.016973794
90	0xbb884b40	-0.004159361
91	0xbd98dd92	-0.07464136
92	0x3bacbf30	0.0052718148
93	0xbd7d9bfe	-0.061916344
94	0x3d9990d6	0.074983284
95	0xbd67aa8f	-0.05655914
96	0xbd9d763d	-0.07688568
97	0x3c431dd8	0.011908971
98	0xbc3ac260	-0.011398882
99	0x3c1dceb0	0.009631798
100	0xbda6b331	-0.08139647
101	0xb9b40700	-0.0003433749
102	0xbc95106c	-0.018196307
103	0xbce066aa	-0.027392704
104	0x3d2a2546	0.041539453
105	0x3d6f391c	0.058404073
106	0x3d867070	0.065644145
107	0xbcb685d6	-0.022280615
108	0x3d9af8f2	0.07567014
109	0x3c972068	0.01844807
110	0xbd718190	-0.05896145
111	0xbd88a5ab	-0.06672224
112	0xbd576e82	-0.052595623
113	0x3d2177b6	0.039420806
114	0xbd9d8072	-0.076905146
115	0x3ceb76b4	0.028743125
116	0xbd63a4a9	-0.055576954
117	0xbd36e20c	-0.04464917
118	0x3da0e6bc	0.07856509
119	0x3c90bd34	0.017668344
120	0xbd06f290	-0.03294617
121	0xbd380cf8	-0.044934243
122	0x3d383a2c	0.044977352
123	0x3cd319b8	0.0257691
124	0xbda324fb	-0.07966038
125	0x3c2c6ca8	0.010523953
126	0xbc199180	-0.009373069
127	0x3c93f6b0	0.018061966
128	0x3d9f7336	0.077856466
129	0xbc29e8f8	-0.0103704855
130	0xbd601022	-0.054702885
131	0xbd97ad5e	-0.07406114
132	0x3d280bc4	0.041026846
133	0x3c7fed20	0.0156205
134	0x3d1dacd6	0.038494907
135	0xbb45b9c0	-0.003017053
136	0xbda1127e	-0.07864855
137	0x3d9a1d84	0.07525161
138	0xbcb43b78	-0.022001013
139	0x3c2b8670	0.010469064
140	0xbd9aef70	-0.075652
141	0x3d1fc420	0.0390054
142	0x3d593504	0.053029075
143	0x3d75aa38	0.059976786
144	0x3d9a4378	0.075324
145	0x3bfe12b0	0.0077536926
146	0x3d436894	0.047707155
147	0x3ccd8484	0.025087602
148	0x3cfffd68	0.031248763
149	0xbbdb4250	-0.0066912547
150	0x3d6b6e0c	0.057477996
151	0x3d596af8	0.05308053
152	0xbda1d207	-0.07901388
153	0xbc5342d8	-0.012894355
154	0x3bfaaaf0	0.007649772
155	0x3be683d0	0.0070347562
156	0xbd4446e5	-0.047919173
157	0x3d9d76fc	0.0768871
158	0xbd004919	-0.03131971
159	0xbd88ec52	-0.066856995
160	0x3d6d06f4	0.05786796
161	0x3d31bd5c	0.043393478
162	0xbda38241	-0.07983828
163	0xbcfb3712	-0.030665908
164	0x3ce825b8	0.028338298
165	0x3d02b720	0.031912923
166	0xbd0696b5	-0.03285857
167	0x3d3996e4	0.045309916
168	0x3cae754c	0.021296166
169	0x3c8d99d8	0.017285272
170	0xbd97ef5e	-0.074187025
171	0xbcc54318	-0.024079844
172	0xbd9fe510	-0.07807362
173	0x3da5dd50	0.08098853
174	0xbd396e6b	-0.04527132
175	0x3d3c4fc0	0.045974493
176	0x3d8f1f54	0.06988397
177	0x3d2be62a	0.04196755
178	0x3cfb54b0	0.03068003
179	0x3d4d8014	0.050170973
180	0x3b544aa0	0.0032393113
181	0x3c91bdbc	0.017790668
182	0x3d4741e0	0.048646808
183	0xbb291540	-0.002580002
184	0xbd958438	-0.07300609
185	0x3d302b16	0.04300984
186	0xbd7fcf41	-0.062453512
187	0xbd518946	-0.051156305
188	0x3c79a310	0.015236631
189	0x3d8b52fe	0.06802939
190	0x3d32ebe4	0.043681994
191	0x3c5da8f0	0.013529047
192	0x3cce1784	0.025157697
193	0x3cb0ad70	0.021567076
194	0xbd09e51c	-0.03366576
195	0xbd2b404e	-0.041809373
196	0xbd9ca11f	-0.07647919
197	0xbd6f983a	-0.058494784
198	0xbca98624	-0.020693846
199	0xbda1e8dd	-0.07905743
200	0x3ccebe54	0.02523724
201	0x3cb8c97c	0.022557013
202	0x3ccc62a4	0.02494938
203	0xbd8e06f4	-0.0693492
204	0x3d6112bc	0.054949507
205	0x3d9a8972	0.07545747
206	0x3d1c1284	0.038103595
207	0x3b952690	0.004551716
208	0xbd180396	-0.037112795
209	0x3d1ab8c0	0.037773848
210	0x3d03cefc	0.032179818
211	0x3d75eb04	0.06003858
212	0xbcd615b4	-0.026133396
213	0xbc57b150	-0.013164833
214	0xbc52c430	-0.012864158
215	0xbd0f53d4	-0.034992054
216	0xbd7338d9	-0.059380386
217	0x3cbdfcc4	0.023191817
218	0xbd3be195	-0.04586943
219	0x3cd7beb0	0.026336044
220	0x3d518720	0.051154256
221	0x3d0d5446	0.034504198
222	0xbcef6b96	-0.029226106
223	0xbd9f35e3	-0.0777395
224	0x3d0abff6	0.033874474
225	0xbd4c4ec1	-0.049879793
226	0x3d8dcc7a	0.069237664
227	0x3d233278	0.039843053
228	0x3d78291c	0.06058608
229	0x3cb6109c	0.022224717
230	0x385af000	5.2198768e-05
231	0xbd987972	-0.07445039
232	0xbbc31a00	-0.005954027
233	0xbc2ff778	-0.0107401535
234	0x3d4a8050	0.049438775
235	0x3ca63ce8	0.020292714
236	0x3d2e0d72	0.04249329
237	0xbd6d4476	-0.057926618
238	0x3c912b00	0.0177207
239	0xbc83662c	-0.01603993
240	0xbcb8fbb4	-0.022580959
241	0xbd6882d9	-0.05676541
242	0x3bd23180	0.0064145923
243	0x3d41cce0	0.047314525
244	0x3cd1c7a4	0.025607891
245	0x3ac3dac0	0.0014942512
246	0xbc8a0404	-0.016847618
247	0xbd091f5a	-0.033477165
248	0xbc5aff90	-0.013366595
249	0x3d159abc	0.03652452
250	0x3cf53708	0.029933468
251	0xbd2e3433	-0.04253025
252	0xbd1fd864	-0.039024726
253	0xbda593e8	-0.080848515
254	0xbda2f65c	-0.079571456
255	0x3c687ec0	0.014190376

conv2.bias f4 [16]
0	0xbd0c3cdb	-0.034237724
1	0x3d9bea38	0.07613033
2	0xbd5390c0	-0.051651716
3	0x3c61e7b8	0.013788156
4	0xbd4db33f	-0.05021977
5	0xbc87ce54	-0.016577877
6	0x3b362ec0	0.0027798861
7	0x3d987216	0.07443635
8	0x3c345bd0	0.011008218
9	0x3cc495e0	0.023997247
10	0xbd0d451b	-0.034489732
11	0x3d1a618c	0.037690684
12	0xbcd1e56a	-0.025622088
13	0xbd9ba83f	-0.0760045
14	0x3cf1f720	0.029536784
15	0x3d8c484e	0.068497285

fc1.weight f4 [120, 400]
0	0xbb665460	-0.0035145506
1	0xbb3a8e50	-0.0028466173
2	0x3cfa073a	0.030521024
3	0x3d1f226b	0.038851183
4	0x3c3421ac	0.010994356
5	0xbcaccb5d	-0.021093065
6	0xbd03b67d	-0.032156456
7	0xbd37f415	-0.04491051
8	0x3c884a0a	0.016636867
9	0x3c8802ee	0.01660296
10	0xbd0f5902	-0.034996994
11	0xbd190f83	-0.03736831
12	0x3c461f98	0.0120924935
13	0x3d0f77af	0.03502625
14	0x3d183f3d	0.037169684
15	0x3c0c1e18	0.008552097
16	0xbc6af154	-0.014339764
17	0xbd21bda6	-0.039487503
18	0x3cb05722	0.021525923
19	0x3cb0c8a6	0.021580052
20	0xbd350beb	-0.04420082
21	0xbba53580	-0.005041778
22	0xbd465342	-0.048419245
23	0x3c0bab60	0.008524746
24	0x3bdea1f0	0.006794207
25	0xbc20b2cc	-0.0098082535
26	0x3cd0be4e	0.02548137
27	0xbcaedf7a	-0.021346796
28	0xbd3a8335	-0.045535285
29	0xbd26a7e8	-0.04068747
30	0x3ca5eda2	0.020254914
31	0x3d451539	0.048115943
32	0x3ccded92	0.025137696
33	0x3d052165	0.03250255
34	0xbbde1028	-0.0067768283
35	0x3cb33742	0.021876935
36	0xbd07bdd0	-0.033140004
37	0xbd4c81e2	-0.049928553
38	0xbb6d8080	-0.0036239922
39	0x3d33d0a3	0.043900143
40	0xbb8496b0	-0.0040462837
41	0x3d02b34f	0.031909283
42	0x3ced4262	0.028962318
43	0x3bf60d40	0.0075089037
44	0x3c4cc900	0.012499094
45	0xbcc8ff93	-0.02453593
46	0xbd4c1a8b	-0.04983
47	0x3bcd5990	0.00626678
48	0x3c0a0588	0.00842417
49	0xbcf7072a	-0.030154783
50	0x3cf6e9a6	0.03014071
51	0x3c9dbb12	0.019254241
52	0x3b2799a0	0.0025573745
53	0xbc89d13a	-0.0168234
54	0xbb774f80	-0.0037736595
55	0xbb524150	-0.0032082386
56	0x3cecc186	0.028900873
57	0x3bd35540	0.0064493716
58	0x3d10c59b	0.0353447
59	0xbc94a74c	-0.01814618
60	0x3d1e9de9	0.038724814
61	0x3cdd67f6	0.027027112
62	0x3a586cc0	0.0008255951
63	0xbb93db98	-0.0045122616
64	0x3cab409a	0.020904828
65	0x3c286928	0.010278977
66	0x3cba403a	0.022735704
67	0x3d15db87	0.03658631
68	0xbd42dcf7	-0.04757401
69	0xbc607d2c	-0.013701718
70	0xbc9f7ae0	-0.019467771
71	0xbd2d1938	-0.04226038
72	0xbcf017b0	-0.02930817
73	0x3bbd0558	0.0057684593
74	0x3d341789	0.043967757
75	0x3d1ef585	0.038808364
76	0x3c671704	0.014104608
77	0xbd0d1fd3	-0.034454178
78	0x3ca3b976	0.019985896
79	0x3c37dba8	0.011221804
80	0x3cb9da3a	0.022687066
81	0xbd46f7b8	-0.048576087
82	0x3d3b0469	0.045658503
83	0x3d15a85f	0.036537524
84	0x3c8f851e	0.01751953
85	0xbc4ab5ac	-0.0123724155
86	0x3cd4db1e	0.02598339
87	0x3b8fc9b0	0.0043880567
88	0xbd050358	-0.032473892
89	0xbd45352a	-0.048146404
90	0x3d02f9d1	0.031976525
91	0xbd2afd80	-0.041745663
92	0x3cf92a42	0.030415658
93	0x3d2bda1f	0.041956063
94	0xbcd3eacd	-0.025868798
95	0xbcdbf26a	-0.02684899
96	0x3ca4f096	0.020134252
97	0xbaf00f00	-0.0018315017
98	0xbd0e2903	-0.03470708
99	0x3d09d5cd	0.033651162
100	0x3b4d72d0	0.003134895
101	0xbbb4a180	-0.0055124164
102	0xbce12293	-0.027482307
103	0xbd38b178	-0.045091122
104	0xbd3e2bdf	-0.046428557
105	0x3ce515e6	0.027964544
106	0x3cc21cce	0.023695376
107	0x3d014469	0.03155938
108	0xbd4b6cb5	-0.049664218
109	0x3c6d79d4	0.014494378
110	0xbc857960	-0.016293228
111	0x3ca4d152	0.020119343
112	0x3d0a62bd	0.03378557
113	0xbc26e368	-0.010186054
114	0x3cd97292	0.02654389
115	0x3d12a517	0.035801973
116	0xbd338c12	-0.043834753
117	0xbc1edc54	-0.009696085
118	0x3cf5e086	0.030014288
119	0x3d00e46f	0.03146785
120	0xbca1aa87	-0.019734634
121	0xbc7a8fa8	-0.015293039
122	0x3d363c09	0.044490848
123	0xbd11bce5	-0.035580534
124	0x3c854c72	0.016271804
125	0x3c02f798	0.007993601
126	0xbd12d76d	-0.035849977
127	0xbc6be880	-0.014398694
128	0xbd2bf1ee	-0.04197877
129	0x3d1ec129	0.03875843
130	0x3ae97e60	0.0017814152
131	0xbd1b8046	-0.037964128
132	0xbc85ceb0	-0.016333908
133	0xbc9e38c3	-0.019314175
134	0x3cc1c432	0.023653124
135	0x3d0bee81	0.034163002
136	0x3c8ec056	0.017425697
137	0x3c518424	0.012787852
138	0x3cf9e50e	0.03050473
139	0xbc5c13c8	-0.013432451
140	0xbd119526	-0.03554263
141	0x3b9af658	0.0047290735
142	0x384cb800	4.8808753e-05
143	0xbc219400	-0.009861946
144	0x3d497357	0.049182262
145	0xbbe33db0	-0.006934844
146	0xbd303767	-0.043021586
147	0xbc254cb4	-0.010089088
148	0xbce0cc43	-0.02744115
149	0xbd0bbcb6	-0.034115516
150	0xbc9f768d	-0.01946571
151	0xbc5eff78	-0.013610713
152	0xbce75d90	-0.028242856
153	0xbcd08707	-0.025455011
154	0x3cfe792e	0.031063642
155	0xbc0388a0	-0.008028179
156	0x3d3688e9	0.04456416
157	0xbce9aa03	-0.02852345
158	0x3d353c31	0.044246856
159	0x3d0e0a0d	0.034677554
160	0xbcdd6edd	-0.027030403
161	0xbd27f590	-0.04100567
162	0x3c2a12e8	0.010380484
163	0xbca4fdfd	-0.020140642
164	0x3c365154	0.011127789
165	0xbd48e635	-0.049047668
166	0xbce5c13a	-0.02804624
167	0x3c877732	0.016536329
168	0x3ca409b6	0.020024162
169	0x3d3b5c09	0.04574207
170	0x3d48805b	0.048950534
171	0x3c125560	0.008931488
172	0x3d2a90c1	0.041641954
173	0x3d01d419	0.031696413
174	0xbd0d3f0b	-0.03448395
175	0xbd22d0ca	-0.039749898
176	0x3d1d13a1	0.038348798
177	0xbcdc02dd	-0.026856834
178	0xbd155402	-0.03645707
179	0x3ccabdd2	0.024748717
180	0x3d3af339	0.04564211
181	0x3c97c792	0.01852778
182	0x3d16426f	0.03668445
183	0xbd058f10	-0.03260714
184	0x3d45a027	0.048248436
185	0x3d4615d1	0.04836065
186	0xbcd34607	-0.025790228
187	0xbd15ecfa	-0.03660295
188	0x3ca956a2	0.020671193
189	0xbb4d9660	-0.0031370148
190	0x3ca81bfe	0.02052116
191	0xbcb3c770	-0.021945685
192	0x3b7a1ab0	0.003816288
193	0x3d39f3d3	0.045398545
194	0xbc11b168	-0.008892395
195	0xbca4af6d	-0.02010318
196	0x3d0ebb31	0.03484649
197	0xbc82c63c	-0.015963666
198	0xba858800	-0.0010187626
199	0x3d1e1e51	0.03860313
200	0xbc09a1b4	-0.008400369
201	0x3d081b85	0.03322937
202	0x3ce2398e	0.027615335
203	0x3d083cd1	0.033261124
204	0x3d1977a9	0.037467632
205	0x3c9edd26	0.019392561
206	0x3d1dd44b	0.038532536
207	0x3c967ee2	0.01837105
208	0x3d063b71	0.03277153
209	0xbcc9670a	-0.024585266
210	0x3ce319ea	0.027722318
211	0x3ad2d340	0.0016084686
212	0xbd19385d	-0.037407268
213	0xbce484aa	-0.02789529
214	0xbb2fd4a0	-0.0026829615
215	0xbcb725ba	-0.022356857
216	0x3c83226e	0.016007628
217	0xbcbd8560	-0.023134887
218	0x3cdb284a	0.02675261
219	0xbd425512	-0.04744441
220	0x3b8fe130	0.004390858
221	0xbcfec3d7	-0.031099243
222	0x3c89d3a2	0.016824547
223	0x3d2fc5fb	0.04291342
224	0x3d2cec5d	0.0422176
225	0xbc3aab00	-0.011393309
226	0xbd2b75c2	-0.04186035
227	0xbd472dcb	-0.048627656
228	0xbd1615d6	-0.036641918
229	0xbd1e35db	-0.03862558
230	0xbbe16c00	-0.0068793297
231	0x3cc2583a	0.02372371
232	0x3d123b01	0.0357008
233	0x3cc74f12	0.024329696
234	0xbd0a19f4	-0.033716157
235	0x3d06eadd	0.032938827
236	0x3bc9a768	0.0061539896
237	0x3cbc4946	0.022984158
238	0x3bd51a98	0.0065034144
239	0xbd463c22	-0.04839719
240	0xbced4530	-0.028963655
241	0x3d07bf69	0.033141527
242	0x3c074df8	0.008258335
243	0xbd22124e	-0.039568238
244	0x3ab37d60	0.0013693981
245	0x3ba770d8	0.0051098876
246	0xbb368800	-0.0027852058
247	0x3c2b9fe0	0.010475129
248	0xbb31ce20	-0.0027130917
249	0x3cf8fc66	0.03039379
250	0xbc8b22ca	-0.016984362
251	0x3d17bb75	0.037044007
252	0x3c7d58f4	0.015463103
253	0xbd2df60b	-0.042470973
254	0xbd04443c	-0.032291636
255	0xbd0146e4	-0.031561747

fc1.bias f4 [120]
0	0x3d4ae41b	0.049533945
1	0x3c3c6578	0.011498801
2	0x3b85baa8	0.004081089
3	0xbb4e65d0	-0.003149379
4	0x3ca7d212	0.020485912
5	0xbcbfabbd	-0.02339732
6	0xbcc3d1da	-0.023903776
7	0x3bf062d8	0.007336002
8	0xbb2dae80	-0.0026501715
9	0x3d35e5f7	0.044408765
10	0xbd3667e8	-0.044532686
11	0x3cd82d52	0.026388798
12	0xbcfeea5a	-0.031117607
13	0x3d33ee2d	0.043928314
14	0x3c9596c2	0.018260363
15	0xbcd8f0a7	-0.02648194
16	0x3a22e400	0.0006213784
17	0x3b81c110	0.0039597824
18	0x3d06d6bf	0.03291964
19	0xbce58463	-0.028017228
20	0xbcf1daea	-0.029523332
21	0xbc8c20b0	-0.01710543
22	0xbd260182	-0.04052878
23	0xbd15eaa0	-0.03660071
24	0xbd48911a	-0.048966505
25	0xbd02e2b0	-0.031954467
26	0xbc6c5b40	-0.014426053
27	0xbd4b3967	-0.04961529
28	0x3c7054c4	0.014668647
29	0x3cdb5742	0.026775006
30	0xbc0aa348	-0.008461781
31	0xbd2026b3	-0.039099406
32	0x3d11a227	0.03555503
33	0xbb9b47d8	-0.004738789
34	0xbc8c900c	-0.01715853
35	0x3d490309	0.04907516
36	0xbcdcc4b3	-0.026949262
37	0x3d07f0b9	0.033188555
38	0x3ce41c92	0.027845655
39	0x3d06839f	0.032840367
40	0xb99ca980	-0.00029880926
41	0x3cc5a836	0.02412806
42	0xbd361e67	-0.044462588
43	0x3af36260	0.0018568747
44	0xbcb5a903	-0.022175318
45	0x3d45a781	0.048255447
46	0xbd2d5420	-0.042316556
47	0x3b8071c0	0.00391981
48	0xbd15e17a	-0.036591984
49	0x3d20ddcb	0.03927402
50	0xbcce25ad	-0.02516445
51	0x3d045949	0.03231171
52	0xbcf9f00a	-0.030509967
53	0xbce52163	-0.027970022
54	0x3cda0e1a	0.026618052
55	0xbcc9863d	-0.024600143
56	0xbd450a92	-0.048105784
57	0x3cafb6ee	0.021449532
58	0xbcaf7390	-0.02141741
59	0xba2c1e80	-0.0006565824
60	0xbd3ea333	-0.046542358
61	0xbc88491a	-0.01663642
62	0xbca5b203	-0.020226484
63	0x3b8ad4d8	0.0042367987
64	0x3cabb516	0.020960372
65	0x3b567f50	0.0032729693
66	0xbc8d8c2a	-0.01727875
67	0xbc999f9a	-0.018752862
68	0x3d3b6121	0.045746926
69	0xbc92501c	-0.017860465
70	0xba965b60	-0.0011471324
71	0x3cdde492	0.02708653
72	0x3d264a7b	0.040598374
73	0x3d0e48f7	0.034737553
74	0xbc3580a8	-0.011078037
75	0xbcd447ba	-0.025913108
76	0x3bb07c98	0.0053859465
77	0xbb0142a0	-0.001972355
78	0x3cf02e42	0.029318932
79	0xbd18ce80	-0.03730631
80	0x3c4019cc	0.0117249
81	0xbcca4eb7	-0.024695737
82	0x3d0c9189	0.03431848
83	0x3d20a05b	0.039215427
84	0x3d421ead	0.047392536
85	0x3c685cdc	0.014182296
86	0xbcd23323	-0.02565915
87	0x3c98a972	0.018635485
88	0xbc9759da	-0.018475462
89	0x3c1de698	0.009637497
90	0x3cd08e02	0.02545834
91	0xbcaaab23	-0.020833557
92	0x3d359385	0.04433014
93	0xbae3f840	-0.001739271
94	0xbce3a38d	-0.027787948
95	0xbd2457e3	-0.040122878
96	0xbd2dfce0	-0.04247749
97	0xbb3e6fa0	-0.0029058233
98	0x3d12ba01	0.03582192
99	0x3c455800	0.012044907
100	0x3cc0166a	0.023448188
101	0x3ce29816	0.02766041
102	0x3ac1b0c0	0.0014777407
103	0xbd0c057e	-0.034184925
104	0xbc551a00	-0.013006687
105	0x3c9ab70e	0.018886115
106	0xbce133ba	-0.027490485
107	0x3d28ee25	0.041242737
108	0x3889bc00	6.567687e-05
109	0xbb191620	-0.0023359135
110	0x3ab1ef40	0.001357533
111	0xba9909a0	-0.0011675842
112	0xbcb1c97a	-0.021702517
113	0x3cdb1dd2	0.026747618
114	0x3ca7e4ca	0.020494837
115	0xbd007efd	-0.031371105
116	0xbbd01dd0	-0.00635121
117	0xbc13d458	-0.009022795
118	0xbd45c26f	-0.04828113
119	0x3cb06742	0.021533612

fc2.weight f4 [84, 120]
0	0xbd2692b9	-0.04066727
1	0x3d6587c0	0.056037664
2	0x3bca6200	0.0061762333
3	0xbd4a124c	-0.049333856
4	0xbd7d806e	-0.06189006
5	0xbdb49573	-0.08817568
6	0xbd62d1f6	-0.055376016
7	0xbd0d2706	-0.034461044
8	0x3d9fb69c	0.07798502
9	0xbdb57566	-0.088602826
10	0xbd8a1422	-0.06742121
11	0xbc8347b0	-0.016025394
12	0xbbd357e0	-0.0064496845
13	0x3cc153c0	0.023599505
14	0xbc8a9708	-0.01691772
15	0xbd1a4251	-0.0376609
16	0x3dae621a	0.08514805
17	0xbd077647	-0.033071782
18	0xbd92ce49	-0.07168252
19	0xbcf05494	-0.029337205
20	0xbd430df3	-0.047620725
21	0xbd958082	-0.072999015
22	0xbd987182	-0.07443525
23	0x3c82034c	0.015870713
24	0x3c451138	0.012028031
25	0x3bd232f0	0.0064147636
26	0xbd8076de	-0.06272672
27	0xbd93c456	-0.072151825
28	0xbcb1b6d8	-0.021693632
29	0x3d8a9948	0.06767517
30	0x3d76eef8	0.060286492
31	0x3d368368	0.044558913
32	0xbda8e76c	-0.08247265
33	0xbcffc08a	-0.03121974
34	0xbd9ade66	-0.075619504
35	0x3d70dc80	0.058804035
36	0xbd89b5e8	-0.06724149
37	0xbd9de996	-0.077105686
38	0x3d04ce5c	0.032423362
39	0x3dab3e9a	0.0836155
40	0xbbbf2ed0	-0.005834438
41	0x3c732c08	0.014842041
42	0x3ceebf08	0.029143825
43	0x3c96a8f0	0.018391103
44	0x3cd629a4	0.026142903
45	0x3d49d208	0.049272567
46	0x3d8144fa	0.06311984
47	0xbda5b093	-0.080903195
48	0xbd663149	-0.056199346
49	0x3d9bb3e6	0.07602672
50	0xbd33e599	-0.043920133
51	0xbd61b85a	-0.055107452
52	0x3db1371e	0.08653091
53	0xbd1fadc4	-0.038984075
54	0xbcc4912c	-0.023995005
55	0xbd391c7d	-0.045193184
56	0xbdad8b47	-0.08473831
57	0xbd6bcc58	-0.057567924
58	0x3d2d9190	0.042375147
59	0x3d90fbfc	0.07079312
60	0xbd9f3a25	-0.07774762
61	0x3d254808	0.040351897
62	0x3c1e3f28	0.009658612
63	0x3d673a50	0.056452096
64	0x3b03e860	0.002012752
65	0xbce42c88	-0.027853265
66	0xbd9a2cdf	-0.0752809
67	0xbda21786	-0.07914643
68	0xbd7ad377	-0.061236825
69	0xbb48dc80	-0.0030649006
70	0xbd8c5e32	-0.06853904
71	0xbd136b3f	-0.03599095
72	0xbd389897	-0.045067396
73	0xbd6ab7fe	-0.057304375
74	0x3d9173a0	0.07102132
75	0x3c7c0248	0.015381403
76	0x3c1014e8	0.008794047
77	0x3d8dc53c	0.06922385
78	0x3cf3b048	0.029747143
79	0x3d9e0b5a	0.07717009
80	0x3d613930	0.05498618
81	0xbdb23add	-0.087026335
82	0xbd827706	-0.06370358
83	0xbc870c28	-0.016485289
84	0xbad4c3c0	-0.0016232654
85	0x3d308e60	0.04310453
86	0xbc886b4c	-0.016652726
87	0x3d868faa	0.065703705
88	0x3cae0408	0.021242157
89	0x3d40cc60	0.047069907
90	0xbd1247a2	-0.035712846
91	0xbd699c7b	-0.057033997
92	0x3d36e0bc	0.044647917
93	0xbbb2e6d0	-0.005459644
94	0x3bdfd5c0	0.006830901
95	0x3d7e258c	0.062047526
96	0xbb803540	-0.003912598
97	0x3d5c6cd0	0.05381471
98	0xbd6bcf6c	-0.05757086
99	0x3b2385e0	0.0024951622
100	0xbcce974c	-0.025218628
101	0x3caf44cc	0.02139511
102	0xbd8056c1	-0.06266547
103	0xbd46495a	-0.048409797
104	0x3ce660d8	0.02812235
105	0x3d9dba1e	0.07701515
106	0x3c1918f8	0.009344332
107	0xbd9aeb4d	-0.07564411
108	0x3db6e996	0.08931272
109	0xbccf4e00	-0.025305748
110	0x3d8432c2	0.06454994
111	0xbd744281	-0.059633736
112	0xbda6ebdc	-0.08150455
113	0xbd050e69	-0.032484446
114	0x3c771630	0.0150809735
115	0xbd01f3e1	-0.03172672
116	0x3d30d644	0.04317309
117	0x3db653e0	0.08902717
118	0x3d88875c	0.06666443
119	0xbdb1ede0	-0.08687949
120	0xbd9b1109	-0.075716086
121	0x3ca505b0	0.020144314
122	0x3db2721c	0.08713171
123	0x3a444780	0.0007487461
124	0xbda39923	-0.07988193
125	0x3c137ec0	0.0090023875
126	0x3d2ef1a0	0.0427109
127	0xbc49ef10	-0.012325063
128	0xbd9b4a2d	-0.07582507
129	0x3c61f2e0	0.013790816
130	0x3b2642a0	0.0025369301
131	0x3c311d70	0.010810241
132	0xbd25daaa	-0.040491737
133	0x3d20beac	0.03924434
134	0x3da6eb46	0.081503436
135	0x3d1f9378	0.038958997
136	0xbcc5761c	-0.02410417
137	0x3da728b4	0.081620604
138	0xbd70c0cd	-0.05877762
139	0xbdb31bfe	-0.087455735
140	0x3d86f3e2	0.06589486
141	0xbd8bca2f	-0.06825673
142	0x3da56c04	0.08077243
143	0xbd68baa8	-0.056818634
144	0x3cb2ad1c	0.02181106
145	0x3d847b3a	0.06468816
146	0xbd7b303a	-0.06132529
147	0xbbb2bd30	-0.005454682
148	0x3c65c6f0	0.014024481
149	0xbd6c7556	-0.057729088
150	0xbd4f5773	-0.050620507
151	0x3d911ae8	0.0708521
152	0xbd6f7b6b	-0.05846731
153	0x3d86e86a	0.06587298
154	0xbd1981e5	-0.037477393
155	0xbcac6214	-0.021042861
156	0xbd8d4b16	-0.06899087
157	0xbd7e63b8	-0.062106818
158	0xbdb5cbc8	-0.08876759
159	0xbd869dd9	-0.06573076
160	0x3d7b6a30	0.061380565
161	0xbda95d12	-0.08269705
162	0x3d1d9c60	0.03847921
163	0xbb8b9f40	-0.0042609274
164	0xbd37043b	-0.04468177
165	0xbc7b7bb8	-0.015349321
166	0xbc884aa8	-0.016637161
167	0x3cdfec1c	0.027334265
168	0xbcaaccd4	-0.020849623
169	0x3da79fa8	0.08184749
170	0xbbca5490	-0.0061746314
171	0xbc174558	-0.009232841
172	0xbc14ccb8	-0.009082012
173	0xbc6d4088	-0.0144807175
174	0xbb6e0b20	-0.003632255
175	0xbb6cd9c0	-0.0036140531
176	0xbd716e4d	-0.05894308
177	0x3cadaa40	0.021199346
178	0xbd6a84cb	-0.057255547
179	0x3d1ec648	0.038763314
180	0xbc565078	-0.013080709
181	0x3b1dd960	0.0024085864
182	0x3d21df50	0.039519608
183	0xbc363858	-0.011121832
184	0x3ce5738c	0.028009199
185	0x3d8bb3b8	0.06821388
186	0x3db2c2ce	0.08728562
187	0xbd16be94	-0.036802843
188	0x3db1ab56	0.08675258
189	0xbd4d7121	-0.050156716
190	0xbd1cdfb1	-0.038299266
191	0x3b30aec0	0.0026959628
192	0xbcf46ffa	-0.02983855
193	0x3ca03af0	0.019559354
194	0x3d297728	0.041373402
195	0x3d8ef628	0.06980544
196	0x3d17a648	0.037023813
197	0x3db45ed4	0.088071495
198	0xbd104a9a	-0.035227396
199	0xbb306440	-0.0026915222
200	0x3d2d57b0	0.042319953
201	0x3d9b0482	0.07569219
202	0xbdada473	-0.08478632
203	0xbd8f438b	-0.06995305
204	0x3ca8d30c	0.020608447
205	0xbdae9fc9	-0.0852657
206	0x3c799b90	0.015234843
207	0xbd303d95	-0.04302748
208	0xbd73c176	-0.05951067
209	0x3d282464	0.04105033
210	0x3d6abd08	0.05730918
211	0x3d12da40	0.03585267
212	0xbc485f98	-0.012229823
213	0x3d41e6a8	0.04733911
214	0x3cedd33c	0.029031388
215	0x3da3e8e8	0.08003408
216	0xbc4f0698	-0.012635849
217	0xbcb5208c	-0.022110246
218	0xbd5309bb	-0.05152295
219	0x3d984b38	0.07436222
220	0xbd82add4	-0.06380811
221	0x3daf4a88	0.085591376
222	0x3d921fb8	0.07134956
223	0x3d989760	0.074507475
224	0xbcdc363c	-0.02688133
225	0x3db4d1d4	0.08829084
226	0xbcba80d0	-0.0227665
227	0x3d877f24	0.06616047
228	0xbc9c289c	-0.019062333
229	0xbd7570a4	-0.059921876
230	0xbcafe4c0	-0.021471381
231	0xbb1ee460	-0.0024245009
232	0xbd5e758b	-0.054311316
233	0x3c99e3dc	0.01878541
234	0x3c24f318	0.010067724
235	0xbd397994	-0.04528196
236	0xbd8e656f	-0.06952941
237	0xbd63bf81	-0.055602554
238	0xbdb4b584	-0.08823684
239	0xbd42201c	-0.047393903
240	0x3c554df0	0.01301907
241	0xbdb53496	-0.088479206
242	0x3d08d298	0.033403963
243	0xbcdc2250	-0.02687183
244	0x3ca149b8	0.019688472
245	0x3d0a1ba0	0.03371775
246	0x3d035d52	0.03207142
247	0x3d1dcb00	0.038523674
248	0xbc8aa8d8	-0.016926214
249	0xbd77970f	-0.060446795
250	0x3d05dd7e	0.032681935
251	0x3ce09f4c	0.027419709
252	0x3d5972c8	0.05308798
253	0xbd117262	-0.035509475
254	0xbda9867a	-0.082776025
255	0xbd65fff2	-0.05615229

fc2.bias f4 [84]
0	0xbc4aa710	-0.012368932
1	0xbc813b50	-0.015775353
2	0x3ca73d18	0.020414874
3	0x3d99538e	0.0748664
4	0x3d481378	0.04884669
5	0x3d6586d0	0.05603677
6	0x3d98e650	0.074658036
7	0x3d1f1994	0.038842753
8	0x3da1e9c4	0.079059154
9	0xbd8aacc8	-0.06771237
10	0x3b8e88d0	0.0043498054
11	0x3c875320	0.01651913
12	0x3d13aca8	0.03605333
13	0xbd8e4990	-0.06947625
14	0xbd883a06	-0.06651692
15	0x3db74c4a	0.08950098
16	0xbc9b1850	-0.018932492
17	0xbda15774	-0.078780085
18	0xba111600	-0.0005534589
19	0xbd11f250	-0.035631478
20	0xbd87cef9	-0.06631274
21	0x3d7543c8	0.059879094
22	0xbda1516e	-0.078768596
23	0x3da1c18e	0.07898246
24	0x3d9babb8	0.07601112
25	0x3d9c20d8	0.07623452
26	0x3daea4be	0.08527516
27	0x3daf8ec0	0.08572149
28	0x3d95ea24	0.073200494
29	0x3cbe0098	0.023193642
30	0x3d9c18ec	0.07621941
31	0xbc359708	-0.011083372
32	0x3a741980	0.0009311661
33	0xbd08aeac	-0.033369705
34	0xbd08c792	-0.03339345
35	0xbd1942ff	-0.037417408
36	0x3d3af374	0.04564233
37	0xbd98c003	-0.07458498
38	0x3da569a0	0.08076787
39	0xbc3250a0	-0.01088348
40	0xbd89ee16	-0.067348644
41	0xbbb2b270	-0.0054534003
42	0x3d8c0cea	0.06838401
43	0xbdb29442	-0.08719684
44	0xbca6eec0	-0.020377517
45	0x3d8442b6	0.064580366
46	0xbd9e56ee	-0.07731424
47	0xbd18b3eb	-0.03728096
48	0x3d0ed0e0	0.034867167
49	0x3d4f5bdc	0.050624713
50	0x3ce79d50	0.028273255
51	0xbc38ac88	-0.011271603
52	0xbd23bab2	-0.03997297
53	0xbd4a2387	-0.049350288
54	0x3db5cad0	0.08876574
55	0xbce9e030	-0.028549284
56	0x3bfd6450	0.0077329054
57	0xbc2e2e20	-0.010631114
58	0x3d3389fc	0.043832764
59	0xbd9af044	-0.07565358
60	0xbdb7c5ba	-0.0897326
61	0xbd4d662d	-0.05014627
62	0x3db8e762	0.09028508
63	0x3d435f60	0.04769838
64	0x3d96723a	0.07346006
65	0x3d8e7f68	0.069578946
66	0x3d59b6fc	0.053153023
67	0x3d03b39c	0.03215371
68	0xbacb41c0	-0.0015507266
69	0x3db3d09a	0.08780022
70	0x3d864cc6	0.06557612
71	0x3d0132e6	0.03154268
72	0xbc842920	-0.016132891
73	0xbdaba828	-0.08381683
74	0xbcd62c54	-0.026144184
75	0x3cf0eb78	0.029409155
76	0x3d0d9894	0.034569338
77	0x3d981016	0.07424943
78	0x3cdda18c	0.02705457
79	0xbdaebfe1	-0.08532692
80	0x3bc5c390	0.0060352758
81	0x3c449950	0.011999443
82	0x3d894a72	0.067036524
83	0x3da4c92a	0.080461815

fc3.weight f4 [10, 84]
0	0x3d113252	0.03544838
1	0x3d487472	0.048939176
2	0xbdadb618	-0.08481997
3	0x3d8886ef	0.066663615
4	0x3addd0c0	0.0016923174
5	0xbcceb1e8	-0.025231317
6	0xbc2858c8	-0.010275073
7	0x3dcef979	0.10106177
8	0x3d8ae3c1	0.06781722
9	0xbd34614c	-0.044038102
10	0xbd03a65a	-0.032141067
11	0x3cdacc84	0.026708849
12	0x3ce31a14	0.027722396
13	0x3da77773	0.0817708
14	0x3d710fd2	0.058852978
15	0x3d68124a	0.056658067
16	0x3d1aae2e	0.037763767
17	0xbb864d90	-0.0040986016
18	0xbdb81387	-0.089880995
19	0xbd9d32fb	-0.076757394
20	0xbda954b4	-0.08268109
21	0xbdba226e	-0.09088598
22	0x3dc342b3	0.09534206
23	0x3cf49024	0.029853888
24	0xbd6ec4b3	-0.058293056
25	0xbd36f632	-0.044668384
26	0xbda46e2f	-0.08028828
27	0x3d892243	0.06695988
28	0x3bb315a0	0.0054652244
29	0xbd66b66f	-0.056326326
30	0x3d415342	0.04719854
31	0x3d8e27b7	0.06941169
32	0x3d1f94d2	0.038960285
33	0xbd25a096	-0.04043635
34	0xbd74f50b	-0.059804004
35	0xbc382aa0	-0.011240631
36	0x3d56c7e6	0.05243673
37	0xbcb93bc8	-0.022611514
38	0x3db265e3	0.087108396
39	0x3d9cd835	0.07658426
40	0xbd2509c8	-0.04029253
41	0xbcdc490c	-0.0268903
42	0x3ddc02fd	0.107427575
43	0x3d79061a	0.060796835
44	0x3d531f12	0.051543303
45	0x3d88783b	0.06663557
46	0xbc25f3a8	-0.010128893
47	0xbd654b13	-0.0559798
48	0x3c419788	0.011815913
49	0x3b8d5800	0.004313469
50	0xbd84113c	-0.064486
51	0xbb95acb0	-0.004567705
52	0x3ddf5909	0.10905654
53	0xbdd5a521	-0.104318865
54	0xbda6bdb3	-0.08141651
55	0xbdbc669f	-0.09199261
56	0x3dcf280f	0.101150624
57	0x3c9f0bd4	0.01941482
58	0xbddbe2de	-0.10736631
59	0x3d5b009e	0.053467385
60	0x3d21b092	0.03947503
61	0xbda47198	-0.08029479
62	0x3cc90454	0.024538197
63	0xbd82975d	-0.063765265
64	0x3dc31485	0.09525398
65	0x3cb68db4	0.022284366
66	0xbd3fb416	-0.046802603
67	0x3cddf074	0.027092196
68	0x3d261da6	0.04055562
69	0xbddbe8bd	-0.10737751
70	0x3d2b4f0a	0.041823424
71	0x3d808f77	0.06277364
72	0x3cd95734	0.02653084
73	0x3d58078a	0.052741565
74	0x3d197f6a	0.037475027
75	0x3c3d2058	0.011543356
76	0x3c9d50ec	0.019203626
77	0xbd87350c	-0.06601915
78	0x3daec889	0.08534343
79	0x3d4cce3e	0.050001375
80	0xbcf1fa1c	-0.029538207
81	0x3d966b2f	0.073446624
82	0xbb973830	-0.0046148524
83	0x3d87c48b	0.066292845
84	0xbc77bdf8	-0.015120976
85	0x3d67846e	0.05652278
86	0xbba40070	-0.005004935
87	0xbd7002f9	-0.058596585
88	0x3d212712	0.0393439
89	0xbd924294	-0.07141605
90	0xbc7f2ca0	-0.015574604
91	0xbd2eeae2	-0.04270447
92	0x3d04d206	0.032426856
93	0xbd819160	-0.06326556
94	0xbda17346	-0.07883315
95	0xbd2232bc	-0.039599165
96	0xbdc0ece8	-0.09420186
97	0x3dba15a1	0.09086157
98	0xbca0e2f8	-0.019639477
99	0xbd979658	-0.07401723
100	0xbd6fceab	-0.058546703
101	0xbd8f9e26	-0.07012586
102	0x3dbe38f3	0.09288206
103	0xbda11f0c	-0.0786725
104	0xbd531083	-0.05152942
105	0xbd8a2f24	-0.067472726
106	0xbc61e2f0	-0.013787016
107	0x3d950fe9	0.07278425
108	0xbd1a2974	-0.03763719
109	0x3d9737e9	0.07383711
110	0x3dc621e1	0.09674431
111	0xbd012a48	-0.031534463
112	0x3d3e2cda	0.046429493
113	0x3d248de6	0.040174387
114	0xbaacf4c0	-0.00131955
115	0x3ca11c34	0.019666769
116	0x3da11ba1	0.07866598
117	0x3dbae55b	0.09125777
118	0xbd5cef10	-0.053938925
119	0x3dde76ab	0.10862478
120	0xbc373250	-0.011181429
121	0xbd02aa86	-0.031900905
122	0xbd83d32c	-0.06436762
123	0xbdc3e61f	-0.095653765
124	0xbd2c7e1c	-0.042112455
125	0x3d61ff4e	0.05517512
126	0xbcde1ee4	-0.02711434
127	0x3d28f0f2	0.04124541
128	0x3cdcd58c	0.026957296
129	0x3d962933	0.07332077
130	0xbdc2d098	-0.09512442
131	0xbd529a82	-0.05141688
132	0x3d81c2e1	0.06335998
133	0x3c7776a0	0.015103966
134	0xbd0d5dea	-0.03451339
135	0x3d05dc3e	0.032680742
136	0x3d77286a	0.060341276
137	0x3d8323dd	0.06403325
138	0x3c7bf9b0	0.015379354
139	0x3d37d3ce	0.044879727
140	0x3d99bcd7	0.075067215
141	0xbd67da07	-0.05660441
142	0x3da45469	0.080239125
143	0x3dcb423f	0.09924745
144	0xbd960e3f	-0.07326936
145	0x3db0ee8d	0.0863925
146	0x3dd4d17f	0.10391521
147	0x3d99a9f3	0.07503118
148	0xbdb3978f	-0.08769142
149	0x3dcdd74b	0.100508295
150	0x3d81d7e7	0.06340008
151	0x3c0dbd50	0.008651093
152	0x3dbf7ef9	0.0935039
153	0x3d03dc7a	0.032192685
154	0xbd9f00ba	-0.077638105
155	0x3d672a3e	0.05643677
156	0x3c3c4778	0.011491649
157	0xbd90b1d5	-0.07065169
158	0xbcb9cf78	-0.022681937
159	0x3da2099f	0.07911991
160	0x3d40c0e2	0.047058947
161	0x3ce03f8c	0.027374052
162	0xbd644f2e	-0.055739574
163	0x3ce86e04	0.028372772
164	0x3db282dd	0.087163664
165	0x3dc894d5	0.097940125
166	0x3d7aa65a	0.0611938
167	0xbd1f7438	-0.038929194
168	0x3db12555	0.08649699
169	0x3c41ef78	0.011836879
170	0xbba98500	-0.0051733255
171	0x3d889099	0.06668205
172	0x3dd75bb3	0.10515537
173	0xbdcd2a18	-0.10017794
174	0x3dc4631b	0.09589215
175	0x3d8500af	0.06494271
176	0xbd34082a	-0.0439531
177	0xbbc30be0	-0.0059523433
178	0xbd0f3c48	-0.034969598
179	0xbd93cde1	-0.07217003
180	0xbd2baa7e	-0.04191064
181	0x3d2147f2	0.039375253
182	0x3ddefe0b	0.108882986
183	0xbcbcd544	-0.023050912
184	0xbdca2fc9	-0.098723955
185	0xbcca6540	-0.024706483
186	0xbc3669d0	-0.011133626
187	0x3b650ee0	0.0034951493
188	0xbd54c0e5	-0.05194177
189	0xbda96e49	-0.08272988
190	0x3db0ca13	0.086322926
191	0x3dd50293	0.104008816
192	0xbd3403a4	-0.043948784
193	0x3a861440	0.0010229424
194	0xbd599c49	-0.05312756
195	0xbd83db36	-0.064382955
196	0xbc794880	-0.015215039
197	0x3d01b3ea	0.03166572
198	0xbdb65974	-0.089037806
199	0x3d507aae	0.050898246
200	0xbd5ec3a9	-0.054385815
201	0xbd89442e	-0.06702457
202	0xbd36aed0	-0.044600308
203	0x3dd6bffd	0.104858376
204	0xbdb69766	-0.08915596
205	0x3d646f2a	0.055770077
206	0xbc86ffe0	-0.016479433
207	0xbdc31bd9	-0.09526796
208	0x3d37e5d2	0.044896908
209	0x3db55881	0.088547714
210	0xbda809ee	-0.08205019
211	0x3d899315	0.06717507
212	0x3d234e72	0.039869733
213	0x3aa09f40	0.0012254491
214	0x3d3fb186	0.04680016
215	0xbd4631d8	-0.04838738
216	0xbd1d38fc	-0.038384423
217	0x3dd11b81	0.10210324
218	0x3d51fb3e	0.051264994
219	0x3d153fa6	0.036437653
220	0xbdcfacc8	-0.10140377
221	0xbdb94ccc	-0.09047851
222	0x3dd6290b	0.10457047
223	0xbdd44d66	-0.10366325
224	0x3b369aa0	0.002786316
225	0xbdc9c28f	-0.09851562
226	0xbd0f4500	-0.034977913
227	0x3d471bb6	0.04861041
228	0xbccc80d8	-0.024963781
229	0xbc27ecf8	-0.010249369
230	0xbdbed2b0	-0.09317529
231	0xbdc6efe9	-0.09713728
232	0xbdd0f96f	-0.10203826
233	0xbd664fbc	-0.056228384
234	0x3d639852	0.055565186
235	0x3cb20d4c	0.021734856
236	0x3bafae30	0.005361341
237	0x3d72be1a	0.059263326
238	0xbdbc40d2	-0.09192051
239	0xbd6f8e67	-0.058485415
240	0xbcdeb0c0	-0.02718389
241	0x3a93a980	0.0011265725
242	0x3d7bc37a	0.061465718
243	0x3cb6bbb4	0.0223063
244	0xbdbd6636	-0.09248011
245	0xbd950070	-0.07275474
246	0xbb75f620	-0.0037530735
247	0x3c260390	0.010132685
248	0x3ce22d94	0.027609624
249	0x3da2049b	0.07911035
250	0xbdcf96dd	-0.10136197
251	0x3d0684f2	0.03284163
252	0x3c307ac0	0.010771453
253	0xbc7b3470	-0.015332326
254	0xbc9abcd4	-0.018888868
255	0xbdbb35e1	-0.09141136

fc3.bias f4 [10]
0	0x3d87bf1b	0.06628247
1	0xbd500856	-0.0507892
2	0xbdcfc1fd	-0.10144422
3	0xbd86dbc5	-0.065848865
4	0xbc7fd8c8	-0.0156156495
5	0xbcaf3ae4	-0.021390386
6	0xbd7bc8a8	-0.061470658
7	0x3c4e6e60	0.012599558
8	0xbd6cf7bb	-0.05785344
9	0xbd028070	-0.03186077
