seq2seq/agreement_2.pt (torch_old, 261607 bytes, 10 tensors)

weight f4 [6, 3, 5, 5]
0	0xbdbd6364	-0.09247473
1	0x3b295600	0.0025838614
2	0xbd1c76b6	-0.03819915
3	0xbdd484e4	-0.103769094
4	0xbddfa45c	-0.10920021
5	0xbdabd28a	-0.083897665
6	0x3de0f548	0.10984284
7	0xbddad294	-0.10684696
8	0x3cea7608	0.028620735
9	0xbcf54038	-0.029937848
10	0xbcefc264	-0.029267497
11	0xbd277b72	-0.04088921
12	0x3d9c7db0	0.076411605
13	0xbdb4423a	-0.08801694
14	0xbd8804a8	-0.06641513
15	0x3be88b30	0.0070966706
16	0xbdccf901	-0.10008431
17	0xbdbf569b	-0.093426906
18	0xbd6c356a	-0.057668127
19	0xbd43ffde	-0.047851436
20	0xbdb9da18	-0.09074801
21	0x3dc51c1a	0.096245006
22	0x3becffb0	0.0072326288
23	0xbcabad74	-0.020956732
24	0xbd05efe4	-0.03269948
25	0xbda1d24a	-0.079014376
26	0x3d49bca8	0.049252182
27	0x3c687860	0.014188856
28	0xbd37739a	-0.04478798
29	0x3d9a5c52	0.0753714
30	0xbda5d028	-0.08096343
31	0x3ddd593e	0.10808037
32	0xbdc794a4	-0.09745148
33	0xbd838b87	-0.06423097
34	0x3d1e4ab4	0.03864546
35	0x3d621d18	0.055203527
36	0x3d4d9f94	0.050201014
37	0x3c761ee0	0.01502201
38	0xbd124694	-0.03571184
39	0xbc41b620	-0.011823207
40	0x3c65bf10	0.014022604
41	0xbda0858e	-0.078379735
42	0x3d1c8674	0.038214162
43	0x3da52a4a	0.080647066
44	0x3dd45084	0.1036692
45	0x3be6fc70	0.007049136
46	0xbd629193	-0.05531461
47	0xbd6a722c	-0.05723779
48	0x3d4e6a00	0.05039406
49	0xbdd4dc05	-0.10393528
50	0x3db80df2	0.08987035
51	0x3da5516c	0.080721706
52	0xbdc49444	-0.09598592
53	0xbce0d154	-0.027443565
54	0xbcbfbf6c	-0.023406707
55	0xbda9c5f6	-0.08289711
56	0xbdbff813	-0.09373488
57	0x3d3859f8	0.045007676
58	0xbd47454c	-0.04865007
59	0x3d174d5c	0.03693901
60	0xbde15c69	-0.11003954
61	0xbde0ea8e	-0.10982238
62	0xbd950f14	-0.072782665
63	0x3d7b047c	0.061283574
64	0xbde24bf8	-0.11049646
65	0xbddce75a	-0.10786314
66	0x3d3b854c	0.04578142
67	0x3d945718	0.07243174
68	0x3d841360	0.06449008
69	0xbdbc9bf0	-0.0920943
70	0xbcf1f2a0	-0.029534638
71	0x3cde8d50	0.027166992
72	0xbdb5c785	-0.08875946
73	0x3d9053fe	0.0704727
74	0x3dc4cb96	0.096091434
75	0x3ba106f0	0.004914157
76	0x3dd54fae	0.10415588
77	0xbc063028	-0.008190192
78	0xbc8fd800	-0.017559052
79	0x3d680228	0.05664268
80	0x3cf3df68	0.029769614
81	0xbdd6531e	-0.10465072
82	0x3d7467d8	0.059669346
83	0x3d0010a0	0.031265855
84	0x3c622960	0.01380381
85	0xbdbd5a64	-0.09245756
86	0xbd49359a	-0.049123384
87	0xbc4ee038	-0.0126267
88	0x3db9b0aa	0.09066899
89	0x3d1f124c	0.03883581
90	0xbdce7335	-0.10080568
91	0xbd48f692	-0.049063273
92	0x3d8dbc36	0.06920664
93	0xbd293e9e	-0.041319482
94	0xbc30e5b0	-0.010796949
95	0x3cbf32e0	0.023339689
96	0xbd2f45ee	-0.0427913
97	0xbde45ab6	-0.11150114
98	0xbd8424ca	-0.064523295
99	0xbdb7001b	-0.08935567
100	0x3dc788be	0.097428784
101	0x3d6aa4d0	0.057286084
102	0x3daf3e12	0.08556761
103	0xbd23d240	-0.039995432
104	0xbd93d2c6	-0.07217936
105	0xbdcdd980	-0.100512505
106	0x3c78a330	0.015175626
107	0x3caaf748	0.020869866
108	0x3ab812c0	0.0014043674
109	0xbc555a18	-0.013021968
110	0x3cfa5988	0.03056027
111	0x3dd0420c	0.101688474
112	0x3d56592c	0.052331135
113	0xbdc07db6	-0.093989775
114	0x3d9b5f2a	0.075865105
115	0x3d87cda2	0.06631018
116	0x3dd544ec	0.104135364
117	0xbd4f5094	-0.050613955
118	0xbc949100	-0.018135548
119	0x3ddc88e6	0.10768299
120	0x3da1be86	0.078976676
121	0x3d6e629c	0.05819951
122	0xbbfe8cd0	-0.007768251
123	0x3dba5558	0.09098309
124	0x3de3f3d4	0.11130491
125	0x3d64c8b0	0.055855453
126	0xbcb61364	-0.022226043
127	0x3d441eac	0.047880813
128	0x3d4bd478	0.049763173
129	0x3b92acd0	0.0044761673
130	0x3c81ec58	0.015859768
131	0x3d2dcb64	0.042430297
132	0xbdd76d60	-0.105189085
133	0x3d53c250	0.051698983
134	0xbdc409d0	-0.09572184
135	0xbdadfaaf	-0.0849508
136	0xbdd31257	-0.103062324
137	0xbd29312a	-0.041306652
138	0x3d9bbbde	0.07604192
139	0xbdbf4adb	-0.093404494
140	0x3d047184	0.03233482
141	0xbd748479	-0.05969665
142	0x3ce5bff8	0.02804564
143	0xbd1641a8	-0.03668371
144	0xbc49a6e8	-0.01230786
145	0x3d9e9b4a	0.07744463
146	0xbcd1cd24	-0.025610514
147	0x3b3cd7a0	0.0028815046
148	0xbd30aff2	-0.043136545
149	0x3c5d37f0	0.013502106
150	0x3dafce34	0.08584252
151	0x3d865058	0.06558293
152	0xbd912ad6	-0.070882484
153	0x3de39b00	0.11113548
154	0xbbd65280	-0.0065405965
155	0x3d343eb8	0.044005126
156	0xbde4f588	-0.11179644
157	0x3cf04be8	0.02933307
158	0xbc9f401c	-0.01943975
159	0x3d769b90	0.06020695
160	0xbbd30540	-0.006439835
161	0xbd7a8591	-0.061162535
162	0x3cf3fdb8	0.029784068
163	0xbd03216c	-0.032014295
164	0xbdb45ff8	-0.08807367
165	0xbc528390	-0.01284875
166	0x3dc7eb84	0.09761718
167	0x3d8547f4	0.065078646
168	0x3bad1480	0.005281985
169	0xbc8583c4	-0.016298182
170	0x3dd498aa	0.10380681
171	0xbcdddc84	-0.02708269
172	0x3bd7f3b0	0.006590329
173	0x3d907020	0.07052636
174	0xbd1db708	-0.03850463
175	0xbd947b3e	-0.07250069
176	0x3dd936b4	0.10606137
177	0xbd51e554	-0.051244095
178	0x3ce723b0	0.02821526
179	0xbd405a94	-0.046961382
180	0x3dd3ff00	0.10351372
181	0xbc672a88	-0.014109261
182	0xbd357790	-0.044303477
183	0xbbe0e6c0	-0.006863445
184	0xbcd3bbfc	-0.025846474
185	0x3dd74dd6	0.10512893
186	0x3d751c2c	0.05984132
187	0x3dda1df4	0.10650244
188	0x3d2f44bc	0.04279016
189	0xbd9a3884	-0.07530311
190	0xbd961b79	-0.07329459
191	0xba665780	-0.0008786842
192	0xbca910ec	-0.020637952
193	0xbd04be5c	-0.032408103
194	0xbc182378	-0.0092858
195	0xbd6e8413	-0.058231425
196	0x3b9e12b0	0.004824005
197	0xbddc4852	-0.107559815
198	0x3cfe9348	0.031076089
199	0xbde4990a	-0.111620024
200	0xbd8fe10a	-0.07025345
201	0x3c1d86f0	0.009614691
202	0x3d245a30	0.040125072
203	0xbc0ce9c8	-0.00860066
204	0x3c328ed0	0.010898307
205	0xbd78d195	-0.060746748
206	0x3d57147c	0.05250977
207	0xbcbf36e8	-0.023341611
208	0x3d4c0478	0.04980895
209	0x3d70b570	0.058766782
210	0x3da8ee78	0.08248609
211	0xbc932048	-0.017959729
212	0xbcc00340	-0.02343905
213	0xbc227108	-0.009914644
214	0x3d538e38	0.051649302
215	0xbd89bbb4	-0.06725255
216	0x3b86c320	0.004112616
217	0xbd859938	-0.06523365
218	0x3db02982	0.08601667
219	0xbd5e69c3	-0.05430008
220	0xbc6c8af8	-0.01443743
221	0xbd1d1786	-0.03835251
222	0x3dad1912	0.084520474
223	0x3dc8a574	0.09797183
224	0xbb23d3e0	-0.0024998114
225	0x3cf79b40	0.030225396
226	0xbde99924	-0.114061624
227	0xbdd17f88	-0.10229403
228	0x3d956c82	0.07296087
229	0x3d8df482	0.06931402
230	0x3da1dbb2	0.07903232
231	0x3d8e8cc4	0.06960443
232	0x3d912438	0.07086986
233	0xbd8e99ca	-0.06962927
234	0x3cc12a40	0.023579717
235	0x3db3148e	0.08744155
236	0xbc5dbc80	-0.013533711
237	0xbdb9ed23	-0.09078433
238	0x3dd6b094	0.10482898
239	0x3d6b7380	0.057483196
240	0xbde1350b	-0.10996445
241	0x3da07e26	0.07836561
242	0xbdbf1e1b	-0.09331914
243	0x3cc04028	0.023468092
244	0x3dc72e72	0.097256556
245	0x3dd6fa7a	0.10496993
246	0xbd66d202	-0.056352623
247	0x3db99cd8	0.09063119
248	0x3cd12268	0.025529101
249	0xbdb2c536	-0.08729021
250	0x3b2b0440	0.0026095062
251	0xbd38acd4	-0.045086697
252	0x3d426db8	0.047467917
253	0xbdb25473	-0.08707514
254	0xbc052158	-0.008125626
255	0x3da7d0e4	0.081941396

bias f4 [6]
0	0x3bb86290	0.005626984
1	0xbd492a9e	-0.04911291
2	0x3d475a60	0.048670173
3	0x3dd5aaea	0.1043299
4	0x3da83d22	0.08214785
5	0xbdc3c420	-0.09558892

weight f4 [16, 6, 5, 5]
0	0x3cc21e9c	0.023696236
1	0x3d4657fc	0.048423752
2	0xbd89e6a9	-0.06733448
3	0x3d9ff110	0.07809651
4	0xbd49a119	-0.0492259
5	0xbd995b22	-0.07488085
6	0x3d2928e0	0.041298747
7	0xbc9ecbe6	-0.019384336
8	0xbc8f3b94	-0.017484464
9	0x3d61cb40	0.055125475
10	0x3d99637c	0.07489678
11	0xbc951a70	-0.018201083
12	0xbd9a86dd	-0.075452544
13	0xbd857959	-0.06517286
14	0xbd168140	-0.036744356
15	0x3d94479e	0.072402224
16	0xbbc2e130	-0.0059472546
17	0x3ca86a98	0.02055864
18	0xbd66791c	-0.056267843
19	0x3d11f194	0.035630777
20	0x3d420148	0.047364503
21	0x3d6b0138	0.05737421
22	0x3d9eb33e	0.077490315
23	0xbd7008cd	-0.058602143
24	0xbd7cc5cc	-0.06171207
25	0xbd8aaa79	-0.06770796
26	0xbd08d151	-0.033402745
27	0xbcb74cfa	-0.022375572
28	0xbd406cbb	-0.046978693
29	0x3d8f4b2e	0.06996761
30	0x3d657ee8	0.05602923
31	0xbda1e399	-0.07904739
32	0xbca0de9a	-0.019637395
33	0x3d98bbb4	0.074576765
34	0x3d5e26f4	0.054236367
35	0xbccf2cde	-0.025289949
36	0xbc250438	-0.010071807
37	0xbd849594	-0.06473842
38	0x3d6d680c	0.057960555
39	0xbd1301d4	-0.035890415
40	0xbd8528e6	-0.065019414
41	0xbda36d6a	-0.079798535
42	0xbd455459	-0.048176143
43	0x3cb368cc	0.021900557
44	0xbd35b484	-0.044361606
45	0x3b69b3c0	0.0035660118
46	0x3cd5da6c	0.026105128
47	0xbd8bb599	-0.068217464
48	0xbd07363e	-0.033010714
49	0x3cf5e7f8	0.030017838
50	0x3d3196fc	0.04335688
51	0xbd9d4623	-0.07679393
52	0xbd461bcf	-0.048366364
53	0x3d85cf3c	0.065336674
54	0x3d03407a	0.03204391
55	0x3c8a29fc	0.016865723
56	0x3da1f192	0.07907404
57	0xbda5ff22	-0.08105303
58	0xbd3e9e7b	-0.046537858
59	0x3d6dc09c	0.058045015
60	0xbd1f215a	-0.038850166
61	0xbd2cec2e	-0.042217426
62	0x3d311fb8	0.04324314
63	0x3cde4a24	0.027134962
64	0xbc4bcc10	-0.012438789
65	0xbda2c0e3	-0.079469465
66	0x3d02a802	0.031898506
67	0x3bfb76d0	0.0076740757
68	0x3c57c330	0.013169095
69	0x3d0bedec	0.034162447
70	0xbd1dde0a	-0.03854183
71	0x3d5c6b04	0.053812996
72	0x3d4d70cc	0.0501564
73	0xbd107e25	-0.03527655
74	0x3d3dc6bc	0.046332106
75	0x3d9e0b2e	0.07716976
76	0xbce858f0	-0.028362721
77	0x3d60b6f0	0.054861963
78	0xbcd24f38	-0.02567254
79	0x3d04fc12	0.032466955
80	0xbc4b9ef0	-0.01242803
81	0xbd820e32	-0.06350364
82	0xbcc14e8e	-0.023597028
83	0x3d9d0194	0.07666317
84	0x3d1d1dc4	0.038358465
85	0xbda0f2a6	-0.078587815
86	0xbd32579f	-0.043540593
87	0xbd61e7c8	-0.055152684
88	0x3d801eb6	0.06255858
89	0x3d505ee4	0.050871745
90	0xbd11b413	-0.035572123
91	0x3d878a32	0.066181555
92	0xbd85a545	-0.06525663
93	0x3d00d17e	0.031449787
94	0x3d56e12c	0.052460834
95	0xbd190529	-0.037358437
96	0xbd87cec7	-0.066312365
97	0xbce2aa4a	-0.02766909
98	0x3c299ce0	0.010352343
99	0x3d162cb8	0.03666374
100	0xbd3729cf	-0.044717606
101	0x3d7338b8	0.059380263
102	0x3cd24e74	0.025672175
103	0xbd877ce5	-0.066156186
104	0xbc91839c	-0.017762952
105	0xbd9b2ffc	-0.07577512
106	0xbd98f2c0	-0.07468176
107	0xbd9c15bd	-0.07621334
108	0x3b82b6c0	0.0039890707
109	0x3d26a6d8	0.04068646
110	0x3d774744	0.0603707
111	0x3c90c188	0.017670408
112	0x3cfc32dc	0.03078597
113	0xbda4ddc0	-0.08050108
114	0xbbfadfc0	-0.0076560676
115	0x3c0ebbb8	0.008711748
116	0x3d9349d2	0.071918145
117	0xba935100	-0.001123935
118	0x3d4e07d0	0.05030042
119	0x3cbd482c	0.023105703
120	0xbd802c67	-0.06258469
121	0x3d982e60	0.0743072
122	0xbd9e4893	-0.07728686
123	0xbd0c9c85	-0.034328956
124	0xbc2f9ab8	-0.01071804
125	0xbd1f2c9c	-0.038860902
126	0xbd71fdc6	-0.059079908
127	0xbc04c108	-0.008102663
128	0xbce3a782	-0.027789835
129	0x3c9e321c	0.019311003
130	0xbd1f0de6	-0.038831614
131	0xbd8b5342	-0.068029895
132	0x3d4ada3c	0.04952453
133	0xbd687910	-0.05675608
134	0x3d405700	0.04695797
135	0xbc2784f0	-0.010224566
136	0xbd946956	-0.07246654
137	0x3d92d05a	0.07168646
138	0x3d325a8c	0.043543383
139	0x3d59ebf4	0.053203538
140	0x3d91d05e	0.07119821
141	0xbabc3040	-0.0014357641
142	0x3cd45510	0.025919467
143	0x3d97dcee	0.07415186
144	0x3c666fa0	0.014064699
145	0x3d6d4d88	0.057935268
146	0x3d1ee254	0.038790062
147	0xbd796113	-0.060883593
148	0x3d076e36	0.03306409
149	0x3d024ab2	0.031809516
150	0xbd368439	-0.04455969
151	0x3d987212	0.07443632
152	0xbd228fd8	-0.03968796
153	0x3c313f40	0.010818303
154	0xbc982b0c	-0.018575214
155	0xbd3a2317	-0.04544362
156	0x3d58e800	0.052955627
157	0xbd2bac1b	-0.04191218
158	0xbda52095	-0.08062855
159	0xbbf9b4d0	-0.0076204315
160	0xbc84ecf4	-0.01622627
161	0xbcc09d4a	-0.023512501
162	0x3cdbfb7c	0.026853316
163	0x3d858bcc	0.06520805
164	0x3d037054	0.032089546
165	0x3cb9094c	0.02258744
166	0xbccdaf6a	-0.025108058
167	0xbd7193f2	-0.058978982
168	0x3d5b34f8	0.05351731
169	0xbc36ac78	-0.011149518
170	0x3da3aa9e	0.07991527
171	0x3d134360	0.035952926
172	0xbd8ba618	-0.06818789
173	0xbc46b528	-0.012128152
174	0x3d94c9b0	0.07265031
175	0x3d43ac80	0.04777193
176	0xbc0d64b0	-0.008629963
177	0xbda16bcc	-0.07881889
178	0xbcb7d4e2	-0.022440378
179	0xbc60be80	-0.013717294
180	0xbbbbf4d0	-0.005735971
181	0x3bfccea0	0.0077150613
182	0xbc671bf8	-0.014105789
183	0xbda4f088	-0.0805369
184	0x3d2f504e	0.042801194
185	0xbd94b852	-0.07261719
186	0xbd28a906	-0.04117682
187	0xbb062a60	-0.0020472035
188	0xbd813b78	-0.06310171
189	0x3d896844	0.0670934
190	0xbae33f00	-0.0017337501
191	0x3d3b3334	0.045703128
192	0x3d381038	0.044937342
193	0xbcdde038	-0.027084455
194	0x3cb901cc	0.022583865
195	0x3c2a8bc0	0.010409296
196	0xbd341469	-0.043964777
197	0xbcd4f956	-0.025997799
198	0xbc52f038	-0.012874655
199	0xbc85721c	-0.016289763
200	0x3a149c00	0.0005668998
201	0x3d9694e0	0.073526144
202	0xbd8b72fa	-0.068090394
203	0xbd559c38	-0.052150935
204	0x3d412f40	0.0471642
205	0x3d82df9a	0.06390305
206	0x3d8855a4	0.0665696
207	0xbcade1c4	-0.021225818
208	0x3d815bca	0.063163355
209	0x3d58eba0	0.052959085
210	0x3d0e328a	0.034716167
211	0x3c098580	0.008393645
212	0x3da5dbb4	0.08098546
213	0x3c120e68	0.0089145675
214	0xbcfd715a	-0.03093784
215	0x3c9b8a0c	0.018986724
216	0x3d2717ca	0.04079417
217	0xbc984c58	-0.018591091
218	0xbcaed3da	-0.021341253
219	0x3d93a110	0.072084546
220	0x3d5ebba0	0.054378152
221	0xbbec2980	-0.0072070956
222	0x3c991674	0.018687464
223	0x3d87a594	0.066233784
224	0xbb9c0240	-0.0047610104
225	0x3d290e6e	0.041273527
226	0xbc31c5c0	-0.01085037
227	0x3b6eba80	0.003642708
228	0x3d3f2624	0.046667233
229	0x3bfdf160	0.0077497214
230	0x3cdc418c	0.026886724
231	0x3d696588	0.056981593
232	0xbd9517bc	-0.072799176
233	0xbd815e6f	-0.0631684
234	0x3d5c61b8	0.05380413
235	0x3d88f534	0.06687394
236	0x3ceb6024	0.028732367
237	0x3d9adbf4	0.07561484
238	0xbd409a33	-0.047022056
239	0x3d9738ca	0.073838785
240	0x3c971dd4	0.01844684
241	0xbc0873a8	-0.008328356
242	0xbd90eb44	-0.07076123
243	0x3d68c8f8	0.056832284
244	0x3d9ebbde	0.077506766
245	0x3cc7c90c	0.024387859
246	0xbd7cb321	-0.061694268
247	0xbc750f98	-0.014957331
248	0x3cb698a8	0.022289589
249	0xbcf12ddc	-0.029440813
250	0xbc8dc8b0	-0.01730761
251	0xbd99fdd6	-0.075191185
252	0x3ccce178	0.025009856
253	0x3d879f96	0.066222355
254	0xbd972994	-0.07380977
255	0xbce3f4da	-0.027826715

bias f4 [16]
0	0xbd9ca3ed	-0.07648454
1	0x3bb13130	0.005407475
2	0x3d8be6b8	0.068311155
3	0x3d8a7e96	0.067624256
4	0xbd1d0f3e	-0.038344614
5	0xbcdf5008	-0.027259842
6	0xbd04d4bf	-0.032429453
7	0x3d2e8fcc	0.042617604
8	0xbc102968	-0.0087989345
9	0xbd942e5e	-0.07235406
10	0x3d96a634	0.073559195
11	0x3da03ee0	0.078244925
12	0xbc57f9d8	-0.013182126
13	0x3d12c7bc	0.035835013
14	0x3d29b9b6	0.041436873
15	0x3cab9fec	0.02095028

weight f4 [120, 400]
0	0xbd262cae	-0.040569954
1	0x3bb4f8d8	0.0055228285
2	0xbacb4a00	-0.0015509725
3	0x3ceabab2	0.028653476
4	0x3d134c01	0.035961155
5	0xbb774150	-0.0037728138
6	0x3bac9030	0.005266212
7	0xbd28e276	-0.041231595
8	0xbd0668a4	-0.032814637
9	0x3cfec05e	0.031097587
10	0x3c95be52	0.018279228
11	0xbd127dad	-0.035764385
12	0xbbf607b0	-0.0075082406
13	0xbd2dbdaa	-0.042417206
14	0xbcc0b8f7	-0.023525698
15	0xbb3079b0	-0.0026928
16	0xbac8eda0	-0.0015329607
17	0x3b610c20	0.0034339502
18	0x3bf75de8	0.0075490363
19	0x3d31af7f	0.043380257
20	0xbcc56f73	-0.024100995
21	0xbc2f66c8	-0.010705657
22	0xbcb91ee0	-0.02259773
23	0x3cf6b54a	0.030115742
24	0xbc435c14	-0.011923809
25	0xbc96ed1c	-0.01842361
26	0x3d002851	0.03128845
27	0xbd161f55	-0.036650974
28	0x3c9637be	0.018337127
29	0x3c45c578	0.012071006
30	0x3ce03512	0.027369056
31	0x3ca17a0a	0.019711513
32	0x3bbecae8	0.005822528
33	0x3d29170b	0.04128174
34	0x3acc8240	0.0015602782
35	0x3b882ae8	0.0041555054
36	0x3bea9800	0.007159233
37	0x3cf1bea2	0.029509846
38	0x3d4c9c73	0.04995389
39	0x3d3e9ba3	0.046535145
40	0x3d37f655	0.044912655
41	0x3be43d58	0.0069653206
42	0x3cfe2f06	0.031028282
43	0x3ceb210e	0.028702285
44	0x3d324fad	0.043533016
45	0xbc460720	-0.01208666
46	0x3c10d24c	0.008839201
47	0xbc257ca0	-0.010100514
48	0x3c44e0f4	0.012016524
49	0x3c654a7c	0.013994809
50	0xbd2306f0	-0.039801538
51	0x3c476b68	0.012171604
52	0xba1ed200	-0.0006058514
53	0x3d0b93a1	0.034076337
54	0xbca82a77	-0.020528061
55	0x3c60a264	0.013710592
56	0x3d10c663	0.035345446
57	0x3b1596d0	0.0022825487
58	0x3d27ef89	0.040999923
59	0x3c6e66c4	0.014550868
60	0xbc9d37ed	-0.019191707
61	0x3d118ee1	0.03553665
62	0x3d144ca9	0.03620592
63	0x3cb5ac2e	0.022176828
64	0xbca6feba	-0.020385135
65	0x3cd9fbde	0.026609357
66	0xbd016f1e	-0.03160011
67	0xbcd95f47	-0.02653469
68	0xbcc428f7	-0.023945315
69	0xbbe7e9f0	-0.007077448
70	0xbca98430	-0.020692915
71	0xbb625ed0	-0.0034541376
72	0x3c980df2	0.018561337
73	0x3d03ea21	0.032205705
74	0x3cdd4362	0.02700967
75	0xbb651250	-0.0034953542
76	0x3d1867d1	0.037208382
77	0x3ccf9162	0.025337879
78	0x3d32b911	0.043633524
79	0x3c7a51dc	0.015278306
80	0xbc3c2ec8	-0.011485763
81	0x3d1c62d9	0.038180206
82	0xbcf55ea0	-0.029952347
83	0x3d2a7add	0.041621078
84	0x3d0211f9	0.03175542
85	0xbd3affbd	-0.045654047
86	0x3cdfd502	0.02732325
87	0xbd44d04d	-0.048050214
88	0x3ce13842	0.027492646
89	0xbcc13ad7	-0.023587627
90	0xbb151100	-0.0022745728
91	0xb802ac00	-3.1154603e-05
92	0x3d3d979d	0.046287168
93	0x3c5ef434	0.013608027
94	0xbd4a2773	-0.049354028
95	0xbbfdc9f0	-0.00774502
96	0xbccce16a	-0.02500983
97	0x3a25ad80	0.0006320104
98	0xbd125b63	-0.035731684
99	0xbcad7c6d	-0.021177495
100	0x3d317c83	0.043331634
101	0x3d21c471	0.03949398
102	0xbd3ed062	-0.046585448
103	0x3ce9d38e	0.02854326
104	0xbd0cb878	-0.03435561
105	0xbb26ec20	-0.0025470331
106	0xbb632360	-0.0034658536
107	0x3b3199e0	0.0027099773
108	0xbd1aee6d	-0.037825037
109	0x3d42d6b7	0.04756805
110	0xbc32962c	-0.010900062
111	0x3cb7019a	0.02233963
112	0xbcb20800	-0.02173233
113	0xbbf6da90	-0.007533379
114	0xbce2e40a	-0.027696628
115	0xbd419c7b	-0.047268372
116	0xbd3525cb	-0.044225495
117	0x3c07aaa8	0.008280434
118	0x3d447265	0.047960658
119	0x3d26ebaf	0.04075211
120	0xbbe31180	-0.0069295764
121	0x3d36c2df	0.044619437
122	0xbc6c056c	-0.01440559
123	0xbb97fad0	-0.0046380535
124	0xbd3c1a8f	-0.045923766
125	0xbcb616fa	-0.022227753
126	0x3be59958	0.0070068054
127	0x3cdf9f52	0.02729765
128	0xbd2c694e	-0.042092614
129	0xbc91166a	-0.017710883
130	0x3cd2108e	0.02564266
131	0x3c78c65c	0.015184011
132	0x3d0a8733	0.033820342
133	0xbc67c634	-0.014146376
134	0x3d0b60c9	0.03402785
135	0xbc4ff7cc	-0.012693357
136	0x3d338437	0.04382726
137	0x3c1db5e0	0.009625882
138	0xbc98b99a	-0.01864319
139	0x3b281d30	0.0025652163
140	0x3cdd8db2	0.027045105
141	0x3c990f32	0.018684004
142	0xbcf9e36a	-0.030503947
143	0x3d325c33	0.04354496
144	0xbc82fc2a	-0.015989382
145	0x3d48f54d	0.049062062
146	0xbc780aac	-0.015139263
147	0xbbab4bd8	-0.005227547
148	0x3c2b75a8	0.010465063
149	0x3d3f44c7	0.04669645
150	0xbc80fc64	-0.01574535
151	0x3d208f9b	0.039199453
152	0xbb288f50	-0.0025720187
153	0x3ca1f80e	0.019771602
154	0x3c5d8b8c	0.01352204
155	0xbd2d67ff	-0.042335507
156	0xbd0ceaf2	-0.03440375
157	0x3d3b29a1	0.045693997
158	0x3d42d5f3	0.04756732
159	0x3c546d1c	0.012965467
160	0x3cc2c87a	0.023777235
161	0x3be79900	0.0070677996
162	0x3cc1cf72	0.023658488
163	0x3d36dd03	0.044644367
164	0x3d0d089d	0.034432042
165	0x3ac2b5c0	0.0014855191
166	0xbc35e248	-0.011101313
167	0xbd2e4157	-0.04254278
168	0x3c8c29f6	0.017109852
169	0x3cfe1622	0.031016413
170	0x3ca2d372	0.019876216
171	0xbd1d5233	-0.03840847
172	0xbc5de594	-0.013543505
173	0x3d361311	0.044451777
174	0xbc97b1fc	-0.018517487
175	0x3d17612b	0.0369579
176	0xbc2e5f98	-0.0106429085
177	0x3cbb4de2	0.022864286
178	0x3cfb6f96	0.030692857
179	0x3c85a1b6	0.016312461
180	0xbc97bc06	-0.018522274
181	0xba953a40	-0.0011385158
182	0x3ccf658a	0.025316972
183	0xbcba8170	-0.022766799
184	0x3cdc2cd2	0.02687684
185	0x3ccb5d4e	0.024824765
186	0xbd02f3de	-0.03197085
187	0x3d3c3fab	0.045959156
188	0xba850800	-0.0010149479
189	0xbcdec0a3	-0.027191466
190	0xbc430100	-0.011902094
191	0xbba8ed30	-0.005155228
192	0x3c2b7e40	0.010467112
193	0xbce4efad	-0.027946318
194	0xbd24cd36	-0.040234767
195	0xbcbcee9a	-0.023062993
196	0x3c7c7cd4	0.015410621
197	0x3a3b0780	0.00071346015
198	0x3d254add	0.0403546
199	0x3caf8cce	0.021429446
200	0x3bf4fad0	0.0074761882
201	0x3c18fda8	0.00933782
202	0x3c175cf4	0.00923847
203	0xbca5fc0a	-0.020261783
204	0x3cc0e9e2	0.023549024
205	0xbd071e45	-0.03298785
206	0x3d4a648f	0.049412306
207	0x3d259c71	0.040432397
208	0xbd377d3d	-0.04479717
209	0xbd0a5ac0	-0.033777952
210	0x3d3ac11d	0.045594323
211	0x3ab46060	0.0013761632
212	0xbd3db36b	-0.046313684
213	0xbc2b2158	-0.0104449615
214	0xbd2d743a	-0.04234717
215	0x3d41c9a7	0.04731145
216	0xbd389447	-0.045063283
217	0x3bc799e8	0.006091345
218	0x3c34a9a0	0.01102677
219	0xbc2baecc	-0.010478687
220	0x3c57dc7c	0.013175126
221	0xbd2b726a	-0.04185716
222	0xbc305218	-0.01076176
223	0x3d165fb1	0.036712352
224	0xbcb887c0	-0.022525668
225	0xbca754ad	-0.020426119
226	0xbd1955f5	-0.03743549
227	0x3cf018e2	0.02930874
228	0xbb87d230	-0.0041449293
229	0xbcf4e510	-0.029894382
230	0x3d4a52db	0.049395423
231	0x3d1ffbb1	0.03905839
232	0x3d36a95f	0.04459512
233	0xbcecbfc3	-0.028900033
234	0xbcb73960	-0.022366226
235	0xbcb92b83	-0.022603756
236	0xbc219db8	-0.009864263
237	0x3ced9eba	0.02900635
238	0xbbf089e8	-0.0073406585
239	0xb9ccd980	-0.00039071962
240	0x3d081c91	0.033230368
241	0x3c3e6f58	0.011623226
242	0x3d2b6bcd	0.041850854
243	0xbce1df80	-0.027572393
244	0xbcb8b8b0	-0.022549003
245	0xbd48273f	-0.048865553
246	0xbcd695fd	-0.026194567
247	0x3d270295	0.040773947
248	0xbcd8bf1d	-0.026458317
249	0x3d1bd567	0.038045313
250	0xbd0bbc55	-0.034115154
251	0x3d348a85	0.044077415
252	0xbd0e224d	-0.03470068
253	0x3d06d003	0.03291322
254	0x3c335960	0.010946602
255	0x3cfeeaae	0.031117763

bias f4 [120]
0	0x3c8c6e02	0.0171423
1	0xbbf79198	-0.007555198
2	0x3d053af1	0.032526914
3	0x3d37e277	0.044893708
4	0x3d217fa7	0.03942838
5	0x3d393bf5	0.045223195
6	0x3d4783d7	0.048709717
7	0x3bd67e00	0.006545782
8	0x3d45a28b	0.048250716
9	0xbcbc8690	-0.023013383
10	0xbcb0e1b7	-0.021592004
11	0xbcb265d7	-0.021777077
12	0x3bb1bdd0	0.0054242387
13	0x3bf8cb80	0.0075926185
14	0x3c7a12f4	0.015263308
15	0xbd182a4d	-0.037149716
16	0xbcb43110	-0.021996051
17	0x3cffedda	0.031241346
18	0x3d2339a9	0.03984991
19	0xbc4e7af4	-0.0126025565
20	0xbc938660	-0.01800841
21	0xbd02d164	-0.03193797
22	0xbc49cbcc	-0.012316655
23	0x3cd72a46	0.026265275
24	0x3d1c253b	0.038121443
25	0x3d3bd305	0.04585554
26	0xbc6d700c	-0.014492046
27	0x3d294477	0.04132506
28	0xbd212225	-0.039339203
29	0x3c993d96	0.018706124
30	0x3b83bcd0	0.004020311
31	0x3be24a00	0.006905794
32	0x3d4107e3	0.047126662
33	0xbc6c4238	-0.014420085
34	0x3bac91d0	0.0052664056
35	0x3c0c72a8	0.008572258
36	0x3c845442	0.016153459
37	0x3be4c2c0	0.006981224
38	0x3cfb31f6	0.030663472
39	0xbccb03d7	-0.024782104
40	0x3d2dbe4b	0.042417806
41	0xbd3d14fb	-0.046162587
42	0x3cec6ab6	0.028859477
43	0x3c84ee5a	0.016226936
44	0x3d16342b	0.036670845
45	0xbd1762ab	-0.03695933
46	0x3c9b4bc2	0.018957023
47	0x3d283c1f	0.04107296
48	0xbd05d364	-0.0326723
49	0xbcbc4da0	-0.022986233
50	0xbc745dcc	-0.014914941
51	0x3b5e1b50	0.0033890791
52	0x3cfc8b2a	0.030828077
53	0x3d23e063	0.040008914
54	0xbbbafaa8	-0.00570615
55	0x3d26df2f	0.04074019
56	0xbb737460	-0.0037148222
57	0xbbbd4780	-0.0057763457
58	0x3d3591a5	0.04432835
59	0xba766740	-0.0009399541
60	0x3d229b29	0.039698754
61	0x39cc5a80	0.0003897734
62	0x3d041ed3	0.03225596
63	0xbd4879c8	-0.048944265
64	0xbd176472	-0.036961026
65	0xbd2e3078	-0.042526692
66	0x3c9c9772	0.019115184
67	0xbcd00653	-0.02539364
68	0x3d273adf	0.04082763
69	0xbc8cbe54	-0.0171806
70	0xbd04a792	-0.03238637
71	0x3d140fd7	0.03614792
72	0xbd126d5e	-0.035748832
73	0xbc451618	-0.012029193
74	0xbd11bef5	-0.0355825
75	0xbcb0262d	-0.021502579
76	0x3c688424	0.014191661
77	0xbcbcaf20	-0.023032725
78	0x3d18d81d	0.037315477
79	0x3ce46016	0.027877849
80	0xbd1b03b3	-0.037845325
81	0x3d30c3d7	0.043155517
82	0x3d255021	0.04035962
83	0xbd2f50c2	-0.042801626
84	0x3cf8b7c2	0.03036106
85	0xbcd1f690	-0.025630265
86	0x3d34a69f	0.044104215
87	0x3c9abd02	0.018888954
88	0x3cc3fb5a	0.023923565
89	0x3c4bb2f8	0.012432806
90	0xbc0fbc94	-0.008772988
91	0xbce21b3d	-0.027600879
92	0x3d04ba07	0.032403972
93	0xbd1ae930	-0.03782004
94	0x3bef19d0	0.0072967783
95	0x3d040583	0.03223182
96	0x3caf4b32	0.02139816
97	0x3cf51462	0.029916946
98	0x3bf60a30	0.0075085387
99	0x3c192b54	0.009348709
100	0xbd44b342	-0.048022516
101	0xbd21564a	-0.039388932
102	0xbbe32310	-0.00693167
103	0x3d0b7519	0.03404722
104	0xbcc1d4ba	-0.023661006
105	0xbbfeb510	-0.007773049
106	0xbc863a80	-0.016385317
107	0x3c810c06	0.015752804
108	0x3d123547	0.03569534
109	0xbd39baeb	-0.045344274
110	0xbcf06a13	-0.029347455
111	0x3a5e5f80	0.00084828585
112	0xbc722eec	-0.014781695
113	0xbcae1823	-0.021251744
114	0x3b9dcdb0	0.0048157796
115	0xbd3590d5	-0.044327576
116	0x3c56e764	0.013116691
117	0x3d2fd945	0.042931814
118	0xbd2f9ed3	-0.042876076
119	0xbd08f8e0	-0.03344047

weight f4 [84, 120]
0	0xba853e00	-0.0010165572
1	0xbd93be85	-0.07214073
2	0xbc83f6b0	-0.01610884
3	0xbd3d76e9	-0.04625598
4	0x3d7c5da4	0.06161274
5	0xbd96ad42	-0.07357265
6	0xbd803010	-0.06259167
7	0xbc28c998	-0.01030197
8	0x3d915d08	0.070978224
9	0x3d0b78b0	0.034050643
10	0xbd06fd4d	-0.03295641
11	0x3d140ec8	0.03614691
12	0xbd955941	-0.072924145
13	0x3d1a3db4	0.0376565
14	0x3d89e214	0.06732574
15	0xbbf03790	-0.0073308423
16	0xbbcb6dc0	-0.0062081516
17	0x3d7b73a0	0.061389565
18	0x3bfb1660	0.0076625794
19	0x3caef454	0.02135674
20	0xbd479a8e	-0.04873138
21	0xbd57449a	-0.052555658
22	0xbd6d44db	-0.057926994
23	0x3d911216	0.07083528
24	0xbd8a3966	-0.06749229
25	0x3cdd343c	0.027002446
26	0xbd8bfaaa	-0.0683492
27	0x3d8a81dc	0.0676305
28	0xbd2fd52f	-0.042927917
29	0xbdac522e	-0.08414112
30	0xbc5caa60	-0.013468355
31	0x3c886e54	0.016654171
32	0x3c2d1740	0.010564625
33	0x3d494c04	0.04914476
34	0x3c52b158	0.012859665
35	0x3d24c080	0.040222645
36	0x3dac430c	0.08411226
37	0x3d81566c	0.06315312
38	0x3d00db2a	0.03145901
39	0x3cd98b78	0.026555762
40	0xbd58d947	-0.052941587
41	0x3d9cfdae	0.07665573
42	0x3d835b00	0.06413841
43	0x3d9e800c	0.07739267
44	0xba375e00	-0.0006994903
45	0xbd332f11	-0.043746058
46	0xbcf1c728	-0.02951391
47	0xbd70f8bc	-0.05883096
48	0xbccd1f3c	-0.025039308
49	0x3d7469d8	0.059671253
50	0x3d9e1f98	0.0772087
51	0xbd1e7ba3	-0.038692128
52	0xbc6b8920	-0.014375955
53	0xbd521a46	-0.051294588
54	0xbd95e002	-0.07318117
55	0x3b5a73e0	0.0033333227
56	0x3c3f3790	0.011670962
57	0xbda8972c	-0.08231959
58	0x3da2707c	0.07931611
59	0x3c36fc70	0.011168584
60	0xbac3b880	-0.0014932305
61	0xbd9c6d04	-0.076379806
62	0xbdacb32f	-0.08432614
63	0x3ce3a77c	0.027789824
64	0x3b9ad880	0.004725516
65	0xbd80b816	-0.062851116
66	0xbd7b120b	-0.061296504
67	0x3d89aefe	0.0672283
68	0xbd812552	-0.063059464
69	0x3d2e41b0	0.042543113
70	0x3dba58f6	0.09098999
71	0x3c97494c	0.018467568
72	0xbd8a2cd0	-0.067468286
73	0x3d756aac	0.059916183
74	0x3c948078	0.018127665
75	0xbd042c88	-0.03226903
76	0x3d0c30f8	0.034226388
77	0xbc19e790	-0.009393588
78	0xbd43a04b	-0.04776029
79	0xbd865f75	-0.06561176
80	0x3cfee700	0.031116009
81	0x3d053a5e	0.032526366
82	0xbd1bf6fa	-0.038077332
83	0x3d73ff60	0.059569716
84	0xbca3a78c	-0.019977354
85	0xbccca828	-0.024982527
86	0xbb2ad400	-0.0026066303
87	0xbc4cce30	-0.012500331
88	0xbda82b36	-0.08211367
89	0xbcb4b050	-0.022056729
90	0x3c035e88	0.0080181435
91	0x3d098f2c	0.033583805
92	0xbd8f1336	-0.06986086
93	0x3d39004c	0.0451663
94	0xbbfbeb90	-0.0076879933
95	0x3d6f1f30	0.058379352
96	0x3d0173f4	0.031604722
97	0x3d6c8918	0.05774793
98	0xbd970a14	-0.07374969
99	0x3d80faca	0.06297834
100	0xbcae6d60	-0.021292388
101	0x3d1d42b8	0.038393706
102	0xbc380358	-0.011231266
103	0xbdac7026	-0.08419828
104	0xbc604a50	-0.0136895925
105	0x3d06c6a4	0.032904282
106	0x3d04f3c4	0.032459036
107	0xbdb2e670	-0.08735359
108	0xbd19683e	-0.03745293
109	0x3d97bc3c	0.0740895
110	0x3ce1c790	0.02756098
111	0x3d174870	0.036934316
112	0x3d9b3106	0.0757771
113	0x3c372f68	0.011180736
114	0xbc1f8b20	-0.00973776
115	0xbd9eed6a	-0.07760127
116	0xbd9abc8b	-0.07555493
117	0x3d9993e0	0.07498908
118	0xbb8d5770	-0.004313402
119	0x3d6ba71c	0.057532415
120	0x3c6e5858	0.01454743
121	0x3d839d58	0.06426495
122	0x3d23b784	0.039969936
123	0x3d4ed0fc	0.05049227
124	0xbd983117	-0.07431238
125	0x3d23fc9c	0.04003583
126	0x3c58dca0	0.013236195
127	0xbda6b4a8	-0.08139926
128	0x3ca0af74	0.019614913
129	0x3cf01eb8	0.029311523
130	0x3d5cc3b8	0.05389759
131	0x3db33606	0.087505385
132	0xbceea5fa	-0.029131878
133	0x3c890f1c	0.016730838
134	0x3c5bf048	0.013423987
135	0xbce2f158	-0.027702972
136	0xbdb71a76	-0.08940594
137	0xbd1134b8	-0.035450667
138	0xbd4e6d90	-0.050397456
139	0x3d1e0b70	0.038585126
140	0xbc1684e8	-0.009186961
141	0x3da55f48	0.08074814
142	0xbd19c737	-0.0375435
143	0xbd38b705	-0.045096416
144	0xbd0c48a1	-0.03424895
145	0x3d7db538	0.0619404
146	0x3da0f6a4	0.07859543
147	0xbc6f0218	-0.0145879015
148	0xbd34b75a	-0.04412017
149	0xbbf52e90	-0.0074823573
150	0xbda82f93	-0.08212199
151	0x3d93965c	0.07206413
152	0xbd1125f7	-0.035436597
153	0x3d1d90fc	0.038468346
154	0xbdb31cb5	-0.0874571
155	0x3dbabb8a	0.091178015
156	0x3d8a01d6	0.067386314
157	0xbd9e1de6	-0.077205464
158	0x3d087c20	0.0333215
159	0x3cd1a90c	0.025593303
160	0xbd240f89	-0.040053878
161	0x3dba9138	0.091097295
162	0x3d9069f2	0.070514575
163	0xbcf3edc8	-0.029776469
164	0x3c389650	0.011266306
165	0x3c93dc50	0.01804939
166	0xbcf9409a	-0.030426312
167	0x3c838a98	0.016057298
168	0xbd12f5ef	-0.03587907
169	0xbd3c6acc	-0.046000287
170	0xbd194328	-0.03741756
171	0x3a882e40	0.001038976
172	0x3dafd7c2	0.085860744
173	0xbd926e6f	-0.0714997
174	0xbd233490	-0.03984505
175	0x3b8b1120	0.004243985
176	0x3d62c914	0.055367544
177	0xbc344320	-0.011002332
178	0x3d06dc0a	0.03292469
179	0x3cc047c8	0.023471728
180	0x3d0f974c	0.035056397
181	0x3db32e2c	0.08749041
182	0x3da40116	0.080080196
183	0xbd68135d	-0.05665909
184	0x3ca43ccc	0.020048521
185	0xbda86b03	-0.08223536
186	0x3d2d5bd0	0.042323887
187	0xbd70eadc	-0.05881773
188	0xbc8267ec	-0.015918694
189	0x3c773ce8	0.015090205
190	0xbd831986	-0.064013526
191	0x3d9ea9ec	0.07747254
192	0x3cc8a3a0	0.024492085
193	0x3d7f7790	0.062369883
194	0xbd948651	-0.07252181
195	0xbd559077	-0.052139726
196	0xbd9bae49	-0.07601602
197	0xbd2a300b	-0.041549724
198	0x3d7daf60	0.06193483
199	0xbda7ccdc	-0.08193371
200	0x3d574838	0.052559108
201	0x3bd20e90	0.0064104274
202	0xbb365920	-0.0027824119
203	0x3d927f94	0.0715324
204	0x3d9769b2	0.07393207
205	0x3d319e60	0.04336393
206	0xbd70ab1e	-0.05875694
207	0xbdb78355	-0.089605965
208	0xbda140c8	-0.07873684
209	0xbd886d44	-0.06661466
210	0xbacd9fc0	-0.0015687868
211	0x3ca333d0	0.019922167
212	0x3d5ce698	0.05393085
213	0xbdb55b65	-0.08855323
214	0xbcef4f9c	-0.029212765
215	0xbca6b9e4	-0.020352311
216	0xbd2df648	-0.0424712
217	0x3ce683bc	0.028138988
218	0xbc835938	-0.016033754
219	0xbb8d5af0	-0.004313819
220	0x3cc83434	0.024438955
221	0xbd481ddf	-0.048856612
222	0x3d024f22	0.03181375
223	0x3d25d1e4	0.04048337
224	0xbc3b0750	-0.011415318
225	0xbd3f6705	-0.046729106
226	0x3d1cf008	0.03831485
227	0xbd5ad7be	-0.053428404
228	0x3db93c4e	0.09044705
229	0xbd399b34	-0.04531403
230	0x3d821c9c	0.06353113
231	0xbcc92388	-0.024553075
232	0x3c26b7d0	0.01017566
233	0x3d42e00c	0.04757695
234	0xbdb30851	-0.087418206
235	0x3d9d84ae	0.07691322
236	0x3cefa7e4	0.029254861
237	0x3db0aa62	0.08626248
238	0xbd2bfa3c	-0.04198669
239	0xbc6ff908	-0.014646776
240	0x3d5352c4	0.051592603
241	0xbd10df06	-0.03536894
242	0xbdaf5f90	-0.08563149
243	0xbce5c91c	-0.028049998
244	0xbda356b5	-0.079755224
245	0xbdb81ac9	-0.08989484
246	0x3b060b00	0.0020453334
247	0x3d840f64	0.06448248
248	0xbd4dabd7	-0.050212707
249	0xbdadc64a	-0.08485086
250	0x3d580034	0.05273457
251	0xbcc4b064	-0.02400989
252	0xbd469d3c	-0.048489794
253	0xbdb0b354	-0.08627954
254	0x3d743480	0.05962038
255	0x3c196068	0.009361364

bias f4 [84]
0	0x3cd091b0	0.025460094
1	0xbd1e0c9b	-0.03858624
2	0x3c94689c	0.018116288
3	0x3d959e24	0.073055536
4	0x3c5cbe00	0.013473034
5	0xbc4cf580	-0.012509704
6	0x3db783da	0.089606956
7	0x3db9a7c2	0.090652004
8	0xbd16bd50	-0.036801636
9	0xbd495b47	-0.049159314
10	0xbd888389	-0.06665713
11	0xbd61c4d9	-0.05511937
12	0x3d362f84	0.04447891
13	0xbda162f8	-0.07880205
14	0xbdafc55a	-0.08582564
15	0xbd8c1185	-0.06839279
16	0xbd8be6aa	-0.06831105
17	0xbdb7ef63	-0.08981206
18	0xbc8f093c	-0.017460458
19	0x3d94defe	0.07269095
20	0x3db4ef98	0.088347614
21	0x3bdad9e0	0.0066788048
22	0x3d0e14a4	0.034687653
23	0xbd10881e	-0.03528606
24	0xbb4ec960	-0.0031553134
25	0xbbaea7a0	-0.005330041
26	0xbd4ce90e	-0.050026946
27	0x3cb16860	0.021656215
28	0xbd75b52d	-0.059987236
29	0xbc727108	-0.014797457
30	0x3d69ea84	0.057108417
31	0xbb817160	-0.003950283
32	0x3da903a6	0.08252649
33	0x3d97dd68	0.07415277
34	0xbc903374	-0.01760266
35	0x3db04188	0.08606249
36	0xbcc2b874	-0.023769595
37	0xbd9b624b	-0.07587107
38	0xbdb6bef4	-0.0892314
39	0xbbc67fb0	-0.006057702
40	0xbdb37da9	-0.08764202
41	0x3d8f5cfc	0.07000157
42	0x3c52f668	0.012876131
43	0x3d036c50	0.032085717
44	0xbdad7d9e	-0.08471225
45	0xbda2aa56	-0.07942645
46	0x3cfe8174	0.031067587
47	0x3b3fd0a0	0.0029268637
48	0xbd32b767	-0.043631937
49	0xbd831664	-0.06400755
50	0x3cf684c8	0.030092612
51	0x3d7eada8	0.06217733
52	0x3d194b9c	0.037425622
53	0x3c62d9f0	0.013845906
54	0xbc124e60	-0.008929819
55	0xbd8eba84	-0.06969169
56	0xbc9bbf98	-0.019012257
57	0xbd31b8ed	-0.04338925
58	0xbcb37d48	-0.021910325
59	0x3db3b464	0.08774641
60	0xbd4d73ea	-0.050159372
61	0x3d97fdfc	0.074214906
62	0x3d203d18	0.039120764
63	0xbd68cfb0	-0.05683869
64	0xbcc38494	-0.02386693
65	0x3bebecd0	0.007199861
66	0xbd219e27	-0.039457466
67	0x3ca0d7e4	0.019634195
68	0xbd44a10c	-0.04800515
69	0x3db45cda	0.088067725
70	0x3899d000	7.3343515e-05
71	0xbd72c900	-0.05927372
72	0x3d89d71c	0.06730482
73	0x3d5328b8	0.051552504
74	0x3cabd98c	0.020977758
75	0x3bee4ca0	0.007272318
76	0x3d3dbe9c	0.046324357
77	0x3d08a966	0.033364676
78	0xbd92c2fe	-0.07166098
79	0x3cb47400	0.02202797
80	0x3d5e1050	0.054214776
81	0x3cb38da8	0.021918133
82	0xbd24b186	-0.040208362
83	0xbcfa6d70	-0.030569762

weight f4 [10, 84]
0	0xbd3cb118	-0.046067327
1	0x3dbaa267	0.09113007
2	0x3ddcfb95	0.10790173
3	0xbd44c229	-0.048036728
4	0xbc90bdf0	-0.017668694
5	0x3bf32ff0	0.007421486
6	0xbd8eb2fa	-0.06967731
7	0xbdc91543	-0.098185085
8	0x3d304892	0.04303796
9	0x3cd61b24	0.026135989
10	0x3dc15729	0.094404526
11	0x3dbd5b93	0.09245982
12	0xbd8bc46b	-0.06824573
13	0xbd7d388f	-0.061821517
14	0x3d51968e	0.05116897
15	0x3c470eb8	0.012149505
16	0x3b7900c0	0.0037994832
17	0x3d684176	0.056703053
18	0x3d0d1aea	0.034449495
19	0x3cd0b8fc	0.025478832
20	0xbd8ec517	-0.06971186
21	0xbaf47ac0	-0.0018652305
22	0xbd871b40	-0.065969944
23	0xbdac87c0	-0.0842433
24	0x3dac0685	0.08399681
25	0x3dcad9d9	0.099048324
26	0xbda4b2c9	-0.08041913
27	0xbc93b6bc	-0.01803147
28	0xbb906c70	-0.004407458
29	0x3dd101d1	0.102054246
30	0x3d38711a	0.045029737
31	0x3d806dc7	0.06270938
32	0xbdb0a8c0	-0.086259365
33	0x3daf417b	0.08557411
34	0xbc7d2690	-0.015451089
35	0xbd888f3e	-0.06667946
36	0xbd666a0e	-0.056253485
37	0xbd4851ce	-0.04890614
38	0x3c5cde00	0.013480663
39	0x3d921451	0.07132781
40	0x3d4f2f4e	0.050582223
41	0x3dc36881	0.09541417
42	0xbdbd8b1f	-0.09255051
43	0x3ccf579c	0.02531033
44	0x3d4bd73a	0.049765803
45	0x3d98e257	0.07465046
46	0x3dc8e497	0.09809225
47	0x3db8d413	0.09024825
48	0x3c5aeb28	0.01336173
49	0x3d1f1796	0.038840853
50	0x3cce6224	0.025193281
51	0xbd96c6de	-0.0736215
52	0xbdbf927e	-0.09354113
53	0xbda5080a	-0.08058174
54	0x3dc1329d	0.09433482
55	0xbdb1e73e	-0.08686684
56	0x3c765410	0.0150346905
57	0xbd294f30	-0.041335285
58	0xbc9479c4	-0.018124469
59	0x3cae098c	0.021244787
60	0xbce5bf04	-0.028045185
61	0xbb9aa7d0	-0.004719712
62	0x3d09f7b6	0.0336835
63	0x3cf83a94	0.03030137
64	0x3d970527	0.073740296
65	0x3d6bea16	0.05759629
66	0xbcb63be0	-0.022245347
67	0xbdc61a72	-0.09673013
68	0xbcc45c50	-0.0239698
69	0x3d8a0cd9	0.06740732
70	0x3c98e874	0.01866553
71	0xbd699579	-0.057027314
72	0xbdd95119	-0.10611171
73	0xbc013330	-0.007885739
74	0xbd7b7394	-0.06138952
75	0xbd223514	-0.0396014
76	0x3d00d0f2	0.031449266
77	0x3baecfb0	0.005334817
78	0x3dc03e09	0.09386832
79	0x3ce55f84	0.027999647
80	0x3dd06ab1	0.101766
81	0x3d8aef67	0.067839436
82	0xbbfec5d0	-0.007775046
83	0xbd9229f6	-0.0713691
84	0xbd692a2d	-0.056924988
85	0xbd48e126	-0.049042843
86	0xbd80c960	-0.06288409
87	0xbd0f2406	-0.034946464
88	0x3d096d26	0.033551358
89	0xbd1659ae	-0.03670662
90	0x3dc3b90d	0.0955678
91	0x3d7bbd9a	0.061460115
92	0xbc72d560	-0.01482138
93	0xbdb71663	-0.08939817
94	0x3d9a0ad1	0.07521594
95	0xbd639a08	-0.055566818
96	0xbdcfe3b7	-0.10150855
97	0x3d877963	0.066149496
98	0x3d04c862	0.032417662
99	0xbd4fe5c3	-0.050756227
100	0xbcf05b08	-0.029340282
101	0x3ccb360c	0.024806045
102	0xbbe43f90	-0.006965585
103	0xbdd982e4	-0.106206685
104	0xbc363590	-0.011121169
105	0x3d85c689	0.06532008
106	0x3dabd03f	0.08389329
107	0x3b811a70	0.003939919
108	0xbd93baa0	-0.0721333
109	0x3ca0f004	0.019645698
110	0xbd06b6e2	-0.032889254
111	0x3cd381fc	0.025818817
112	0xbddd4275	-0.10803691
113	0xbd02725c	-0.031847343
114	0xbce994e4	-0.02851338
115	0x3dd3d093	0.10342517
116	0xbd906130	-0.07049787
117	0x3cc0d294	0.023537911
118	0xbc81e480	-0.015856028
119	0x3dc7534b	0.09732684
120	0xbdbc0c07	-0.091819815
121	0xbc0e3fd0	-0.008682206
122	0xbdcf6c30	-0.10128057
123	0x3db98fb3	0.090606116
124	0x3dc44d67	0.09585076
125	0x3dccd197	0.100009136
126	0xbdaf629e	-0.085637316
127	0x3cf6ebdc	0.030141763
128	0x3dc3a83b	0.09553572
129	0x3cfe626c	0.03105279
130	0x3d5a2fd2	0.05326826
131	0xbbcc6de0	-0.006238684
132	0xbdc21103	-0.09475901
133	0xbd4d93a3	-0.050189625
134	0xbdcd1fe6	-0.1001585
135	0xbd5a9736	-0.053366862
136	0x3c8ea3dc	0.017412119
137	0xbd0dfba8	-0.034663826
138	0x3d9459c9	0.07243688
139	0x3dc99da5	0.098445214
140	0x3d50e96e	0.051003866
141	0x3ceae28c	0.02867248
142	0xbd116e4e	-0.035505585
143	0xbdc2cc68	-0.09511644
144	0x3cf4d5ec	0.029887162
145	0x3c8bcf2c	0.01706656
146	0x3d205f46	0.03915336
147	0xbc7841e0	-0.015152425
148	0xbdaa5bb1	-0.0831827
149	0xbd73a231	-0.05948085
150	0xbd157b78	-0.036494702
151	0x3d9b66fb	0.07588001
152	0x3cf04484	0.029329546
153	0xbdb574e9	-0.088601895
154	0x3dc1a637	0.09455531
155	0xb9c19100	-0.00036919862
156	0x3d838dd3	0.06423535
157	0xbd90b480	-0.07065678
158	0x3db568a5	0.0885785
159	0x3cd39f04	0.02583266
160	0xbcd045b8	-0.02542387
161	0xbddb949a	-0.10721703
162	0xbcfc8e10	-0.03082946
163	0x3c790198	0.015198134
164	0x3cc5c40c	0.024141334
165	0xbc9095ec	-0.017649613
166	0x3d5ab6d2	0.053397007
167	0xbddd75d2	-0.10813488
168	0x3c65d330	0.014027402
169	0x3cdb70d4	0.0267872
170	0x3da08deb	0.07839569
171	0xbd30f608	-0.043203384
172	0xbb8d5790	-0.004313417
173	0x3dc5dd55	0.09661356
174	0x3db94223	0.09045818
175	0x3ca59ad4	0.02021543
176	0x3cb0e914	0.021595515
177	0xbd98ab20	-0.074545145
178	0x3d0aa1ba	0.03384564
179	0xbdb68dd6	-0.08913772
180	0xbd183e5c	-0.037168846
181	0xbb7556a0	-0.0037435666
182	0x3d6a80f2	0.057251878
183	0xbcfef2fc	-0.031121723
184	0x3dcf4dfb	0.101222955
185	0x3c121260	0.008915514
186	0xbd943424	-0.072365075
187	0xbcd56a9c	-0.026051812
188	0xbdbb8276	-0.09155743
189	0xbdbfe73f	-0.093702786
190	0x3d274d1a	0.040845014
191	0xbda63cfa	-0.08117099
192	0x3dcbab3b	0.09944769
193	0x3d55448a	0.052067317
194	0xbcd78e2c	-0.02631291
195	0xbd3c637a	-0.045993306
196	0xbd85cc71	-0.06533135
197	0xbdaa19fd	-0.08305738
198	0x3d1777c2	0.036979444
199	0xbdbd0223	-0.09228923
200	0xbd54e829	-0.051979218
201	0xbd39dacc	-0.045374677
202	0x3c2acd30	0.010424897
203	0x3c921e14	0.017836608
204	0xbd605d41	-0.054776434
205	0xbcd46950	-0.025929123
206	0x3dc8486d	0.09779439
207	0xbd6662ec	-0.056246683
208	0xbd8170d4	-0.063203484
209	0xbc192a28	-0.00934843
210	0x3c5cbb50	0.013472393
211	0xbcb6b328	-0.022302225
212	0x3c274b38	0.010210805
213	0x3d09c0c6	0.03363111
214	0xbd56eccb	-0.052471917
215	0xbd9799ee	-0.07402407
216	0x3da2ef3f	0.07955789
217	0xbdc17401	-0.09445954
218	0xbd00e2ac	-0.03146617
219	0xbd1963f8	-0.037448853
220	0xbd0d6490	-0.034519732
221	0x3b6c65c0	0.003607139
222	0xbdd9139f	-0.105994456
223	0x3db49697	0.08817785
224	0xbbe93d20	-0.0071178824
225	0x3cf0a53c	0.029375665
226	0xbddbe69b	-0.10737344
227	0x3dd1a68f	0.10236847
228	0xbc53a838	-0.012918524
229	0xbd69db12	-0.057093687
230	0xbd8f51af	-0.06998002
231	0xbd55e2bb	-0.05221818
232	0x3d6148e6	0.055001162
233	0xbd4f9bd4	-0.05068572
234	0xbd1bbb04	-0.03802015
235	0x3ce9ceac	0.028540932
236	0xbd0a9cda	-0.03384099
237	0xbd08cd5a	-0.033398964
238	0x3c66fbf8	0.01409816
239	0xbdbdc813	-0.09266677
240	0x3d639b82	0.055568226
241	0x3d303112	0.043015547
242	0x3d491c12	0.049099036
243	0x3d055fda	0.032562114
244	0xbd88ceac	-0.066800445
245	0x3c04c188	0.008102782
246	0xbd8405b2	-0.06446399
247	0x3bc51480	0.0060144067
248	0xbd8ba4e8	-0.06818563
249	0xbc13fcd0	-0.009032443
250	0xbd7d1e2e	-0.06179636
251	0xbd53723f	-0.051622625
252	0xbd904243	-0.070438884
253	0x3d6a2046	0.057159685
254	0x3c03ac38	0.008036666
255	0xbd43c65d	-0.047796596

bias f4 [10]
0	0xbd060358	-0.032718033
1	0xbd8d3f39	-0.068968244
2	0x3d71d876	0.059044324
3	0x3daf62ff	0.08563804
4	0x3da352dd	0.07974789
5	0x3d55f622	0.052236684
6	0x3d88abb7	0.06673377
7	0xbc042ba8	-0.008067049
8	0x3d750502	0.05981923
9	0x3d050902	0.032479294
