seq2seq/agreement_1.pt (torch_old, 249412 bytes, 10 tensors)

conv1.weight f4 [6, 3, 5, 5]
00000000: 808b 593d 63be 68bd 909c afbb 0c34 403d
00000010: b01c 383c 5cf4 20bd 2b56 cfbd 524e c13d
00000020: 104f 77bc 1009 853d c065 4c3b c01b ba3a
00000030: ce14 973d 14de 82bd b4af b0bd 4a34 16bd
00000040: c843 8e3d 3230 bd3d 5408 86bc 6470 cb3d
00000050: b8bd 9c3d 505f c0bd ac0e 503d a07b dd3d
00000060: 44cb 9abd 204d 1ebb 9438 98bd d664 a13d
00000070: 56ac 07bd 6743 7abd 48a9 32bc 3bda 59bd
00000080: 8c8c 523d a8e1 b93c d4a6 a03d fc28 6b3d
00000090: 78d8 a8bd 28f5 6bbd fcbb 1abd 6476 3dbd
000000a0: a24d ddbd 0072 dcb9 a00e 5d3d 3689 cdbd
000000b0: b408 323d d9ab dcbd faac 8c3d f23d 09bd
000000c0: e04a 08bd 4e99 1abd 50b3 693c a4ad 1bbd
000000d0: d07e 26bd ac66 1ebd 2478 9a3d b442 5e3d
000000e0: 9ae6 e3bd 5044 453c 4223 b83d 905d a33c
000000f0: 64d6 91bc 1410 85bd b84e cbbc 3068 a0bc
00000100: 52f3 d43d ece1 d03d ac88 ccbc 68b1 33bc
00000110: 702b 14bd e3f7 81bd 5e97 93bd d2f3 8e3d
00000120: 503e 38bd e0d3 1c3c f0d8 c53d b8af 12bc
00000130: b84b 63bc 3488 b43d 68de 523d 625e df3d
00000140: 824f b13d b15d aebd 7407 a93d 3237 81bd
00000150: 4c4b 143d 805e 373c e044 903b 00d9 533c
00000160: f891 81bd c0ba bc3c ba07 98bd b049 993b
00000170: fe2a c83d a659 e43d 9443 3b3d 9e84 3dbd
00000180: ae7d a23d f2af da3d f282 c03d 7253 d93d
00000190: 40ef 91bd 1028 c4bd e06d 89bc e2f7 8e3d
000001a0: 0e7e ea3d e4de ae3d 44ea b2bc 787d 11bd
000001b0: b2d6 a83d 88c0 c33d 12ba d53d e2ae 8bbd
000001c0: 160f a9bd 8b3b ecbd 401e c1bb 48f1 053c
000001d0: e68e 54bd 7e43 c73d c0ed 9e3b 1e90 aebd
000001e0: 581e cdbd b0c7 6e3d f000 953c 7167 e7bd
000001f0: 7839 45bd ae32 b33d babe c5bd 54a6 8a3d
00000200: 51f3 bbbd 02ee 813d 328e cb3d 827a bb3d
00000210: ee4e 8fbd 34f8 cc3d be0b ab3d 245a e23d
00000220: 6c06 70bd a8e5 4e3d d07b 163c 1f02 9bbd
00000230: 9e17 863d 786b fd3c 30cc 703d 0eb6 bf3d
00000240: 7080 7cbd b8e5 8a3c 4b88 e0bd a874 52bc
00000250: b2ef 12bd bad3 1fbd 666a 0ebd b036 893b
00000260: 307a 033d aaa8 e43d 984e dc3d 809f 3ebc
00000270: 40e9 e43d dbe1 c4bd 785d 49bd 60ef 373c
00000280: a047 cb3c e853 df3c 40b3 faba ec0f 2fbd
00000290: b84a 893c 0854 d73d 155a acbd da84 d5bd
000002a0: bcec c0bd 8d4c ecbd 7291 933d f44a 51bd
000002b0: 1c95 9b3d 80d0 d3bc 147d f9bc f596 ddbd
000002c0: 42cb 28bd 1c71 733d 6bac d1bd d490 9a3d
000002d0: 4889 b33d 7aff bbbd f4f8 853d 60f1 15bc
000002e0: 6013 80bd f01d 95bd 4c7a 763d 5cac 793d
000002f0: 1122 e0bd 0ef8 b3bd 98ec eb3c 109d 91bb
00000300: 92f5 ba3d d25e 9b3d ec5b 0d3d 2488 2a3d
00000310: 88be e4bc d0b8 abbb e6d0 c13d 78d5 14bd
00000320: fa01 35bd a471 fbbc 527b cb3d 8afa 16bd
00000330: e810 613d 1091 c73d fcbe 873d dcb3 713d
00000340: becb 80bd 86cb d93d 9a34 47bd 184b 25bc
00000350: 5c7e 4fbd fc2a 74bd a888 453d 9afc e73d
00000360: 10ff 893d 54b0 003d 1459 9c3d b817 f13c
00000370: 4247 c83d 00ad bc3d d03a 23bc b49d a73d
00000380: e818 8dbc ca98 e73d f283 e53d f884 d33d
00000390: deff 7ebd 1c9f 53bd 0050 f33c 6454 803d
000003a0: b448 d93d fc58 973d 9659 25bd 2ace 8c3d
000003b0: e205 84bd 18be 6fbd b839 1e3d d0bd 953d
000003c0: c4a4 10bd f46f cd3d 7022 6a3c b85c 2abd
000003d0: 18e1 a53c dc7f d43d d0bf 1c3d 5711 63bd
000003e0: a8cc 36bc 62a4 de3d 381e 033c d08c 9a3d
000003f0: 1029 a83c f8f9 cb3c a0d5 923d 0b17 e0bd
0.053111553 -0.056822192 -0.00535924 0.046924636 0.011237308 -0.03929554 -0.10123857 0.094387665
-0.015094534 0.06495869 0.0031188577 0.0014198944 0.07377015 -0.06390014 -0.08627263 -0.03667096
0.06946522 0.09237708 -0.016361393 0.09933546 0.076533735 -0.093931794 0.050795242 0.10814595
-0.07558301 -0.0024154857 -0.074326664 0.07880561 -0.033123337 -0.061099436 -0.010904618 -0.053186636
0.051403567 0.02269061 0.0784432 0.057412133 -0.08244413 -0.057606846 -0.037776932 -0.046255484
-0.10805823 -0.00042046607 0.053969026 -0.100359365 0.04346533 -0.10774965 0.0686893 -0.03350634
-0.03327453 -0.03774386 0.014263943 -0.038007393 -0.04064828 -0.038672134 0.07542446 0.05426283
-0.11127968 0.012040213 0.089911 0.019942075 -0.017802425 -0.06497207 -0.02481781 -0.01958093
0.10397972 0.10199341 -0.024967514 -0.01096759 -0.036174238 -0.06346109 -0.072066054 0.06980099
-0.0449813 0.009571999 0.09660518 -0.008953027 -0.013873033 0.08815041 0.051481634 0.10906674
0.08657743 -0.08513964 0.08253375 -0.06309356 0.03620462 0.011191964 0.004402742 0.012930155
-0.063266695 0.023038268 -0.07423349 0.0046779737 0.09773825 0.111499116 0.045718744 -0.04626905
0.07934128 0.1067809 0.09399976 0.10611619 -0.071257114 -0.09577954 -0.016776025 0.06980874
0.11449824 0.08538607 -0.021840222 -0.035520047 0.08244075 0.09558207 0.10435881 -0.068204656
-0.082548305 -0.115347944 -0.0058934987 0.008175202 -0.05189409 0.0972967 0.0048501194 -0.08523582
-0.10015553 0.058295906 0.018188924 -0.11299027 -0.04815051 0.08749901 -0.09655519 0.06770006
-0.09177268 0.063442245 0.09939231 0.09154226 -0.069974765 0.100082785 0.08351849 0.11052349
-0.058599874 0.050511986 0.009184793 -0.07568764 0.06547473 0.030935034 0.05878848 0.09360896
-0.061645925 0.016955242 -0.10963496 -0.012845196 -0.035873123 -0.039020278 -0.03476944 0.0041874275
0.03209895 0.111649826 0.10757178 -0.011634707 0.111773014 -0.09613391 -0.049161404 0.011226505
0.024814427 0.02726169 -0.0019126907 -0.042739794 0.016759261 0.105140746 -0.08415619 -0.1042573
-0.094201535 -0.115380384 0.07205476 -0.05109687 0.075968 -0.025856256 -0.03045515 -0.108198084
-0.041209467 0.05943404 -0.10237964 0.07547155 0.08766419 -0.09179588 0.06541625 -0.009151787
-0.062536955 -0.07281101 0.060175225 0.06095539 -0.10943998 -0.08787547 0.02879934 -0.004443772
0.0912887 0.07586445 0.03451149 0.04163374 -0.027922884 -0.005240537 0.09463672 -0.036336392
-0.044191338 -0.030693837 0.09935631 -0.036860026 0.054947764 0.09744465 0.06628224 0.059009418
-0.06288861 0.10634522 -0.04863415 -0.0100887045 -0.050657615 -0.059611306 0.04822603 0.11327477
0.067381024 0.03141816 0.07634178 0.029430255 0.09779216 0.09212685 -0.009962752 0.08184376
-0.01722379 0.11308439 0.11206807 0.10328096 -0.062255733 -0.05166541 0.029701233 0.06266096
0.1060957 0.07390019 -0.04036864 0.0687526 -0.064464346 -0.058530897 0.038629264 0.073115945
-0.035313383 0.10031119 0.014290437 -0.04159233 0.020248935 0.1037595 0.038268864 -0.05543646
-0.011157192 0.10871197 0.00800281 0.07546389 0.020527393 0.024899468 0.07169652 -0.10941895

conv1.bias f4 [6]
00000000: daaf 19bd f88a be3d 641a c73d e4ad 0a3d
00000010: 1bdb 98bd ec20 e8bd
-0.03752122 0.0930385 0.097218305 0.03385724 -0.07463666 -0.11334404

conv2.weight f4 [16, 6, 5, 5]
00000000: 46cc 7ebd e0fb 97bc 787e 923c d4f0 6fbd
00000010: 598e 13bd d64e 85bd 6fc3 97bd 8cf6 023d
00000020: 6099 823c e078 8a3d 5d4b 2dbd f4aa a13d
00000030: 2caf be3c b857 1ebd 6837 3e3d e06a 40bd
00000040: a067 7cbc 9091 973b f0fe d8bc e405 88bd
00000050: a007 17bd 58c6 e23c cb15 17bd f405 7c3d
00000060: 9ef1 993d aeba afbc 8667 2f3d 6a1b 51bd
00000070: f879 c33c 3c8e 583d 38c3 70bc f2ee 46bd
00000080: 147d 7dbd c2aa a2bd b0df b43c 3492 d3bc
00000090: de22 993d 2f57 44bd 51f8 2dbd e918 0dbd
000000a0: dd51 a3bd 8842 c83c 740f e33c 400e 7cbb
000000b0: 8ad1 833d 6822 01bd 909b a13d 286f 2a3c
000000c0: 40a1 e93a a624 53bd a440 9c3d 8490 3cbd
000000d0: 1121 34bd 9e54 823d 2429 953c 7041 f43c
000000e0: 3a25 1d3d 3c1c 19bd 3efb 46bd 80bc 0ebc
000000f0: 2801 d33c 484a 2d3d 926b 8ebd 08ca 943c
00000100: 5471 a6bd 2056 583d 00f9 c53b 1059 81bd
00000110: e518 4cbd a6f4 9ebd 880e 083c c8d3 6abc
00000120: d035 903c 1c08 a53d 7e95 a63d 39c6 04bd
00000130: 361a 993d 0097 f239 68e1 6a3d de7e 80bd
00000140: f855 3a3c 0052 d1bc 143e 133d ac90 683d
00000150: d837 c73c e0fb 14bd 000f e93c bada 22bd
00000160: aa47 2e3d 5ad2 86bd f694 283d d019 f13b
00000170: 8075 853c c4de 80bc 24bd b2bc 702e 92bd
00000180: 7a34 a23d c048 4c3b a4b6 5c3d 8043 20bc
00000190: 18b8 763d 0c23 753d 68f3 333c 2cfe 673d
000001a0: 14a4 b7bc f8bf 343d 280a b1bc 865c 1c3d
000001b0: bee8 2e3d d896 78bc 4028 b3bc b2f9 203d
000001c0: 51ef 29bd 9c8a a13d 90cf 3b3d 8ccb 6e3d
000001d0: e85e 4c3c 90f8 22bc fcea 423d 9c48 c93c
000001e0: 9022 e0bb 4edf 9f3d b29f 0dbd 68b4 673c
000001f0: 8d33 1bbd 4ed3 e7bc a834 4e3d 7c2b 4e3d
00000200: c061 203b 1e2b 9abd 4272 54bd 3c92 873c
00000210: c016 c13c 5c3f ad3c 49ab 1dbd 10be 5d3d
00000220: 5cce 3d3d 96de 62bd a010 133b 205c c8bb
00000230: 9896 2abc 367f 283d 60e3 de3b e4b7 a43c
00000240: e820 54bd e0b6 10bb 7a65 71bd 064d a5bd
00000250: fa5b 833d 64c2 dbbc 46cc 8abd 0000 c236
00000260: 1788 94bd 268f 56bd f49d 643d dcc3 6e3d
00000270: 408c 183d e865 14bc 7c0b 963c 4462 31bd
00000280: 58b2 74bd e05a 3d3d 8069 be3b d8b1 723d
00000290: bc85 7a3d 9c55 243d 50e0 8cbb 00b1 8cb9
000002a0: 40b3 c53a ec22 94bc 098b 14bd 0c99 663d
000002b0: 8842 a83c 5310 22bd 7ce2 eabc 38f1 163c
000002c0: 0b1d 33bd 7a3a 84bd 9222 51bd e43a 1bbd
000002d0: 73c2 01bd 0b60 0ebd 565f 033d 8af0 853d
000002e0: 2e25 a03d bec8 94bd 585e 65bc f805 9c3d
000002f0: 26a1 89bd 3b87 54bd bef8 263d 864c 8b3d
00000300: 8825 4bbc e010 a5bd 3ce3 923d c4de b9bc
00000310: 12ad dfbc 9638 2b3d ce1a f2bc ae24 28bd
00000320: 0c44 853c 34c0 5f3d 60d5 a53d e006 61bd
00000330: eeb7 c5bc eac2 903d 109d 113c 5c56 91bc
00000340: 7889 bd3c bcc8 1ebd 1048 b4bb 9ce6 ec3c
00000350: bc65 05bd f026 7f3d c8fb 4c3d 329f 1f3d
00000360: 687d 033d 648c fc3c 4053 9f3a 1a99 1e3d
00000370: 7d5d 47bd cc15 8abd c0c1 663b 140b 583d
00000380: 162a e1bc b0f4 56bd f420 863d fbd3 a1bd
00000390: 2072 1b3d 8c01 923c e2e7 263d ecd9 54bd
000003a0: 1886 f5bc 187c 0a3c 2e66 0a3d 0ada 223d
000003b0: 16cb 263d 424e 03bd 5ed0 193d 9be0 2cbd
000003c0: ec66 243d 8042 ad3c aadb 9ebd 3c5d 9c3c
000003d0: a000 16bc e11f 40bd a8b4 53bd 88a4 483d
000003e0: 1043 983b c024 9f3d 9745 98bd 8030 0f3b
000003f0: f09a 983d 3819 353c f457 1dbd 5731 3fbd
-0.06220653 -0.01855272 0.01788257 -0.05857928 -0.036024425 -0.065091774 -0.07410323 0.031973407
0.015942276 0.06761336 -0.0423082 0.07893935 0.023276888 -0.038657874 0.04643956 -0.046976924
-0.0154055655 0.0046255067 -0.026488751 -0.066417485 -0.036872506 0.027682468 -0.036886018 0.061529115
0.07516788 -0.02145132 0.042823337 -0.051051535 0.02386187 0.05287002 -0.014694981 -0.04856772
-0.061886862 -0.07942726 0.022079319 -0.025826551 0.074773535 -0.047934707 -0.04247314 -0.034447584
-0.079745986 0.024445787 0.02771733 -0.0038460642 0.06436451 -0.031526953 0.07890999 0.010402478
0.0017824546 -0.051548623 0.07629517 -0.04603626 -0.043976847 0.06363796 0.018208094 0.02981636
0.03836558 -0.037380442 -0.048579447 -0.008711934 0.025757387 0.04230717 -0.06954111 0.018162742
-0.081270844 0.05281651 0.006041646 -0.063158154 -0.04982843 -0.07761507 0.008304246 -0.014332719
0.017603785 0.08058187 0.08133982 -0.032415602 0.074757025 0.0004627034 0.05734387 -0.06274198
0.011373036 -0.025551796 0.035947874 0.056778595 0.02431862 -0.03637302 0.028449535 -0.039759375
0.042548813 -0.0658309 0.041157685 0.0073578134 0.01629138 -0.015731223 -0.021818705 -0.071377635
0.07920165 0.0031171292 0.053885117 -0.009781718 0.06023416 0.059847876 0.010983326 0.05663888
-0.022417106 0.04412839 -0.021611288 0.038174175 0.04270243 -0.015172683 -0.021869779 0.039300628
-0.041487996 0.07887766 0.045852244 0.058299586 0.012473799 -0.009946957 0.04758738 0.024570756
-0.0068400577 0.07806264 -0.034576125 0.014142133 -0.03789096 -0.028299 0.050343186 0.05033444
0.0024472326 -0.07527755 -0.051866777 0.016549222 0.023570418 0.021148376 -0.03849343 0.054136336
0.046339378 -0.055388056 0.002244033 -0.006114498 -0.010411881 0.041136943 0.0068020076 0.020107217
-0.051789194 -0.0022081658 -0.058934666 -0.08071332 0.064140275 -0.026826091 -0.06777243 5.7816505e-06
-0.072525196 -0.05238261 0.0558147 0.058292255 0.037243128 -0.0090574995 0.018316023 -0.043306604
-0.059740394 0.046229243 0.0058109164 0.059251636 0.061162695 0.040120706 -0.004299201 -0.00026834756
0.0015083328 -0.018083058 -0.036265407 0.0562983 0.020539537 -0.03956635 -0.02867245 0.0092127845
-0.04372887 -0.06456466 -0.05105836 -0.03789796 -0.03167958 -0.034759562 0.03207334 0.0654002
0.078195915 -0.07264851 -0.013999544 0.07618326 -0.0672019 -0.05188678 0.040764563 0.06801705
-0.012399085 -0.08059859 0.07172248 -0.02268923 -0.027304206 0.04180201 -0.029553797 -0.041050605
0.016267799 0.05462666 0.08097339 -0.054938197 -0.024135556 0.07068427 0.008887544 -0.017741375
0.02313684 -0.038765654 -0.0055017546 0.028918557 -0.032567725 0.062292993 0.050044805 0.03897018
0.03210202 0.030828662 0.0012155548 0.038720228 -0.04867314 -0.06742439 0.00352107 0.05274494
-0.027485888 -0.052479446 0.06549254 -0.0790176 0.037950635 0.017823003 0.040748484 -0.05196564
-0.029971167 0.008452438 0.033788852 0.03975872 0.04072102 -0.032057054 0.03755223 -0.042206388
0.040137216 0.021149874 -0.07756741 0.019087426 -0.009155422 -0.046905402 -0.05168596 0.048985034
0.0046466663 0.077706814 -0.07435148 0.0021848977 0.07451427 0.011053376 -0.038413957 -0.046677914

conv2.bias f4 [16]
00000000: de6c 833d 00b1 823d 3301 52bd 40a4 fe3b
00000010: 64f9 7a3d 84c1 91bd 60b9 323d b006 78bc
00000020: 608f 443c b013 4b3d 70cf 68bd 0ce6 393d
00000030: a5d0 09bd 804a a3bb 003f b4bb d8e7 7abc
0.06417249 0.06381416 -0.051270675 0.007771045 0.061272994 -0.07116988 0.04363382 -0.015138313
0.011997074 0.049579322 -0.056838453 0.045385405 -0.033646245 -0.0049832463 -0.0055006742 -0.015314065

fc1.weight f4 [120, 400]
00000000: 453d 303d 039e 0fbd 9a87 2abd 5300 bebc
00000010: 8cd5 413c d0e4 c0bb 006a c1ba 5f48 213d
00000020: defd cc3c 007a 86b8 4288 983c 6874 803b
00000030: 9dea 02bd 3de5 24bd 3892 403c 4e6c d23c
00000040: a1be 3e3d 2062 233c d0aa 64bb e2dd b53c
00000050: 6f53 3cbd 2ea1 27bd 14c5 0ebc a0c0 a2bc
00000060: 9d80 e2bc 5b39 033d 2274 c33c 9f8c 153d
00000070: 7fa6 47bd 8060 7bbb 4e51 923c 4caf 67bc
00000080: e9a9 2e3d 1b86 17bd 3fa7 1e3d 7373 d5bc
00000090: 8478 07bd 8025 23ba 7869 4bbc 6ce9 5d3c
000000a0: e6df dd3c 2277 41bd fd2e a0bc f9f8 1a3d
000000b0: 0711 213d 63b9 cebc fa78 e8bc 9005 debb
000000c0: 60f7 f4bc 99e5 033d bdf1 0cbd 7da0 1fbd
000000d0: 7035 f73b 8831 6ebc 4036 9ebb f7d8 223d
000000e0: 0359 e8bc 2087 53bc 77e1 a1bc 2a92 1fbd
000000f0: 1f2f 3f3d 0786 e9bc 3014 993b 3558 1fbd
00000100: 1454 3d3c 5a50 81bc da22 fbbc 8c2d 59bc
00000110: e70e 223d 80c0 3ebc a093 843a 5d99 153d
00000120: fd1a b4bc 166d 26bd 075c 1e3d 28cf 3a3c
00000130: 6cdc 08bc 005f c8bc 95ac 0f3d 10c2 e23b
00000140: 1fc3 193d 3a6d 3abd a44f 8bbc 6eb8 803c
00000150: d59d 0c3d e875 74bc 9405 023c 371c 373d
00000160: 80ff 313a c8a6 313c 9ec0 c73c 011c 003d
00000170: 60ea 3abc 0087 cabc d918 313d de3c af3c
00000180: d025 a13b 2aea d7bc 193c 073d 2c26 23bc
00000190: b34a bebc c867 3d3c f008 d23b e821 94bb
000001a0: eddf 0fbd a988 333d 609d 9bba f057 d6bc
000001b0: 589a c0bb d00b 01bb 8acd 88bc 5202 953c
000001c0: cc0d 86bc 2d43 4cbd 4df9 273d 3533 49bd
000001d0: f852 1dbd d634 993c c241 fc3c 4155 283d
000001e0: 25f0 173d da52 8fbc d048 3dbd b4b2 19bc
000001f0: dee2 af3c ce8a be3c 8c9b 653c ce1b 20bd
00000200: 23e0 d4bc d36d 1e3d ec06 59bc ae49 933c
00000210: 3d4e ddbc 8781 bbbc 97cf acbc c9d2 053d
00000220: a753 063d bad8 a43c 70c3 febc 0748 383d
00000230: d3af d1bc d84c 30bd e278 45bd 1dbb afbc
00000240: a2f1 d03c 5fc0 243d 6383 113d 4236 b53c
00000250: 45f3 303d 5a4a be3c 0020 123c 009e aa3a
00000260: f4f2 4b3c 935c 2f3d 8250 ab3c eea5 f53c
00000270: 6a2a eabc 2a38 a8bc 45db 05bd 70dd 3bbd
00000280: 8eed d23c a0a2 deba 38c3 0f3c 9d74 b3bc
00000290: a4aa 6a3c f3e3 1abd 1ddb b0bc 25ed 073d
000002a0: 5081 23bd e800 db3b 00ca 9bbb f0b5 e3bc
000002b0: 227a 07bd 39ea 403d ac6a 80bc 1d49 08bd
000002c0: 10d8 efbb b20b c63c 2a6a f3bc 70f7 9c3b
000002d0: 624d a43c d243 ca3c db75 2f3d c8d0 55bc
000002e0: b9da 343d 4fe6 3f3d eac9 b03c f236 0ebd
000002f0: 33a3 483d 6d51 a4bc cabc 90bc 3ab1 e1bc
00000300: 9574 313d 57db 243d 0e53 21bd 487b 493c
00000310: 71e6 303d 1800 f23b d82c 26bc c44b 613c
00000320: a117 143d 8dbd 4cbd dcbb 00bd 028d fc3c
00000330: ba35 933c 0002 65ba 1183 023d 7fe8 133d
00000340: 60c6 f1ba 8072 8a3b 0a06 b33c f482 72bc
00000350: fd74 3cbd 0a6f 8b3c 2f51 293d 30ae ae3b
00000360: a051 68bc 32a0 eb3c 0fba 163d beeb d23c
00000370: b0f9 a5bc 5877 e73b aae8 90bc af10 0b3d
00000380: 7e89 d63c 40ef 073c b3c9 45bd e0f7 73bc
00000390: ac94 293c 009f b83b ee9b ff3c ddcc 43bd
000003a0: c42b 97bc a002 e2ba 5076 fbbb 5504 3a3d
000003b0: e6fb f23c 438d 9bbc 78cd 313c 8edc 813c
000003c0: 98a6 69bc dd3a a6bc 0740 a7bc d801 3bbd
000003d0: 9dca 33bd 8de2 e7bc 3498 0a3c b054 f23b
000003e0: 6e95 963c 729d ad3c 7910 303d 20a7 0cbd
000003f0: 58af 39bc dd88 9bbc d41f 03bd 17b6 1b3d
0.04302718 -0.0350628 -0.041633226 -0.023193514 0.011830699 -0.0058866516 -0.0014756322 0.03937566
0.025023397 -6.412342e-05 0.01861966 0.0039201267 -0.031962026 -0.04025768 0.011753611 0.02568641
0.046568517 0.009972125 -0.0034891851 0.022200529 -0.045978006 -0.040925197 -0.008713979 -0.019867241
-0.027649218 0.03203712 0.023859087 0.03651106 -0.048742767 -0.003835708 0.017861035 -0.014140915
0.042642508 -0.036993127 0.038733717 -0.026056027 -0.033073917 -0.00062235445 -0.012415282 0.013544422
0.027084302 -0.047232755 -0.019553656 0.037835095 0.03932288 -0.025234884 -0.028377999 -0.0067755654
-0.029903114 0.032201383 -0.034410227 -0.038971413 0.007544212 -0.014538176 -0.0048282444 0.039757695
-0.028362757 -0.012910634 -0.01976083 -0.038957752 0.046675798 -0.028506292 0.004671596 -0.03890248
0.01155569 -0.015785385 -0.030656267 -0.013255488 0.039564993 -0.011642575 0.0010114796 0.03652321
-0.021985525 -0.040631376 0.038661983 0.011401929 -0.008353334 -0.024459362 0.035076696 0.0069201067
0.037539598 -0.045514323 -0.017005749 0.015712943 0.034330208 -0.014920689 0.0079359 0.044704642
0.00067900866 0.010842986 0.02438384 0.031276707 -0.011408418 -0.024722576 0.043236587 0.021391328
0.0049178377 -0.026356775 0.033016298 -0.009957831 -0.023228979 0.011560388 0.006409757 -0.0045206435
-0.03512566 0.0438315 -0.0011872463 -0.026164979 -0.005877774 -0.0019690879 -0.016699571 0.018189583
-0.016364 -0.04986875 0.041009236 -0.0491211 -0.038409203 0.018701952 0.030793075 0.04109693
0.037094254 -0.017495561 -0.046212018 -0.009380985 0.021470483 0.023259547 0.014014136 -0.039089017
-0.025985783 0.038678955 -0.013246279 0.01797947 -0.027014846 -0.022888912 -0.02109508 0.032671724
0.03279462 0.020122875 -0.031099051 0.044990566 -0.025596535 -0.043042034 -0.048210986 -0.021451527
0.025505845 0.040222522 0.03552569 0.022120599 0.04320075 0.023228813 0.008918762 0.0013017058
0.012448061 0.042812895 0.020912413 0.029986348 -0.028584678 -0.020534594 -0.032679815 -0.045865476
0.02574804 -0.0016985722 0.008774571 -0.021906191 0.01432291 -0.037815046 -0.021588856 0.033185143
-0.039918244 0.0066834576 -0.004754305 -0.027796715 -0.03307546 0.047098372 -0.015675865 -0.03327285
-0.007319458 0.024175499 -0.029713709 0.004790239 0.02005643 0.024690542 0.042837005 -0.013050266
0.044153903 0.0468505 0.021580655 -0.03472037 0.048983764 -0.020058358 -0.017668147 -0.027550329
0.043324072 0.04024824 -0.039385848 0.012297459 0.043188516 0.007385265 -0.0101425275 0.013750974
0.036155347 -0.049985457 -0.031429157 0.030828957 0.017969955 -0.0008735955 0.031863276 0.036110397
-0.0018445961 0.0042250752 0.021853466 -0.0148017295 -0.046010006 0.017020721 0.04133719 0.0053308234
-0.014179617 0.02876291 0.036798533 0.025747176 -0.020260662 0.0070637874 -0.017689068 0.033951458
0.026188608 0.008296788 -0.04828806 -0.014890641 0.010350388 0.0056341887 0.031202283 -0.047802795
-0.018453486 -0.0017243214 -0.007674016 0.045414288 0.02966113 -0.018988257 0.01085221 0.015852239
-0.01426091 -0.02029174 -0.020416273 -0.045656055 -0.0438944 -0.02830627 0.00845914 0.0073953494
0.0183818 0.02119324 0.04298446 -0.03433907 -0.011333309 -0.01898616 -0.032012776 0.03801545

fc1.bias f4 [120]
00000000: 4820 35bc 80e6 4c3a 26db b03c 713d 0e3d
00000010: 923a 39bd 111b 423d d27b 2abd 5067 a5bc
00000020: 5ac3 ee3c 3083 b9bc 47ab 263d 5d84 d4bc
00000030: 0780 bebc 30cd b9bc 2cf2 193c 5d2d aabc
00000040: 74ef 87bc 2cec 5fbc da73 84bc fa28 1abd
00000050: 5350 2d3d b051 d8bb 82cc bb3c b8d8 27bd
00000060: 54b2 07bd e84d 62bc b72f abbc 7de4 e3bc
00000070: 304f e93b 540e 7d3c 97be e9bc cb01 053d
00000080: 45e4 013d 715b 323d a5fe 2cbd 3f64 44bd
00000090: ec7d 473c 60c1 44bc 8966 083d 3a39 8b3c
000000a0: ec1c 5f3c 977e 363d 8a5a dabc 36bc 80bc
000000b0: 1d45 0cbd fd6c 043d 31ef 183d ce11 0dbd
000000c0: ec3e 08bd 10b1 d0bc 00fa 293c ae7f cd3c
000000d0: 3b53 353d a9de 3e3d c779 ccbc ead3 84bc
000000e0: 3bdf 49bd 30a9 40bd b24f c23c 22da 993c
000000f0: c37c 0fbd 2b26 27bd 42b3 823c d4ea 8ebc
00000100: b6ee a63c 2370 afbc 5daa 36bd 110a 313d
00000110: ddbd 0abd 329e 14bd 4057 8fba 514e 3b3d
00000120: 328c ee3c c3eb c3bc 627b 2fbd c4b5 603c
00000130: c0ba f5bb 8036 bebb 9bef 1abd 808c 5bbc
00000140: 4cb0 91bc 705c fc3b b058 983b a0bb 3abd
00000150: 6498 703c 3e34 ec3c 20db 143c 2bd4 2cbd
00000160: 2c6e 02bd c9a5 0e3d 2a9a 45bd c3ea 49bd
00000170: d8e1 4abd 1d76 a2bc 2349 42bd e6e0 1bbd
00000180: a499 543c 60a9 033c 1778 0a3d ab10 353d
00000190: 1807 c6bb f7b0 babc 1041 8cbb 5dc6 b1bc
000001a0: 7f71 0a3d 567f cd3c d950 0e3d 797f 493d
000001b0: e25f 11bd b771 33bd e385 a2bc f7ef 473d
000001c0: c61f 05bd 0922 063d c038 cb3a 2a48 c93c
000001d0: b42d 13bc edb7 d0bc 136d c0bc 408d 04bc
-0.01105506 0.00078163296 0.021588873 0.034726564 -0.045221873 0.047389094 -0.04162199 -0.020190865
0.029145885 -0.022645563 0.040690687 -0.025942022 -0.023254408 -0.022680849 0.009396117 -0.020773584
-0.016593672 -0.013667148 -0.016168524 -0.037636735 0.04231293 -0.006601535 0.022924665 -0.040978163
-0.03312905 -0.01381252 -0.020896776 -0.027818913 0.0071200356 0.015445311 -0.028533263 0.032472413
0.031711835 0.043544237 -0.042235035 -0.047947165 0.012176018 -0.012008995 0.03330091 0.016995061
0.013617735 0.04455432 -0.0266545 -0.015714746 -0.0342456 0.0323305 0.037337486 -0.034440808
-0.033263132 -0.025475055 0.010374546 0.025085296 0.044268828 0.046599064 -0.024960412 -0.01621433
-0.049285155 -0.04703635 0.023719642 0.018780772 -0.03503109 -0.040807884 0.015954617 -0.01744596
0.020377498 -0.021415776 -0.044596065 0.04322249 -0.033872474 -0.03628368 -0.0010936037 0.045728985
0.029119585 -0.02391613 -0.042842276 0.013715211 -0.007499069 -0.0058048368 -0.03782616 -0.013400197
-0.01778426 0.007701449 0.0046492442 -0.04558909 0.01468477 0.028833505 0.009085447 -0.042194527
-0.03184335 0.034826074 -0.048242725 -0.04929615 -0.049531788 -0.019831711 -0.04743303 -0.038056277
0.012976084 0.008035988 0.033805933 0.04420535 -0.006043326 -0.022789462 -0.004280217 -0.021701032
0.033799645 0.025085133 0.03474507 0.049193833 -0.03549183 -0.04380962 -0.019839233 0.048812833
-0.032501005 0.032747302 0.0015504584 0.024570543 -0.008983064 -0.025478328 -0.02348951 -0.008090317

fc2.weight f4 [84, 120]
00000000: 886f 633d e0a8 0fbb c8a3 683d 6017 423c
00000010: 864a 81bd 3452 e6bc e599 5dbd ccd3 e93c
00000020: 800b 0dbb 54e7 543d e015 9d3b 809d 79bc
00000030: b4c7 c53c f0d4 02bd cad5 21bd 222d 923d
00000040: 30b6 073c 7002 b73b 8c14 153d 6123 04bd
00000050: 3983 85bd 366b 953d 346c 71bd 88e9 a43d
00000060: f14b 83bd 60e2 503d ee4c ae3d 751a 48bd
00000070: 390f 8fbd 166b 823d c059 4abb 20b9 8cbd
00000080: d0b6 753d dc6b e23c 5e23 b93d 0d70 75bd
00000090: bd95 5fbd 3cd9 fcbc 7ab1 853d 8454 7e3d
000000a0: 8424 dd3c 8c80 f13c 396f 2abd 246a ab3d
000000b0: 98f4 84bc ea8b 40bd ac05 1a3d 18ca 07bc
000000c0: 9490 583d 6e61 98bd b805 ae3d a491 663d
000000d0: 28b2 b43c 52d7 36bd 00e2 04bc 66e3 4abd
000000e0: 746f 923d 0394 91bd 8033 74ba ec1d 4a3d
000000f0: 7b5e 8ebd b9fb a2bd 4876 8ebc ea48 af3d
00000100: 8c2a 5b3d f494 b93c fc3a abbd 0e30 47bd
00000110: e4e1 b8bc 6660 b7bd c46f adbc 6b69 5fbd
00000120: c0c7 5e3d 285b 463d 60e5 f33b c47c 7b3d
00000130: 2496 343d a8f4 f2bc 4014 ad3a acd2 933c
00000140: c4a3 a4bd 188d 73bc 50e5 603d e388 66bd
00000150: 54b9 c8bc 0c02 8a3c aee3 89bd 4e1a 9d3d
00000160: c500 55bd 9c3c 183d 0014 2a3d 206e 8ebc
00000170: fb90 00bd dc3b c13c fe2d a2bd 726a 8f3d
00000180: 2dd3 5cbd c6be 7dbd 408e fb3a 0e71 ac3d
00000190: 8e54 99bd 1060 f73b a00c 5bbc 9f01 30bd
000001a0: 00aa 7c3d ac9d 1abd 58ee 94bc 7824 4c3d
000001b0: a06d 5b3d 4c01 093d a075 5fbd f441 f43c
000001c0: f9e2 90bd 1816 1f3d 09e3 89bd d8c6 68bd
000001d0: 00aa 093a 1af1 b73d 888c 6f3c b249 913d
000001e0: 6847 b33c c453 cd3c 309e 123d 501d 64bd
000001f0: 0077 a4bc da4d 9b3d cc86 49bd c0b1 b33d
00000200: 46db 893d 2cf9 b93d ae17 91bd a08d 03bc
00000210: c4d2 80bc 403d b53a 20dd 213c 00ce 62b9
00000220: faf8 9d3d c4c4 1c3d 00c4 033b 9c47 4d3d
00000230: 98c5 6e3c 28dc 3fbc 5e12 a93d 6cbd ac3d
00000240: 8459 b43d 98fb 12bc 7805 0c3d be25 893d
00000250: cc21 f3bc f419 adbd 58c8 c83c c128 6abd
00000260: 20e9 b93c 8848 a7bd 3464 9d3c 4bf8 31bd
00000270: a5ab 18bd 489e afbc c420 6f3d 1f3f 6fbd
00000280: d40c d3bc e1c5 11bd 9ca6 223d e0f2 073d
00000290: 3947 48bd 38b8 443d bc46 343d c5a8 adbd
000002a0: 7cdc 253d 3c23 4c3d c885 a33d b638 9f3d
000002b0: 8ce2 303d c803 b83d 170b 8bbd d101 3cbd
000002c0: c08e e43a e0f1 3e3b 0cb7 723d a5dc a7bd
000002d0: 406f 16bd 3e6d 873d 80d5 3e3d e261 9b3d
000002e0: 0d3c 44bd 844a b63d cea4 9ebd 289f 253d
000002f0: 2c26 71bd 3e4a 74bd fc3d e7bc d84b 82bc
00000300: 1cf8 fcbc 41e9 b7bd 1c3e b9bd 28f3 7abd
00000310: 5aba 42bd af6f 9ebd 0155 aabd a025 05bb
00000320: 3e0e a13d ca45 9e3d 3e23 92bd e56f 33bd
00000330: 81b3 70bd 08e6 65bd c809 4bbc 34f8 6c3d
00000340: a0c8 f63b a09d fcbb a4b4 723d d4af 313d
00000350: a048 803d 0cdc 123d 775c 15bd 00c7 99b9
00000360: e0f9 8f3b 641c d4bc 3458 633d f4b3 793d
00000370: f843 2d3d f401 4c3d 2423 303d c828 81bd
00000380: a8f2 3f3d de64 5cbd e076 773c ebaf 3abd
00000390: 48e2 863d 7be7 b5bd 600d 9b3d fce2 65bd
000003a0: ac25 373d 9a98 35bd 8298 893d dcce 363d
000003b0: 029f 923d 32c2 4ebd 6c34 d53c a150 aebd
000003c0: 3fd8 82bd 7c3a da3c 6538 a6bd 4c81 dbbc
000003d0: aa5b 45bd 22d1 9abd 1293 883d 4f01 67bd
000003e0: 3f97 a2bd 3057 b1bc d00f 283d fc35 4b3d
000003f0: c089 eb3c d800 833d 10fa 053c 78f3 703d
0.055526286 -0.0021920726 0.05679682 0.011846393 -0.06313042 -0.02811537 -0.054101843 0.028543375
-0.0021521747 0.051978424 0.0047938675 -0.015235305 0.024143077 -0.031941354 -0.039510526 0.07137515
0.008283183 0.0055850074 0.03639655 -0.032260302 -0.06519169 0.072958395 -0.05894108 0.08052355
-0.06410969 0.050997138 0.08510767 -0.048853356 -0.06985325 0.06368081 -0.003087625 -0.06871247
0.059988797 0.027639322 0.09039949 -0.059921313 -0.05458616 -0.030865304 0.065279916 0.06209232
0.026994951 0.029480241 -0.041609976 0.08369854 -0.016229913 -0.047008432 0.037603065 -0.008287929
0.052872255 -0.07440458 0.084971845 0.056291237 0.022057608 -0.04463894 -0.008110523 -0.04953327
0.07150164 -0.07108309 -0.00093155354 0.049344942 -0.069516145 -0.079581685 -0.017390385 0.08558829
0.053507373 0.022654034 -0.0836086 -0.048629813 -0.02256865 -0.089539334 -0.021171458 -0.054543894
0.054389715 0.048426777 0.007443115 0.061398283 0.044088498 -0.029657677 0.0013204888 0.018044792
-0.08039048 -0.014865182 0.05490619 -0.05628289 -0.024502434 0.01684668 -0.067328796 0.07671033
-0.052002687 0.037167177 0.04152298 -0.017386496 -0.031388264 0.023588113 -0.079189286 0.07002725
-0.05391233 -0.061949514 0.0019192174 0.08420001 -0.07486831 0.0075492933 -0.013369709 -0.042970296
0.061685562 -0.037748024 -0.018180057 0.049839467 0.053571343 0.033448502 -0.054555535 0.029816605
-0.070745416 0.03883943 -0.06732757 -0.056830257 0.0005251467 0.08981533 0.014620908 0.070941344
0.021884635 0.025064357 0.03579539 -0.055692017 -0.020076275 0.075832084 -0.049200818 0.087741375
0.06731276 0.09080729 -0.07084595 -0.0080293715 -0.0157255 0.0013827458 0.00987938 -0.0002162978
0.07713504 0.038273588 0.0020105839 0.05011712 0.014573477 -0.011710204 0.082554564 0.08434567
0.08806136 -0.008971117 0.034184903 0.06696652 -0.029679202 -0.08452216 0.024509594 -0.057167772
0.02269417 -0.08168131 0.01921282 -0.04344968 -0.037273068 -0.02143778 0.058380857 -0.058409806
-0.025762953 -0.035589103 0.039709672 0.033190608 -0.04889605 0.048027247 0.04401277 -0.08479456
0.040493473 0.04983829 0.07984501 0.07774489 0.043184802 0.08985096 -0.067892246 -0.04590017
0.0017437562 0.0029135868 0.0592566 -0.081963815 -0.03672719 0.06612633 0.04659033 0.07587029
-0.04790883 0.089009315 -0.07746278 0.040434986 -0.058874294 -0.059641115 -0.028227799 -0.015905306
-0.030880027 -0.089800365 -0.090450495 -0.061267048 -0.047541 -0.07736146 -0.083169945 -0.0020316616
0.078640446 0.07728155 -0.07135628 -0.043807883 -0.05876494 -0.056127578 -0.012392469 0.057853892
0.0075312406 -0.00770922 0.059254304 0.043380573 0.06263852 0.035854384 -0.036465134 -0.000293307
0.004393801 -0.025892444 0.05550404 0.060962632 0.04230115 0.04980655 0.043002263 -0.063066065
0.046862274 -0.053807132 0.015104026 -0.045577925 0.065861285 -0.08882042 0.075709105 -0.056124672
0.04471366 -0.044334985 0.06718542 0.04463087 0.071592346 -0.050478168 0.026025973 -0.085114725
-0.06388902 0.026639216 -0.08116225 -0.026795052 -0.04818312 -0.0755942 0.066686764 -0.056397732
-0.07939004 -0.02164802 0.041030705 0.04961203 0.028752208 0.06396645 0.008177295 0.05882594

fc2.bias f4 [84]
00000000: 3cce 343d 7ec0 3cbd a0bd 3abd a870 363c
00000010: 24e8 c93c 2868 663d f828 3c3c 10ea aabb
00000020: 8421 7a3d 24a4 543d 2fcc 21bd 16e9 053d
00000030: c0ed 7b3d 5e64 9f3d 546c a93c e519 4abd
00000040: bf70 0cbd a487 633d 7a0e adbd 9c2a 563d
00000050: f83f 30bd d0d8 213d b863 50bd d0c1 02bd
00000060: 9cfe 96bd 48f7 93bd b4b1 b2bc a45d 813d
00000070: 9589 b0bd 6c34 663d 4cad 983d 804a 05ba
00000080: 6314 91bd 35a4 43bd 209c 753d 042b f13c
00000090: c298 6cbd 3cc9 ee3c 35b1 64bd 7df8 90bd
000000a0: 1267 983d 22d1 3dbd 6ac8 af3d 00f3 a139
000000b0: 681d 22bd c0ec 87bb 062d babd cd0c 25bd
000000c0: d4bf a83d c6ea 813d c060 90ba 8c53 603d
000000d0: 09f8 91bd 98a8 2cbd 8c02 943d 6a66 f7bc
000000e0: 4c54 a13d 3490 98bc a00b 33bb c8dc 613d
000000f0: a891 c03c 1449 263d 20ae e63c bcb4 703d
00000100: 5eba a4bd c005 80bd 4059 493c e088 963b
00000110: 00f2 283c a0d8 32bb 7aaa b93d 6f6a 89bd
00000120: f807 4abd 1818 9d3d e8e9 833c 14ec bd3c
00000130: 13dd 62bd 658e 9ebd c8c6 34bc 1852 43bc
00000140: 461a b13d 400e 083b d8e9 363c 04eb b8bd
0.044141993 -0.046082012 -0.045590997 0.011135258 0.024646826 0.056251675 0.011484377 -0.0052158907
0.06106712 0.05191435 -0.039501365 0.03269299 0.061506033 0.077828154 0.020681538 -0.0493411
-0.03428721 0.05554928 -0.08450027 0.05228673 -0.043029755 0.03951341 -0.05087635 -0.031923115
-0.07372782 -0.072248995 -0.021813251 0.06316689 -0.08619992 0.056202337 0.07454929 -0.0005084649
-0.070839666 -0.047764022 0.059963346 0.029439457 -0.05776287 0.02914869 -0.05583306 -0.070786454
0.07441534 -0.046342023 0.08583148 0.00030889362 -0.039578825 -0.004148096 -0.09090619 -0.04029541
0.08239713 0.063436076 -0.0011015162 0.054767177 -0.07127387 -0.04215297 0.07227048 -0.030200202
0.078774065 -0.018623449 -0.0027320161 0.055142194 0.023506954 0.040597036 0.028159201 0.05876611
-0.08043359 -0.06251097 0.012289345 0.0045939535 0.010311604 -0.0027289763 0.09065719 -0.06709754
-0.049324006 0.07670611 0.016102746 0.02318386 -0.055386614 -0.07742003 -0.011033721 -0.011921428
0.086475894 0.0020760447 0.011164151 -0.09029201

fc3.weight f4 [10, 84]
00000000: f429 f13c 2b96 c53d f0e5 833b 6c1e 31bd
00000010: de5d 3abd fa5b c5bd a708 cb3d 7cbf 88bd
00000020: 38d8 8cbd c8ac 453c a8f5 39bc 9d1d 50bd
00000030: 3cbe b63c c278 0cbd 7056 9a3b bb4c c53d
00000040: 4a2e 083d 4cf6 d4bd 7d7c 983d 4609 583d
00000050: aca8 ccbc 5a20 c8bd 9027 e33b 4d37 a13d
00000060: 7374 a73d 7bd1 cd3d f4e8 12bd ce36 683d
00000070: d834 41bd 2833 8cbd 0228 3a3d 87a6 b63d
00000080: 8037 313b 9a44 223d 52c1 0d3d a819 553c
00000090: 3c98 8f3c 0be9 89bd 0cf6 b93c 0026 93bb
000000a0: 76e3 ddbd 8610 d8bd 6709 9c3d 0016 55bc
000000b0: e0d5 fcbc 8d1a bc3d 84f9 cc3c a55f d8bd
000000c0: 9086 9abb 360e 113d fe3b 133d dca0 c9bd
000000d0: f4c3 97bc a33b cabd dc84 98bd 9c25 d2bc
000000e0: 2f92 76bd 3c3e c83c 3907 d53d b2da 8fbd
000000f0: b1c7 b13d 57ab 79bd b543 c4bd 50a0 eb3b
00000100: 5340 54bd 1475 e23c b4f5 8dbc d18a c13d
00000110: d259 203d 106b e23b f180 953d 40cc fb3a
00000120: 751a d33d 6c18 fb3c 7c7a c3bc a425 eabc
00000130: 1d34 d7bd 4ca0 91bd 9ef5 99bd f25e 0dbd
00000140: 9443 a2bc 4479 85bc d073 1e3c 2bbb ac3d
00000150: 2ebf b3bd a491 893c 0509 d4bd 04fb e23c
00000160: 079f b13d 2b59 b83d 9cdc 84bd acc9 e6bc
00000170: e228 5d3d 6003 babc 3226 b9bd dd9b a53d
00000180: 30fb c5bb 64f2 f83c 952b d43d 927b a0bd
00000190: 5b76 78bd 2b9a b53d c2be 24bd 79e9 893d
000001a0: 481c 5e3c 2efc 453d aaca 033d a8c5 a2bc
000001b0: aef3 423d 31c6 9abd 0c90 12bd 9c6d a03c
000001c0: c51d cc3d 8e41 0e3d 641c c8bd c9f6 c73d
000001d0: 88d7 48bc 08c1 c5bc ad64 d5bd f024 743c
000001e0: 80d7 76ba 69cb d6bd c049 713c a04b e83b
000001f0: 5524 cf3d d414 ea3c c205 1a3d 4338 863d
00000200: 9e63 02bd 8e8f c6bd b266 3a3d c436 a93c
00000210: 60af 88bc ade0 a8bd 9473 b93c 6120 cabd
00000220: 5718 993d 8cc6 a33c f07a 8dbc 0c22 f13c
00000230: 409d 923b 9ddd b9bd 32d7 793d 23d4 993d
00000240: b025 59bc 1d55 b93d 40c4 a2ba d706 db3d
00000250: 876d 9abd fb35 803d 119e 84bd 64a6 c53c
00000260: c6e1 56bd 6676 03bd 00f2 163b b042 dbbd
00000270: 44cc ae3c 8212 073d 800c 8cbd d1fd 8e3d
00000280: f2f1 84bd ea60 6c3d 46c5 713d 2097 afbd
00000290: f49b 86bd b8ac b5bd dcca 03bd 9454 47bd
000002a0: 3ef0 463d e88b 91bd 26a4 9bbd f4b2 b0bd
000002b0: 2464 99bc 311b 813d 4088 feba 9c8e 983c
000002c0: ce3e 78bd 0026 823a 1c9a a9bc 8c09 99bd
000002d0: 22c9 2e3d 9505 bd3d dca6 e53c 667d 97bd
000002e0: 3c67 b03c 85d9 c73d 1470 b0bc b0e1 7b3c
000002f0: 83d8 aabd e402 74bd ae9f 593d 4395 b0bd
00000300: 10a9 79bc f856 593c c959 cd3d d8ff dbbd
00000310: 4b4b ba3d cb2a 813d e265 1e3d 71c4 dabd
00000320: 0fcd 9e3d 8ac0 06bd e02d 423b 927a 363d
00000330: bfb5 983d 3ee3 6c3d 5c41 73bd 416a b83d
00000340: 548a 8abd b7ae ae3d 7412 d5bc e599 79bd
00000350: 4b2e 943d 43c0 a23d a5b0 cc3d 74df e53c
00000360: 58c5 3ebc 6036 80bb e020 5dbc 247d ce3c
00000370: 3b8c a8bd b476 cf3c 98fe 10bc ad06 8d3d
00000380: 8046 efbb 2281 383d c850 b9bc 0805 78bd
00000390: 1b68 8e3d 1254 673d 3fb6 aa3d 5ab6 ddbd
000003a0: e03b c3bb 6f32 8f3d b85a 13bc 5ae2 18bd
000003b0: a74c bb3d ed01 a93d 50b6 bf3b 27ce 95bd
000003c0: 8030 00ba 9454 25bd 0d28 c53d 72df 273d
000003d0: 0097 ceb9 8ddc 973d 1062 21bc 1f7f c3bd
000003e0: ce45 683d b3f7 d83d 9d1e d9bd 84a1 a4bc
000003f0: 5043 7a3c d16f aabd 5699 7b3d fc0c 51bd
0.02943895 0.09647783 0.0040252134 -0.043241903 -0.045499675 -0.09636684 0.0991376 -0.06677148
-0.06877178 0.01206512 -0.011350073 -0.05080949 0.022307508 -0.03429485 0.004710011 0.09633776
0.03324727 -0.1039854 0.07445619 0.05274322 -0.024982773 -0.097717956 0.0069322065 0.07871876
0.08176508 0.10049721 -0.035866693 0.05669289 -0.047169536 -0.06845695 0.04544831 0.08918481
0.0027041137 0.039616205 0.034608193 0.013006605 0.017528646 -0.067339025 0.022700332 -0.004490614
-0.108344 -0.105500266 0.07618981 -0.0130057335 -0.030863702 0.09184752 0.025021322 -0.10565118
-0.004715748 0.035413943 0.035945885 -0.098451346 -0.018526055 -0.09874656 -0.07447216 -0.0256527
-0.060198005 0.024443738 0.10401768 -0.07024135 0.08680666 -0.060954418 -0.095832266 0.0071907416
-0.051819157 0.027643718 -0.017329074 0.09450305 0.03914816 0.0069097355 0.07299984 0.0019210652
0.10307781 0.030651294 -0.023862116 -0.028582402 -0.10507987 -0.07110652 -0.07517551 -0.034514375
-0.019807614 -0.016293176 0.009671167 0.08434137 -0.08776699 0.01679308 -0.10353283 0.027707584
0.0867291 0.090013824 -0.064873904 -0.028172337 0.053994067 -0.022706687 -0.09040488 0.08086369
-0.006041907 0.030389018 0.10359875 -0.07836069 -0.060659748 0.08867296 -0.040220983 0.067339845
0.013556547 0.0483362 0.032175697 -0.01986964 0.047595672 -0.07557333 -0.035781905 0.019583516
0.099666156 0.034730487 -0.0977104 0.097638674 -0.012258418 -0.024139896 -0.10419593 0.014901385
-0.0009416267 -0.10488016 0.014727056 0.0070890933 0.10114352 0.028574385 0.037603147 0.065537
-0.031833284 -0.0969535 0.045508094 0.020655997 -0.016685188 -0.082459785 0.02263812 -0.09869457
0.074753456 0.019992135 -0.017270535 0.02943518 0.004474312 -0.090754725 0.060996242 0.07511165
-0.013253614 0.09049437 -0.0012418106 0.10694664 -0.07540422 0.06260296 -0.06475461 0.024127193
-0.052461408 -0.032095335 0.0023032427 -0.10706079 0.021337636 0.032976635 -0.06838322 0.069820054
-0.0649146 0.057709612 0.059026025 -0.08573747 -0.065727144 -0.08870834 -0.032175884 -0.048664644
0.048568957 -0.07106763 -0.07599668 -0.086278826 -0.018724509 0.063040145 -0.0019419268 0.018622689
-0.06060677 0.0009929538 -0.020703368 -0.07472524 0.042672284 0.0922958 0.028033666 -0.07396965
0.021533601 0.097582854 -0.021537818 0.015373632 -0.083420776 -0.05957307 0.053130798 -0.086222194
-0.015238062 0.013265364 0.10026891 -0.10742158 0.09096392 0.0630699 0.03867138 -0.106819995
0.077539556 -0.032898463 0.0029629394 0.044550486 0.0745654 0.057833903 -0.059388503 0.09004641
-0.06764665 0.08529418 -0.026009776 -0.06093778 0.07235392 0.07946827 0.0999463 0.028060652
-0.01164373 -0.003912732 -0.013496608 0.025206156 -0.08229872 0.025325157 -0.008849762 0.06886039
-0.0073021054 0.045045026 -0.022621527 -0.060551673 0.0695345 0.05647666 0.08335542 -0.108257964
-0.0059580654 0.06992041 -0.008993797 -0.03732524 0.0914548 0.082523204 0.0058505908 -0.07314711
-0.00048900396 -0.040363863 0.0962678 0.04098458 -0.00039403886 0.074151136 -0.00985004 -0.09545731
0.056707196 0.1059412 -0.10601542 -0.020096548 0.015274838 -0.083221085 0.06142553 -0.051037773

fc3.bias f4 [10]
00000000: 00ea 33bc 1103 873d 1858 80bd 8869 97bc
00000010: 3d26 d03d 38b8 c4bd d9ae d83d 09a5 cabd
00000020: a965 d13d a149 bc3d
-0.010981083 0.06592382 -0.062668025 -0.018482938 0.101635434 -0.096054494 0.105802245 -0.09894759
0.10224468 0.09193731
