seq2seq/agreement_1.pt (torch_old, 249412 bytes, 10 tensors)

conv1.weight f4 [6, 3, 5, 5]
-0.091730416 0.09668517 0.08553408 0.031876042 0.03597057 -0.089867115 -0.09628208 -0.051525354
0.015958562 0.067517206 -0.036612846 0.05392486 0.04106818 0.0055661425 -0.030371994 -0.10237709
-0.01151152 -0.033808127 0.060326472 0.07103035 -0.06722911 -0.037316673 0.08410761 0.097098336
0.11396851 0.0072374567 0.108953565 -0.046707675 -0.056582887 0.0040156543 -0.042211764 -0.05876342
-0.057180513 0.056635976 0.08152577 0.030050576 -0.012628213 0.056696713 -0.08346196 0.020034716
0.054540962 0.08966011 -0.104303494 0.0008987114 0.090288565 -0.09971423 0.038716048 0.09737924
-0.027089238 -0.03857308 0.026720777 -0.06253336 -0.056009997 0.073377 -0.10979645 0.11402102
-0.078620955 -0.07855027 -0.10890604 -0.042012624 -0.061032854 0.09478302 0.019500151 -0.09905105
0.001840286 0.05956228 -0.029785827 -0.0898874 0.018136933 0.10195367 -0.112888254 -0.01722905
-0.077786624 0.11390604 -0.0054164305 0.032690838 -0.06150282 -0.07866614 -0.066750705 -0.08307212
-0.017660998 0.09180492 -0.023873903 -0.06684522 0.03245689 -0.075374424 0.018235251 0.08838616
0.06210716 -0.01994691 -0.0703246 0.09371516 -0.031329088 -0.03377641 -0.046239994 -0.06783422
0.023074195 0.094395265 -0.049601927 0.10951163 -0.014651202 0.06979501 -0.03213778 -0.058528073
0.044786572 0.006446883 -0.0036717579 0.07667716 0.08851975 -0.029215299 0.0010708869 -0.002190426
-0.02711144 -0.10870037 0.09187971 0.023211852 -0.053749796 -0.038956724 -0.07730048 -0.019061834
-0.023540117 0.07384023 -0.11428705 0.0631524 0.09310073 0.002538316 -0.08096248 -0.11533502
0.06945369 -0.11064381 0.009064473 -0.081307575 -0.048984744 -0.03261608 -0.081063226 0.09147546
-0.08442423 -0.054906104 0.01865907 0.09491247 -0.08823044 -0.030635968 0.045453206 -0.06451923
0.031995237 -0.074284896 0.084671095 -0.050449267 0.07017508 -0.07084383 0.08740455 -0.09284062
-0.036940344 -0.07840652 -0.110789776 -0.06707685 -0.054801133 0.0017146915 0.014904365 -0.0045912415
0.023292929 -0.017750278 0.07933907 -0.10021356 -0.027738817 -0.0035186633 0.049883872 -0.014724143
0.04659067 0.057272077 0.07763547 0.056163326 -0.06272775 0.0075958967 -0.06490886 0.0618452
0.01805219 0.11523707 0.0708687 0.07147376 0.030190334 -0.022951685 -0.10432064 0.031504706
0.02556017 0.057567343 -0.0072468296 -0.07923448 0.045515776 0.04576412 -0.03731308 -0.008998483
-0.100898355 0.02950862 0.017135426 -0.08697623 0.044246033 0.033314496 0.03665386 -0.11382259
-0.11522238 -0.0865169 -0.064829975 0.058057785 -0.011083245 -0.07585878 0.10043953 -0.032398567
0.0095654875 0.029626846 0.022871003 0.019476786 0.083213 -0.08931362 -0.09322728 0.039400205
0.10125318 0.024727121 -0.042765215 -0.06949012 0.041882128 -0.09461959 0.053934425 0.06868625
-0.0041216537 -0.04204516 -0.108546354 0.04100944 -0.096546724 0.092325315 -0.05109653 -0.06835778
-0.072992556 0.110263035 -0.003698215 0.0998594 -0.0641152 0.08399403 0.049392 0.05999759
-0.06674732 -0.09607823 -0.11034532 0.041017935 -0.011257842 0.08264659 -0.014150992 -0.004272938
-0.04970862 -0.09773351 -0.080384746 0.05743389 0.09317927 0.06573899 -0.049977675 -0.0023493469
00000000: 28dd bbbd e002 c63d 7e2c af3d 7490 023d
00000010: e055 133d 400c b8bd 8a2f c5bd 400c 53bd
00000020: 88bb 823c 7646 8a3d 5af7 15bd 50e0 5c3d
00000030: 1c37 283d 3064 b63b b0ce f8bc 14ab d1bd
00000040: d09a 3cbc 647a 0abd e418 773d 5c78 913d
00000050: 6aaf 89bd 5ed9 18bd 9c40 ac3d 7edb c63d
00000060: 5268 e93d 3028 ed3b 0c23 df3d 8c50 3fbd
00000070: 75c3 67bd c095 833b 3ee6 2cbd e9b1 70bd
00000080: 1d36 6abd 20fb 673d fcf6 a63d a02c f63c
00000090: 90e6 4ebc d03a 683d 1bee aabd d81f a43c
000000a0: 5866 5f3d b89f b73d 129d d5bd 8097 6b3a
000000b0: 36e9 b83d f936 ccbd b894 1e3d c46e c73d
000000c0: 40ea ddbc cefe 1dbd 88e5 da3c 7e11 80bd
000000d0: bd6a 65bd ae46 963d f6dc e0bd da83 e93d
000000e0: 0604 a1bd f7de a0bd 210a dfbd 6e15 2cbd
000000f0: 96fd 79bd 9a1d c23d c8be 9f3c 47db cabd
00000100: c035 f13a 94f7 733d 6801 f4bc e316 b8bd
00000110: e893 943c 16cd d03d f531 e7bd f023 8dbc
00000120: 984e 9fbd 9247 e93d 507c b1bb d4e6 053d
00000130: 62ea 7bbd b71b a1bd 98b4 88bd b721 aabd
00000140: ccad 90bc 3804 bc3d 3493 c3bc 26e6 88bd
00000150: 84f1 043d e85d 9abd 1862 953c ce03 b53d
00000160: 1464 7e3d b467 a3bc 5806 90bd bced bf3d
00000170: ee52 00bd 2259 0abd 2666 3dbd abec 8abd
00000180: 1806 bd3c 4e52 c13d 642b 4bbd a247 e03d
00000190: 980b 70bc b0f0 8e3d e8a2 03bd 22bb 6fbd
000001a0: 2072 373d 6040 d33b e0a1 70bb ea08 9d3d
000001b0: d849 b53d ec54 efbc 005d 8c3a 408d 0fbb
000001c0: d018 debc 4d9e debd 6e2b bc3d c826 be3c
000001d0: bf28 5cbd 1691 1fbd b74f 9ebd 9027 9cbc
000001e0: 34d7 c0bc 8c39 973d 540f eabd 0c56 813d
000001f0: 98ab be3d e059 263b a8cf a5bd c434 ecbd
00000200: bc3d 8e3d 3999 e2bd 2883 143c 9684 a6bd
00000210: 3aa4 48bd 7098 05bd 7a04 a6bd 7c57 bb3d
00000220: 9ce6 acbd 39e5 60bd e8da 983c 7861 c23d
00000230: 29b2 b4bd 48f8 fabc 242d 3a3d a822 84bd
00000240: 700d 033d ae22 98bd 0a68 ad3d e4a3 4ebd
00000250: f4b7 8f3d 9216 91bd 2801 b33d 3923 bebd
00000260: c24e 17bd 9993 a0bd c0e5 e2bd 965f 89bd
00000270: 2777 60bd 80bf e03a 7031 743c 2072 96bb
00000280: d0d0 be3c 0869 91bc 867c a23d c43c cdbd
00000290: 843c e3bc 6099 66bb 0853 4c3d 883d 71bc
000002a0: dcd5 3e3d 2096 6a3d 58ff 9e3d 840b 663d
000002b0: 6877 80bd 00e7 f83b f0ee 84bd 6451 7d3d
000002c0: 30e2 933c 6a01 ec3d 9c23 913d d660 923d
000002d0: b851 f73c 2c05 bcbc 0fa6 d5bd 140b 013d
000002e0: 9063 d13c bccb 6b3d d076 edbb b045 a2bd
000002f0: c06e 3a3d 2873 3b3d 9ad5 18bd 606e 13bc
00000300: cca3 cebd 10bc f13c 985f 8c3c 9820 b2bd
00000310: 543b 353d c874 083d 5c22 163d d11b e9bd
00000320: b6f9 ebbd c62f b1bd 94c5 84bd 00ce 6d3d
00000330: 8096 35bc d95b 9bbd 3eb3 cd3d 5cb4 04bd
00000340: 90b8 1c3c 00b4 f23c f85b bb3c c88d 9f3c
00000350: 946b aa3d 0fea b6bd f2ed bebd 1c62 213d
00000360: d45d cf3d 8890 ca3c 942a 2fbd d650 8ebd
00000370: 988c 2b3d eac7 c1bd 58ea 5c3d 60ab 8c3d
00000380: f00e 87bb 8c37 2cbd 8d4d debd 84f9 273d
00000390: 4aba c5bd 0e15 bd3d 984a 51bd 2aff 8bbd
000003a0: 1f7d 95bd 96d1 e13d c05d 72bb 1683 cc3d
000003b0: d44e 83bd 1005 ac3d 444f 4a3d 08c0 753d
000003c0: d2b2 88bd aac4 c4bd bafc e1bd 6c02 283d
000003d0: d072 38bc 9e42 a93d 90d9 67bc 0004 8cbb
000003e0: 449b 4bbd 8228 c8bd c2a0 a4bd cc3f 6b3d
000003f0: c6d4 be3d 2aa2 863d 64b5 4cbd 80f7 19bb

conv1.bias f4 [6]
-0.08619508 -0.048193954 0.114872694 0.07658276 -0.08934757 0.038512543
00000000: 0c87 b0bd 0667 45bd 6042 eb3d 6cd7 9c3d
00000010: dcfb b6bd 54bf 1d3d

conv2.weight f4 [16, 6, 5, 5]
0.017439112 -0.07923549 -0.038138658 0.004012041 -0.07361544 -0.007192485 -0.017683484 0.058224693
0.025258355 -0.022199612 -0.025809001 -0.04845776 0.07975137 -0.012440287 -0.002820544 -0.075208135
0.06851666 -0.031150088 -0.055818595 0.064033 0.054069936 0.0010631979 -0.07601706 -0.010036685
0.072889745 0.022328913 -0.04745926 0.019104071 0.06724535 -0.0018779039 0.058499396 -0.058601372
0.018342637 -0.04280098 0.06419195 0.031792052 -0.033251137 -0.040840063 0.0047422945 -0.021022223
0.07800059 0.0021616966 -0.025466833 0.042546704 -0.022450149 0.04506977 0.047305107 -0.01104556
0.046672076 0.0048725083 -0.020584814 0.03765986 0.049555764 0.047493577 -0.03352745 0.040432125
0.071869165 0.041215695 0.020633742 0.00055935234 0.08020538 -0.06620569 0.03550183 0.07732247
-0.06879776 0.0013943613 0.059215352 -0.01599972 0.03079597 -0.046339083 -0.040665377 -0.025667585
-0.06293841 0.04143045 -0.062925294 -0.01740063 -0.0568659 -0.01277528 -0.07560164 0.026109412
-3.3646822e-05 -0.025252696 0.042487666 -0.08103266 0.048414826 -0.04474596 -0.05857816 0.0039797723
-0.003594473 0.0009182021 0.02892647 -0.07985617 -0.07045725 0.067319185 0.057253703 -0.07878753
0.049992695 0.028667338 0.044886574 0.0012970567 0.011918709 0.020355172 -0.015608408 -0.025505435
-0.012230791 -0.045889527 0.043844387 -0.0057903305 0.06704913 -0.004216768 0.022892945 0.002769746
0.063417256 0.04789874 0.05814889 -0.070750944 0.03299673 -0.03596697 0.04811552 0.08042945
-0.03846711 -0.042949524 0.048917428 0.06450939 0.017689683 0.049990907 0.031951554 -0.053781997
-0.070667215 0.022512913 0.01299727 0.018656395 0.074354425 -0.04060246 -0.050725237 0.035009965
0.07090205 -0.011221267 -0.06722606 -0.06293181 0.040135182 0.04877396 -0.07890232 -0.07835069
0.012515508 0.032550283 -0.06705541 0.026788592 0.016133398 -0.07152472 0.009604491 -0.07423899
-0.042422313 0.026905134 -0.043266337 -0.037523214 0.060652718 -0.07680568 -0.058215365 0.06467688
0.023145407 0.029203355 0.07781242 0.014589652 -0.061508946 0.06728387 0.047107488 -0.07707234
-0.045771256 -0.026339278 -0.052052975 0.022466049 -0.053821642 0.047471583 0.06799579 -0.06523966
-0.08136363 0.07956983 0.019315615 0.045781597 -0.01152911 -0.063715585 -0.047880553 -0.019963726
0.015304312 -0.04765131 -0.059952788 0.017240524 0.012337528 0.06437096 0.0050990134 0.010709129
0.039504625 0.03975378 -0.051672935 -0.046998315 0.05775979 0.033797227 0.072465375 0.03705197
0.007575415 0.022693262 -0.00013761967 -0.055655763 -0.01197046 -0.027483419 -0.05068523 -0.044603463
0.07263774 0.044520706 -0.038502082 0.015817054 -0.076760575 0.009644106 0.053204358 -0.055252656
0.07284205 0.00013840199 0.015123919 -0.038208667 0.049967572 0.018851034 -0.046390437 -0.014509492
-0.05682365 -0.02619388 -0.053233854 -0.040392317 0.07835382 0.008477397 0.06839408 0.041306138
0.07937451 -0.031174574 0.05986926 -0.046830144 -0.064902484 -0.036579434 0.07400626 -0.0055232197
-0.042081695 -0.033740863 0.03286472 0.073656246 -0.01006376 0.08007172 0.05933836 -0.071448825
0.05757141 -0.053956218 -0.04508776 -0.013084821 -0.042070024 -0.032673452 -0.019596435 -0.053028032
00000000: 78dc 8e3c 3746 a2bd 4837 1cbd 7077 833b
00000010: b1c3 96bd f0ae ebbb f4dc 90bc 047d 6e3d
00000020: 9cea ce3c f6db b5bc 666d d3bc a57b 46bd
00000030: b054 a33d 58d2 4bbc e0d8 38bb b906 9abd
00000040: 7652 8c3d 782e ffbc 0aa2 64bd bc23 833d
00000050: 7078 5d3d 005b 8b3a d5ae 9bbd e870 24bc
00000060: 3847 953d 20eb b63c a464 42bd 2480 9c3c
00000070: eeb7 893d 0024 f6ba 109d 6f3d fe07 70bd
00000080: 4c43 963c 1550 2fbd 1277 833d 6238 023d
00000090: 5832 08bd e947 27bd 4065 9b3b cc36 acbc
000000a0: c6be 9f3d 40ab 0d3b d29f d0bc 7445 2e3d
000000b0: 60e9 b7bc 149b 383d 00c3 413d 70f8 34bc
000000c0: 382b 3f3d 90a9 9f3b 7ca1 a8bc 3a41 1a3d
000000d0: fcfa 4a3d a088 423d 1454 09bd 289c 253d
000000e0: 2430 933d cad1 283d 1808 a93c 80a1 123a
000000f0: b842 a43d d996 87bd 5e6a 113d 3e5b 9e3d
00000100: d7e5 8cbd 00c3 b63a cc8b 723d d811 83bc
00000110: d447 fc3c 0dce 3dbd bd90 26bd d444 d2bc
00000120: dae5 80bd fab2 293d fade 80bd c48b 8ebc
00000130: 38ec 68bd 684f 51bc 08d5 9abd 68e3 d53c
00000140: 0020 0db8 bede cebc 8c07 2e3d 74f4 a5bd
00000150: a04e 463d 8a47 37bd a7ef 6fbd c068 823b
00000160: 4091 6bbb 80b3 703a 34f7 ec3c a28b a3bd
00000170: e44b 90bd a4de 893d dc82 6a3d 5b5b a1bd
00000180: 24c5 4c3d c4d7 ea3c fcda 373d 0002 aa3a
00000190: b046 433c e4bf a63c 68ba 7fbc c6f0 d0bc
000001a0: a863 48bc a8f6 3bbd 2c96 333d d0bc bdbb
000001b0: 0e51 893d d02c 8abb fc89 bb3c a084 353b
000001c0: e8e0 813d 7831 443d 882d 6e3d dfe5 90bd
000001d0: 9427 073d 1a52 13bd c814 453d 32b8 a43d
000001e0: b08f 1dbd d7eb 2fbd a45d 483d 801d 843d
000001f0: f4e9 903c 44c3 4c3d a2df 023d 834a 5cbd
00000200: f9b9 90bd 006d b83c 80f2 543c 4cd5 983c
00000210: 2247 983d c44e 26bd 44c5 4fbd 9c66 0f3d
00000220: 1835 913d 68d9 37bc d1ad 89bd 65e2 80bd
00000230: ca64 243d 34c7 473d 8a97 a1bd 5476 a0bd
00000240: d80d 4d3c 7253 053d 5954 89bd c073 db3c
00000250: 302a 843c 8d7b 92bd 285c 1d3c 9d0a 98bd
00000260: 05c3 2dbd 2868 dc3c 0b38 31bd f1b1 19bd
00000270: fc6e 783d 4c4c 9dbd 3c73 6ebd 5075 843d
00000280: 709b bd3c e03b ef3c 1e5c 9f3d 7009 6f3c
00000290: cef0 7bbd 20cc 893d c8f3 403d 1ad8 9dbd
000002a0: a47a 3bbd 78c5 d7bc 8035 55bd b80a b83c
000002b0: 1574 5cbd 9071 423d 6041 8b3d 5f9c 85bd
000002c0: faa1 a6bd 82f5 a23d c83b 9e3c 7c85 3b3d
000002d0: 98e4 3cbc 517d 82bd 661e 44bd f88a a3bc
000002e0: f0be 7a3c 052e 43bd 0e91 75bd 003c 8d3c
000002f0: 5823 4a3c ecd4 833d a015 a73b 5875 2f3c
00000300: 9acf 213d dcd4 223d 00a7 53bd 4e81 40bd
00000310: 8895 6c3d f66e 0a3d ba68 943d cec3 173d
00000320: 303b f83b 38e7 b93c 004e 10b9 4cf7 63bd
00000330: c01f 44bc e824 e1bc 519b 4fbd 1fb2 36bd
00000340: 18c3 943d 585b 363d 5cb4 1dbd c492 813c
00000350: a634 9dbd 5002 1e3c d0ec 593d 9c50 62bd
00000360: 362e 953d 0020 1139 50ca 773c b180 1cbd
00000370: ccaa 4c3d 7c6d 9a3c e603 3ebd 38b9 6dbc
00000380: eabf 68bd 8c94 d6bc be0b 5abd 6a72 25bd
00000390: f877 a03d c8e4 0a3c 3212 8c3d a030 293d
000003a0: 1a8f a23d d261 ffbc 7839 753d f7d0 3fbd
000003b0: 98eb 84bd 51d4 15bd 9890 973d 20fc b4bb
000003c0: db5d 2cbd dc33 0abd 289d 063d 16d9 963d
000003d0: 78e2 24bc a4fc a33d c80c 733d c353 92bd
000003e0: 00d0 6b3d 3201 5dbd f1ad 38bd b861 56bc
000003f0: 9e51 2cbd 99d4 05bd b488 a0bc ec33 59bd

conv2.bias f4 [16]
-0.070595734 0.07996002 -0.044227432 -0.020448644 0.045355275 0.06512874 -0.058785297 0.030350387
-0.00056792796 0.0010319278 -0.071334966 -0.030101236 0.06017448 0.008571155 -0.051973112 -0.015043192
00000000: 7f94 90bd 14c2 a33d d327 35bd ea83 a7bc
00000010: 74c6 393d 3862 853d dac8 70bd 60a1 f83c
00000020: 00e1 14ba c041 873a 1118 92bd de96 f6bc
00000030: 8479 763d 086e 0c3c c2e1 54bd b877 76bc

fc1.weight f4 [120, 400]
-0.04547576 0.04353779 0.0062733293 -0.012093861 0.029312734 -0.045191076 0.04802018 -0.029847914
0.018926952 -0.004401058 0.049052376 0.04016869 -0.031608164 0.031010006 -0.04499951 -0.044021457
0.02488127 0.048737932 0.041987438 -0.003936004 0.04633947 -0.047329742 -0.006892614 0.0450651
0.01671527 -0.03167876 0.028703604 0.033244256 -0.028250521 0.0065007806 -0.018725146 0.04122958
0.0042030625 0.028232586 0.03533278 -0.032812886 0.017106455 -0.031314254 0.0006599128 0.01488981
0.026114922 -0.029132856 0.01682489 0.02714469 0.0011558942 -0.028477699 -0.011669446 0.04376853
0.021502387 -0.029532706 -0.028772354 -0.029229779 -0.04805624 -0.031078173 -0.010480188 0.041479323
0.0487714 -0.0014500506 -0.03731793 -0.03632354 0.020363 0.01693188 -0.006970715 -0.016381465
0.026604187 0.02944358 0.008571237 -0.044036783 -0.017348874 -0.0074047633 0.035254147 -0.0038776696
-0.014439791 0.03828815 0.00081657246 -0.04944266 -0.0201734 0.019578192 -0.0073165186 0.025721665
0.046296712 0.038052347 -0.018368877 0.03832337 0.026529927 0.032187734 -0.045101907 -0.03280832
-0.041092724 0.032899145 0.040517766 -0.019993115 -0.042235125 -0.020757783 -0.00094578415 0.029049303
0.006164171 -0.020391865 -0.034255702 -0.03451209 0.024169888 -0.020800173 -0.022791117 0.036409896
-0.017098397 -0.034947164 -0.0063824244 0.0034714825 0.03958657 0.006189607 0.018295038 0.032584634
-0.049260993 -0.019150585 0.011951309 -0.003233362 -0.041138608 0.039998997 0.0248974 -0.0325041
-0.0067343004 -0.0132850595 -0.007843494 0.026285972 0.047118004 0.030245136 -0.049305327 0.034019012
0.016579095 -0.0029988363 0.039149586 -0.033556476 0.033845585 -0.0109676495 0.010536194 0.013812248
-0.047965076 0.011931531 -0.0065803155 -0.011872254 -0.016317505 -0.025802804 -0.0026282482 -0.033204615
0.043025497 0.007753156 0.042904977 -0.04125585 -0.0008634217 0.004140191 0.03338131 0.037779223
0.007773459 0.019261476 -0.018501244 0.032662068 -0.011434246 -0.03090297 -0.049466055 0.012821395
0.04822426 -0.016548276 0.031661097 0.031713042 -0.006393183 -0.028121604 0.010909211 -0.033448625
-0.0141743235 -0.0010591336 0.020592991 -0.033182904 0.015439536 0.03610528 0.020875584 0.010662764
0.036938403 0.027846005 -0.024468457 0.032224778 -0.010917284 -0.04783363 0.038684186 0.008998018
-0.0069909915 -0.0103255585 0.04386286 -0.03186302 -0.023014588 -0.011645872 0.0028191097 0.021819446
-0.029073417 0.01736198 0.0030371472 -0.028301125 -0.02446192 0.0030058995 0.028907914 0.0029606633
0.010265332 0.0020832121 -0.024414022 0.0029217973 0.022010427 0.037949625 -0.0003710501 -0.042112418
0.04161972 0.036068473 0.046187814 -0.0400558 -0.04934917 -0.041918498 0.015019398 0.04857223
-0.0370228 0.028808955 -0.01449563 -0.007448267 0.044051345 0.019795995 0.03711803 0.01994865
0.009456497 -0.02523855 0.0013783872 -0.038099438 0.03976996 0.028375093 -0.005866088 -0.013549887
-0.036321662 -0.028662879 -0.0128675625 -0.019227713 -0.023503447 -0.014378138 -0.00405439 -0.04310149
-0.036738507 0.02578358 0.013358992 0.018459123 -0.005418755 -0.03271343 -0.0308088 0.014304314
-0.046683546 -0.0041012876 -0.031678945 -0.028177489 -0.006786488 -0.01658716 0.022500698 0.001610823
00000000: ca44 3abd af54 323d 8090 cd3b 5425 46bc
00000010: 4221 f03c 471a 39bd cfb0 443d 9d83 f4bc
00000020: b20c 9b3c c036 90bb 25eb 483d ed87 243d
00000030: 9077 01bd b208 fe3c 6851 38bd d84f 34bd
00000040: ced3 cb3c 6da1 473d 05fb 2b3d 98f9 80bb
00000050: 75ce 3d3d d5dc 41bd 70db e1bb 2f96 383d
00000060: 76ee 883c 96c1 01bd d223 eb3c 212b 083d
00000070: a36d e7bc 8004 d53b 7a65 99bc 59e0 283d
00000080: d8b9 893b 0648 e73c 1bb9 103d ce66 06bd
00000090: d622 8c3c 6043 00bd 00fe 2c3a 64f4 733c
000000a0: f6ee d53c 07a8 eebc 5ad4 893c 8a5e de3c
000000b0: 6081 973a 104a e9bc 3431 3fbc a146 333d
000000c0: c625 b03c 93ee f1bc 00b4 ebbc 4a73 efbc
000000d0: 9fd6 44bd a797 febc 18b5 2bbc 39e6 293d
000000e0: 85c4 473d a00f beba b0da 18bd fec7 14bd
000000f0: 4ed0 a63c bab4 8a3c 986a e4bb 6c32 86bc
00000100: 06f1 d93c aa33 f13c 606e 0c3c ea5f 34bd
00000110: 3a1f 8ebc a8a3 f2bb a766 103d 8020 7ebb
00000120: e094 6cbc 09d4 1c3d 400f 563a 6384 4abd
00000130: b042 a5bc 7262 a03c 68bf efbb 3eb6 d23c
00000140: 9fa1 3d3d c7dc 1b3d 547a 96bc f7f8 1c3d
00000150: 4a55 d93c 49d7 033d c7bc 38bd 0462 06bd
00000160: d850 28bd 41c1 063d f5f5 253d 9ac8 a3bc
00000170: bdfe 2cbd 3a0c aabc 80ee 77ba cef8 ed3c
00000180: d0fc c93b d70c a7bc b54f 0cbd 8d5c 0dbd
00000190: eeff c53c 2065 aabc 70b4 babc 8b22 153d
000001a0: f011 8cbc c224 0fbd a823 d1bb d081 633b
000001b0: 8725 223d 30d2 ca3b 7adf 953c 7777 053d
000001c0: e5c5 49bd b0e1 9cbc 6ccf 433c d0e6 53bb
000001d0: f580 28bd fdd5 233d a2f5 cb3c 0523 05bd
000001e0: 68ab dcbb 94a9 59bc 0082 00bc ae55 d73c
000001f0: cffe 403d a6c4 f73c 62f4 49bd 8557 0b3d
00000200: e2d0 873c 2088 44bb 515b 203d 8472 09bd
00000210: aba1 0a3d a8b1 33bc 00a0 2c3c c44c 623c
00000220: 0777 44bd 787c 433c b09f d7bb d883 42bc
00000230: 4aac 85bc 6760 d3bc b03e 2cbb 9001 08bd
00000240: 813b 303d 300e fe3b 21bd 2f3d e5fb 28bd
00000250: 4057 62ba 70aa 873b d7ba 083d 63be 1a3d
00000260: 80b8 fe3b 3eca 9d3c ec8f 97bc a9c8 053d
00000270: b456 3bbc 3a28 fdbc eb9c 4abd d410 523c
00000280: cd86 453d 4090 87bc 11af 013d 89e5 013d
00000290: e87d d1bb 475f e6bc 8cbc 323c 6d01 09bd
000002a0: 6c3b 68bc a0d2 8aba a2b2 a83c ccea 07bd
000002b0: 1cf6 7c3c 21e3 133d 4603 ab3c e0b2 2e3c
000002c0: b94c 173d 4e1d e43c 1372 c8bc 21fe 033d
000002d0: 68de 32bc 32ed 43bd 4f73 1e3d 6c6c 133c
000002e0: b014 e5bb 882c 29bc 8ba9 333d cc82 02bd
000002f0: 1789 bcbc 54ce 3ebc d0c0 383b b2be b23c
00000300: 602b eebc b63a 8e3c e00a 473b c3d7 e7bc
00000310: 5d64 c8bc a0fe 443b 4ad0 ec3c b007 423b
00000320: ec2f 283c 8086 083b eaff c7bc a07b 3f3b
00000330: 364f b43c 1171 1b3d 8089 c2b9 127e 2cbd
00000340: 7179 2a3d 89bc 133d 6f2f 3d3d 8d11 24bd
00000350: 5b22 4abd bbb2 2bbd ec13 763c adf3 463d
00000360: 38a5 17bd c200 ec3c 147f 6dbc 9810 f4bb
00000370: 2f6f 343d 362b a23c 1309 183d 5a6b a33c
00000380: 6cef 1a3c 13c1 cebc 00ab b43a 280e 1cbd
00000390: d3e5 223d e272 e83c 5038 c0bb 5800 5ebc
000003a0: 06c6 14bd 6ace eabc 78d2 52bc 7083 9dbc
000003b0: 4d8a c0bc 4892 6bbc b0da 84bb 308b 30bd
000003c0: 1e7b 16bd 1638 d33c acdf 5a3c 9637 973c
000003d0: d08f b1bb 84fe 05bd bd62 fcbc a45c 6a3c
000003e0: 3f37 3fbd 1864 86bb c8c1 01bd 7ad4 e6bc
000003f0: 3061 debb cce1 87bc 6253 b83c 4022 d33a

fc1.bias f4 [120]
-0.020898784 -0.007993739 0.007777296 0.022136513 -0.023521645 -0.04075753 -0.027848436 0.049484003
0.020852443 0.017321203 0.0013186932 -0.04020558 0.0033573583 0.03155159 -0.0067448504 0.031936448
0.013358641 -0.010887183 0.023477767 -0.039076537 -0.020712435 0.0045720413 -0.017716508 0.032080743
-0.0063761584 -0.049515624 0.005931087 -0.016823154 0.036199067 -0.020921677 0.016725693 0.019405838
-0.023027617 0.028109107 -0.024087591 0.0064018182 -0.0027166419 0.02189866 -0.014937192 -0.028091807
0.0054670162 0.018146936 0.030067053 0.023499612 -0.017178833 -0.025766497 0.015348289 -0.031835288
0.021684688 0.027640466 -0.010224812 0.032236 0.03672236 0.001975067 -0.026751732 0.043340538
-0.024643833 -0.0045613535 -0.02290308 0.015556995 -0.046623826 -0.027844751 -0.0026776604 -0.010319848
-0.027170187 0.025969844 0.03014819 -0.03318824 -0.01576357 -0.0016564801 -0.03199715 -0.047002133
-0.008350484 -0.009865843 0.046675872 0.016651075 -0.023820205 -0.006495483 -0.031208498 0.042832818
-0.049818337 -0.04181854 0.012559418 0.038702358 -0.038117517 0.002382744 0.038005557 -0.03287042
0.031902466 -0.0017243214 0.042788986 0.02292085 -0.0088863 -0.001510568 -0.025801063 0.032970842
-0.036027808 0.0012512691 0.015022758 0.0010942295 0.04622748 0.04976468 0.023910675 0.041946437
0.037999775 0.026256535 0.009916615 0.041833255 0.027154181 -0.0017451756 -0.011787318 0.022002447
0.040512245 0.049258728 -0.010748617 -0.014108546 -0.016716026 -0.0005784221 0.0047483556 -0.02504862
00000000: ed33 abbc 2cf8 02bc b0d8 fe3b a257 b53c
00000010: 77b0 c0bc 5ef1 26bd 6722 e4bc bdaf 4a3d
00000020: bed2 aa3c 32e5 8d3c 00d8 ac3a 9bae 24bd
00000030: 2007 5c3b 3d3c 013d e803 ddbb cbcf 023d
00000040: 34de 5a3c 2860 32bc 7254 c03c b80e 20bd
00000050: 20ad a9bc 10d1 953b 3622 91bc 1967 033d
00000060: 18ef d0bb e5d0 4abd 9059 c23b b6d0 89bc
00000070: 7945 143d f063 abbc 5204 893c fef8 9e3c
00000080: 6aa4 bcbc 1245 e63c 5753 c5bc 58c6 d13b
00000090: b009 32bb d264 b33c 20bb 74bc ca20 e6bc
000000a0: a824 b33b e2a8 943c 2e4f f63c 4282 c03c
000000b0: a0ba 8cbc 4314 d3bc 6477 7b3c b865 02bd
000000c0: 16a4 b13c 426e e23c f885 27bc e509 043d
000000d0: 2f6a 163d 2070 013b 7326 dbbc d985 313d
000000e0: dde1 c9bc 6877 95bb 3d9f bbbc c4e2 7e3c
000000f0: a0f8 3ebd ad1a e4bc b07b 2fbb 9414 29bc
00000100: 0394 debc b6be d43c 56f9 f63c 64f0 07bd
00000110: 9a22 81bc 401e d9ba 720f 03bd 4f85 40bd
00000120: 78d0 08bc 58a4 21bc 332f 3f3d d667 883c
00000130: 9722 c3bc 10d8 d4bb f7a8 ffbc 7771 2f3d
00000140: 500e 4cbd eb49 2bbd 04c6 4d3c 5d86 1e3d
00000150: 1d21 1cbd d027 1c3b b7ab 1b3d 22a3 06bd
00000160: 29ac 023d a002 e2ba 8143 2f3d 82c4 bb3c
00000170: d897 11bc 40fe c5ba c05c d3bc 6f0c 073d
00000180: e591 13bd a001 a43a 0422 763c 406c 8f3a
00000190: 0759 3d3d 0dd6 4b3d 52e0 c33c 07d0 2b3d
000001a0: a7a5 1b3d f217 d73c 4c79 223c 5959 2b3d
000001b0: 7272 de3c 60be e4ba 981f 41bc 7a3e b43c
000001c0: 2bf0 253d 85c3 493d f81a 30bc 8827 67bc
000001d0: 0cf0 88bc 40a1 17ba 1898 9b3b c332 cdbc

fc2.weight f4 [84, 120]
0.034066558 -0.011266753 0.077328846 -0.0485681 -0.06333204 -0.055851594 0.021091111 0.07343075
-0.0152959 -0.07790286 -0.022739038 -0.018337257 -0.087597795 0.057192296 -0.04369773 -0.04741077
-0.048277687 0.05511096 0.08675614 -0.043152247 0.026487388 -0.028640807 0.07091358 -0.058205113
0.0115894005 -0.0577813 0.04371512 -0.060633067 0.038226545 -0.021121614 -0.07474474 -0.0008589998
-0.01740691 -0.060508974 0.056839094 -0.05542751 0.057109937 -0.07964979 0.046099678 -0.014990911
0.076823086 -0.057622768 0.08540566 -0.08758893 -0.0087960735 -0.012507275 -0.052880418 -0.032610353
-0.037696257 0.05087997 -0.065342575 0.008349061 -0.028867971 -0.0053861886 -0.0012609065 0.025873713
-0.07877258 -0.042009402 -0.04057612 0.04427749 0.047705904 0.05924654 -0.01582694 0.057302237
-0.02922381 -0.018276654 0.0145917535 -0.03077523 0.016370222 -0.07576488 -0.01606308 -0.0007442832
-0.017145343 -0.015886903 -0.01057227 0.09036282 0.016347967 -0.075364456 0.015222661 0.038517058
0.027229704 -0.072639614 0.037445843 -0.002489403 0.058375463 0.0066697747 -0.008223742 -0.046695925
0.012408026 -0.043820743 -0.028402552 -0.047186814 0.05386588 -0.017727815 -0.07995205 -0.010666281
-0.008515574 -0.04138564 -0.019255415 -0.048716806 0.0735711 -0.0188118 -0.044997685 0.08260162
0.0240357 0.017351277 0.061813235 0.025877602 0.060842767 0.035168827 -0.0478797 0.08011362
0.034458876 -0.043180257 0.035060152 0.065429986 0.0684751 -0.024548769 -0.02046208 0.08287686
-0.005797386 -0.08542089 0.016984984 -0.029031716 0.05492051 0.029053219 0.07413183 -0.005802937
-0.06684831 -0.08775115 0.00067638606 -0.028421797 0.085179225 -0.035644416 0.07523377 -0.05844388
0.090826005 0.007952526 0.08609161 -0.06795801 -0.05576102 -0.009927928 -0.08836986 -0.05676515
-0.08866567 0.06946099 -0.019315168 0.015286975 0.0011140034 0.021160789 0.081328645 0.012402132
-0.03570554 -0.071986765 -0.074683204 0.0279821 -0.06600389 0.04398215 0.059114784 -0.027997464
0.050213516 -0.04746542 0.010717079 -0.007860266 0.05545321 0.027598828 0.052093014 -0.010429196
0.02414044 -0.027994953 -0.046701442 0.04992552 -0.067118354 0.06381677 0.031262726 -0.03841074
-0.023437895 0.06867458 -0.028732225 -0.08509956 0.05861725 0.08015405 -0.025184825 0.04680817
-0.025614522 -0.06785981 0.07277563 -0.07010696 -0.06579091 0.049389645 -0.0017400756 0.079759
-0.065344445 -0.061867714 -0.053963847 -0.017663151 -0.07703097 -0.07583615 -0.038026676 0.0270373
0.053569987 0.034948185 -0.07777607 0.05004868 -0.06728145 0.030486427 0.011363745 -0.08656073
-0.04141243 0.08340794 -0.05338788 0.042811155 -0.021813124 0.05311212 -0.07183084 0.025094956
0.053983122 0.04887283 0.077709615 0.037175328 0.040132567 -0.05296102 0.091131926 0.013616972
-0.013435736 0.036003396 -0.017272286 0.056223333 0.017229646 -0.06713184 0.038023904 -0.027951553
-0.04532768 -0.08432981 0.09030545 0.07854597 -0.053053513 -0.033233516 -0.022123925 0.01114212
0.070044726 0.069773704 0.050334454 -0.08360549 0.05593416 -0.04329685 0.024083324 -0.08176355
-0.04058673 0.032466784 0.08878426 0.026364498 -0.054445006 0.044931382 0.04309933 0.06968318
00000000: 6089 0b3d 3098 38bc 965e 9e3d 58ef 46bd
00000010: 3bb4 81bd a4c4 64bd 44c7 ac3c dc62 963d
00000020: a89b 7abc 898b 9fbd 3847 babc 0438 96bc
00000030: 7966 b3bd 7842 6a3d 64fc 32bd cc31 42bd
00000040: d3be 45bd 08bc 613d 34ad b13d 69c0 30bd
00000050: 14fc d83c 20a0 eabc 243b 913d 7c68 6ebd
00000060: 78e1 3d3c 16ac 6cbd a00e 333d 615a 78bd
00000070: 7093 1c3d 3c07 adbc c513 99bd 802e 61ba
00000080: f098 8ebc 42d8 77bd 1cd0 683d f507 63bd
00000090: 1cec 693d 6e1f a3bd 04d3 3c3d 709c 75bc
000000a0: 6c55 9d3d da05 6cbd 2ae9 ae3d d361 b3bd
000000b0: 681d 10bc 50eb 4cbc 2399 58bd 6f92 05bd
000000c0: 6467 1abd 8467 503d 54d2 85bd 80ca 083c
000000d0: 867c ecbc a07e b0bb 0045 a5ba 1cf5 d33c
000000e0: 8553 a1bd 0d12 2cbd 2533 26bd 505c 353d
000000f0: 4467 433d 80ac 723d 80a7 81bc c0b5 6a3d
00000100: c666 efbc ecb8 95bc 4012 6f3c 561c fcbc
00000110: d81a 863c 9e2a 9bbd b896 83bc 001c 43ba
00000120: 6474 8cbc 4025 82bc 5037 2dbc 2410 b93d
00000130: 2cec 853c ae58 9abd 7868 793c 10c4 1d3d
00000140: d410 df3c 14c4 94bd d060 193d 4025 23bb
00000150: 1c1b 6f3d 208e da3b e0bc 06bc 3a44 3fbd
00000160: 084b 4b3c 617d 33bd 78ac e8bc f646 41bd
00000170: 78a2 5c3d ec39 91bc e6bd a3bd a0c1 2ebc
00000180: e884 0bbc fd83 29bd 88bd 9dbc 468b 47bd
00000190: 72ac 963d 341b 9abc 7e4f 38bd 0a2b a93d
000001a0: 84e6 c43c 4424 8e3c e02f 7d3d 44fd d33c
000001b0: 4436 793d 300d 103d 811d 44bd 9c12 a43d
000001c0: c024 0d3d c8dd 30bd 3c9b 0f3d 2800 863d
000001d0: ac3c 8c3d 801a c9bc 18a0 a7bc 58bb a93d
000001e0: 00f8 bdbb 26f1 aebd 1824 8b3c ecd3 edbc
000001f0: 54f4 603d 0401 ee3c 6ed2 973d 9026 bebb
00000200: c4e7 88bd e0b6 b3bd 804f 313a d4d4 e8bc
00000210: 7272 ae3d e1ff 11bd 2a14 9a3d da62 6fbd
00000220: fc02 ba3d 504b 023c cc50 b03d 922d 8bbd
00000230: ab65 64bd c0a8 22bc 42fb b4bd 9382 68bd
00000240: 5996 b5bd 9041 8e3d d83a 9ebc 3876 7a3c
00000250: c003 923a 6459 ad3c a28f a63d 5032 4b3c
00000260: f93f 12bd cc6d 93bd 82f3 98bd b83a e53c
00000270: 0c2d 87bd a026 343d 5822 723d f05a e5bc
00000280: b0ac 4d3d 1a6b 42bd b096 2f3c 58c8 00bc
00000290: e822 633d f016 e23c 7c5f 553d 38df 2abc
000002a0: 2cc2 c53c ac55 e5bc 034a 3fbd b47e 4c3d
000002b0: 5975 89bd 5eb2 823d 580d 003d 9554 1dbd
000002c0: d400 c0bc 42a5 8c3d d85f ebbc ae48 aebd
000002d0: a418 703d ce27 a43d 6850 cebc ecb9 3f3d
000002e0: 8cd5 d1bc 16fa 8abd 640b 953d 3d94 8fbd
000002f0: 62bd 86bd cc4c 4a3d 4013 e4ba b058 a33d
00000300: 4fd3 85bd 0069 7dbd 3209 5dbd 50b2 90bc
00000310: 6ac2 9dbd fc4f 9bbd dcc1 1bbd 547d dd3c
00000320: 346c 5b3d d425 0f3d 0f49 9fbd d8ff 4c3d
00000330: dbca 89bd acbe f93c 002f 3a3c c146 b1bd
00000340: 15a0 29bd c8d1 aa3d 40ad 5abd c05a 2f3d
00000350: 70b1 b2bc 188c 593d 0c1c 93bd f093 cd3c
00000360: 681d 5d3d e02e 483d 3826 9f3d 2845 183d
00000370: 0c62 243d a8ed 58bd 60a3 ba3d b819 5f3c
00000380: 9021 5cbc 4c78 133d 9c7e 8dbc 704a 663d
00000390: 3025 8d3c 6b7c 89bd f4be 1b3d a8fa e4bc
000003a0: 84a9 39bd 1cb5 acbd 10f2 b83d b6dc a03d
000003b0: a44e 59bd de1f 08bd 3c3d b5bc 708d 363c
000003c0: 9c73 8f3d 84e5 8e3d 802b 4e3d 5b39 abbd
000003d0: 381b 653d 0a58 31bd 644a c53c a673 a7bd
000003e0: 453e 26bd e4fb 043d 86d4 b53d 5cfa d73c
000003f0: ba01 5fbd f809 383d ec88 303d 0eb6 8e3d

fc2.bias f4 [84]
0.060347855 -0.010138489 -0.027465075 0.018836923 -0.044857334 0.016115941 0.060936674 0.03138806
0.036407575 0.029035822 0.018997602 0.023682907 -0.009127811 -0.010029599 -0.08403331 -0.08319484
0.006013006 0.004538998 0.06022878 0.015068166 -0.044803858 0.051250696 -0.011487387 -0.080229305
-0.048633 0.07281916 0.04289651 0.07560535 -0.028586626 -0.058505867 -0.07714117 -0.07455741
-0.047706094 -0.0061610937 -0.029888771 0.0014464706 0.019680962 -0.063998505 0.07456568 0.086030155
-0.005527593 -0.0035701245 -0.08817348 0.028577909 -0.08384367 -0.07930189 -0.05854932 -0.009049818
-0.037059233 -0.087292686 0.044374377 0.077466965 0.011748739 0.008770697 0.09092887 0.06942557
0.048643738 0.029866964 -0.063772365 0.04382457 0.026988454 -0.00016460568 0.043363005 -0.0027713403
0.06281948 0.06211129 0.044692278 -0.07207164 0.05290048 0.08440918 -0.07747693 -0.050847873
0.028456375 -0.060913764 0.08473046 -0.021805368 -0.026186422 -0.047010828 -0.018556334 -0.0885227
-0.01709918 -0.050273735 -0.032511998 0.060939714
00000000: 502f 773d e81b 26bc 70fe e0bc e44f 9a3c
00000010: 53bc 37bd 9405 843c bc98 793d c490 003d
00000020: 1c20 153d 88dc ed3c dca0 9b3c a802 c23c
00000030: d08c 15bc 3053 24bc a819 acbd 0e62 aabd
00000040: c008 c53b e0bb 943b 74b2 763d 78e0 763c
00000050: 4084 37bd 40ec 513d 9835 3cbc 434f a4bd
00000060: 6633 47bd 3622 953d 40b4 2f3d fad6 9a3d
00000070: 802e eabc d9a3 6fbd 31fc 9dbd 8eb1 98bd
00000080: 7767 43bd 00e3 c9bb 4cd9 f4bc 8097 bd3a
00000090: f839 a13c a611 83bd e4b5 983d 9430 b03d
000000a0: d020 b5bb c0f8 69bb 4c94 b4bd 381c ea3c
000000b0: 3bb6 abbd 0869 a2bd 69d1 6fbd b045 14bc
000000c0: 6ccb 17bd 82c6 b2bd e8c1 353d 00a7 9e3d
000000d0: c87d 403c f8b2 0f3c ea38 ba3d fe2e 8e3d
000000e0: a83e 473d 90ab f43c 169b 82bd 6481 333d
000000f0: e416 dd3c 009a 2cb9 689d 313d 609f 35bb
00000100: 80a7 803d 6868 7e3d 400f 373d 4c9a 93bd
00000110: 2cae 583d b8de ac3d 3aac 9ebd dc45 50bd
00000120: 581d e93c b680 79bd 2a87 ad3d 2ca1 b2bc
00000130: e884 d6bc 6d8e 40bd 7403 98bc 644b b5bd
00000140: 9413 8cbc d5eb 4dbd 4d2b 05bd ec9b 793d

fc3.weight f4 [10, 84]
-0.103972144 0.038477264 0.10507365 -0.08686571 -0.10804451 0.0013944954 0.025421016 -0.013196103
0.015298523 -0.08857004 -0.050655007 -0.092660666 -0.04748637 0.02651862 0.08235889 -0.053122282
0.082030736 -0.10118042 -0.0985789 -0.097196355 0.028769292 0.044938304 -0.08699282 0.010250203
0.084526606 -0.02981978 0.05990953 -0.09054101 -0.061559144 -0.0967977 -0.10678108 -0.04372777
-0.00025884807 -0.048139833 0.018223338 0.025008447 -0.02784124 -0.10513571 -0.0035513267 -0.022086889
-0.021107718 0.10640202 -0.018492118 0.075722136 0.084134065 0.015144184 0.07554034 0.097945385
-0.091673926 -0.089302376 -0.03872841 -0.09660027 -0.02661363 0.08831542 -0.0041965917 0.030049942
-0.036680616 0.018322699 0.049939133 0.10596698 -0.022596933 -0.10540354 0.10743355 0.06037823
-0.055487894 0.106076606 -0.005394779 -0.082824364 -0.08084534 0.0895303 0.055611156 -0.044054657
0.004438795 -0.09888498 0.018430166 -0.03195305 -0.06120282 -0.025625661 0.06587195 0.10120102
-0.008986317 -0.0669079 -0.104331456 0.07327574 -0.06618315 0.02356609 -0.039039716 -0.06431608
-0.015593238 -0.105545096 0.04675115 -0.09493223 0.0100926235 -0.083488986 -0.092141256 0.093512006
0.066348515 0.007848486 0.025143184 0.049765 -0.083067745 0.015412554 -0.044962697 0.025816895
-0.029848918 0.10651135 -0.011206321 0.05213537 -0.042249195 0.10563826 0.045368977 -0.01853785
0.00033210218 0.01036568 -0.081578635 0.07544627 -0.029435948 -0.051082075 -0.04592324 0.102597855
-0.014975846 -0.019873753 -0.011201479 -0.054843392 -0.09692467 0.09750847 -0.04711509 -0.10127708
0.03127227 0.040776946 0.086486734 0.054637365 -0.1065262 0.08419662 -0.0007975772 0.10341913
0.075063325 0.10346178 0.08144427 0.09405703 0.076036595 -0.1064681 -0.020566769 -0.0035819188
0.03692522 -0.026132457 -0.06622982 -0.022528805 -0.09200377 -0.013998203 0.026109897 -0.052552376
0.0899343 0.0541408 -0.019435696 0.068545856 0.0796672 -0.004448518 -0.0044492856 -0.085925534
-0.10026449 -0.04885311 -0.05332121 0.013769373 0.09905725 -0.06040518 0.08190603 -0.06370264
0.00038380176 0.0894774 0.016013004 0.0073435903 -0.104907244 -0.079855785 -0.03813371 -0.0072515532
-0.0024296865 0.08547724 0.07347902 -0.09720223 -0.018762246 0.0238752 -0.10323901 0.0027260184
-0.09724542 -0.10519086 0.062653564 -0.040962495 -0.04737152 0.04868848 -0.095224954 0.047601677
-0.058236554 -0.042813987 -0.07682896 0.069779776 0.041282974 -0.017714143 -0.101533316 0.104579754
-0.00085909665 -0.10126616 -0.023082085 -0.06334224 0.0043915883 -0.058486246 0.039497323 -0.0035923868
-0.027694754 0.058648266 -0.09266549 -0.039726004 0.08554954 -0.019184574 0.08638557 0.06482612
0.06336006 0.103676595 -0.04310067 0.052855246 0.02170185 0.09295683 -0.028110698 -0.033942483
0.05094657 -0.056647513 -0.08875257 0.020972557 -0.036179587 -0.05351929 -0.03837906 0.0047896877
-0.065724 0.076840706 0.042912327 -0.057098277 -0.034946986 -0.053962287 0.070479624 -0.0798666
0.04611332 -0.010796502 -0.037275784 0.10256306 -0.009349078 0.076462395 0.04743453 -0.042839415
-0.02446764 0.082633875 0.03498528 -0.042760804 -0.08039727 -0.005722016 0.10223425 -0.024162523
00000000: 59ef d4bd 569a 1d3d db30 d73d a6e6 b1bd
00000010: 7146 ddbd 80c7 b63a bc3f d03c 7834 58bc
00000020: a8a6 7a3c 3664 b5bd a07b 4fbd e0c4 bdbd
00000030: 1181 42bd 943d d93c c7ab a83d c096 59bd
00000040: bbff a73d ae37 cfbd bce3 c9bd e20e c7bd
00000050: 94ad eb3c 3a11 383d 4b29 b2bd 78f0 273c
00000060: 491c ad3d 9c48 f4bc b263 753d 916d b9bd
00000070: 7125 7cbd df3d c6bd 0ab0 dabd e41b 33bd
00000080: 00b6 87b9 462e 45bd 1c49 953c 84de cc3c
00000090: 5013 e4bc 6451 d7bd 60bd 68bb 90ef b4bc
000000a0: 18ea acbc 4de9 d93d c87c 97bc 3514 9b3d
000000b0: 7b4e ac3d 501f 783c e5b4 9a3d 9797 c83d
000000c0: 8abf bbbd 2ae4 b6bd aea1 1ebd 5dd6 c5bd
000000d0: d404 dabc b7de b43d 9083 89bb 4c2b f63c
000000e0: 6a3e 16bd 7c19 963c fa8c 4c3d 3705 d93d
000000f0: 341d b9bc d0dd d7bd 1f06 dc3d 2a4f 773d
00000100: 4647 63bd b13e d93d b0c6 b0bb d29f a9bd
00000110: 3e92 a5bd a95b b73d 86c8 633d a872 34bd
00000120: 5073 913b 3584 cabd dcfa 963c 34e1 02bd
00000130: cfaf 7abd e8ec d1bc dfe7 863d 7b42 cf3d
00000140: 583b 13bc 0207 89bd bbab d5bd 9711 963d
00000150: 088b 87bd ac0d c13c 1ce8 1fbd 26b8 83bd
00000160: c87a 7fbc 0728 d8bd 227e 3f3d d46b c2bd
00000170: 885b 253c 46fc aabd 8eb4 bcbd 3983 bf3d
00000180: bbe1 873d f096 003c 14f9 cd3c 62d6 4b3d
00000190: 6c1f aabd f084 7c3c ce2a 38bd f47d d33c
000001a0: b885 f4bc 9f22 da3d b89a 37bc e68b 553d
000001b0: 7e0d 2dbd df58 d83d d2d4 393d b0dc 97bc
000001c0: 001e ae39 d0d4 293c b312 a7bd 9383 9a3d
000001d0: a823 f1bc 703b 51bd 021a 3cbd d31e d23d
000001e0: 405d 75bc 48ce a2bc 6886 37bc 77a3 60bd
000001f0: 7180 c6bd 85b2 c73d c1fb 40bd 5c6a cfbd
00000200: 5a17 003d ba05 273d f51f b13d 6ecb 5f3d
00000210: 692a dabd 476f ac3d 8014 51ba 69cd d33d
00000220: cdba 993d c5e3 d33d 41cc a63d f9a0 c03d
00000230: 13b9 9b3d f20b dabd a47b a8bc a0be 6abb
00000240: e63e 173d bc13 d6bc 80a3 87bd 548e b8bc
00000250: 796c bcbd b858 65bc 6ce4 d53c 2941 57bd
00000260: 792f b83d bec2 5d3d 9c37 9fbc c561 8c3d
00000270: 8f28 a33d e0c4 91bb 50cb 91bb baf9 afbd
00000280: 7857 cdbd 331a 48bd 5767 5abd f098 613c
00000290: 87de ca3d 6c6b 77bd 59be a73d 8876 82bd
000002a0: 0039 c939 ed3f b73d b42d 833c 80a2 f03b
000002b0: 9cd9 d6bd 6e8b a3bd 1832 1cbd 709e edbb
000002c0: 603b 1fbb b10e af3d 2b7c 963d f611 c7bd
000002d0: 48b3 99bc ec95 c33c f96e d3bd 00a7 323b
000002e0: 9b28 c7bd 4e6e d7bd 8350 803d 4ac8 27bd
000002f0: a408 42bd 926d 473d 4d05 c3bd faf9 423d
00000300: 7489 6ebd b85d 2fbd 8058 9dbd b3e8 8e3d
00000310: 5618 293d 401d 91bc b3f0 cfbd e92d d63d
00000320: 0035 61ba a264 cfbd a416 bdbc 94b9 81bd
00000330: 50e7 8f3b 468f 6fbd f2c7 213d 406e 6bbb
00000340: 1ce0 e2bc 2a39 703d 68c7 bdbd bcb7 22bd
00000350: 9934 af3d f828 9dbc ebea b03d 8fc3 843d
00000360: ebc2 813d 6554 d43d 548a 30bd be7e 583d
00000370: 14c8 b13c 2760 be3d 6848 e6bc 4607 0bbd
00000380: 5aad 503d 3907 68bd e8c3 b5bd a4ce ab3c
00000390: 0c31 14bd 0b37 5bbd 5c33 1dbd d0f2 9c3b
000003a0: 4e9a 86bd a95e 9d3d d6c4 2f3d e2df 69bd
000003b0: 9224 0fbd 8f07 5dbd 9f57 903d 1a91 a3bd
000003c0: 52e1 3c3d d0e3 30bc 7eae 18bd 950c d23d
000003d0: e02c 19bc 5198 9c3d b64a 423d 6278 2fbd
000003e0: 5c70 c8bc f33b a93d ba4c 0f3d f425 2fbd
000003f0: 53a7 a4bd c07f bbbb 3160 d13d 7cf0 c5bc

fc3.bias f4 [10]
-0.01348038 -0.039229117 -0.0066772625 -0.0036652386 -0.09219904 0.038506664 0.036532424 -0.09562753
-0.029215224 0.084893085
00000000: d0dc 5cbc b6ae 20bd f0cc dabb 8034 70bb
00000010: dad2 bcbd 2ab9 1d3d 06a3 153d 5ed8 c3bd
00000020: c454 efbc 6ddc ad3d
