seq2seq/agreement.pt (torch_old, 261409 bytes, 10 tensors)

weight f4 [6, 3, 5, 5]
-0.026460633 -0.072066605 -0.029421307 -0.11147153 -0.046660356 0.054089203 0.09941657 0.0017981604
0.023118287 -0.0983887 -0.039966084 0.056247205 -0.11228083 -0.11479867 -0.107318 0.012220219
0.057319522 -0.10992187 -0.10652165 0.030681878 -0.09306757 0.01037626 -0.048422314 -0.055561792
-0.023422852 -0.0062489137 -0.10170199 0.080215365 0.10432464 -0.10581227 0.105905145 0.04808736
-0.03373594 -0.03780342 -0.057526954 0.10043737 -0.023587577 0.07230121 0.041390926 -0.07271955
0.061402813 0.11019577 -0.04697048 0.034613103 0.094876006 0.10564157 0.038184777 0.11534046
-0.021902397 0.042147055 0.04663615 0.04786007 0.076462805 0.08309783 -0.09000899 -0.067563534
0.079714805 0.11114626 -0.10433149 -0.08230137 0.10347472 -0.046006978 -0.08598253 -0.062277026
-0.012785643 0.103833094 -0.036888935 -0.012425356 0.0978882 -0.053330235 0.02499786 0.01684618
-0.077527896 0.0075164735 0.091027364 0.01905714 0.10259302 0.09584637 0.06694065 -0.08280516
0.014211282 -0.09436186 -0.05455786 -0.06442949 -0.05367633 0.006787613 -0.05959607 0.10722786
0.06463967 0.04240264 0.05540885 -0.020904109 0.07776171 0.050872132 0.083871886 0.09371051
-0.087291606 0.0610359 0.11412564 -0.11066364 -0.0617735 -0.0319229 -0.09634929 -0.101580486
-0.026618503 0.09852889 0.0070947707 -0.10254297 -0.102116786 0.018525302 0.0022490397 0.042730063
0.045298487 0.033361018 0.014750436 0.00543537 -0.10937013 -0.09426294 0.06418273 0.08142735
-0.0919366 -0.053970795 -0.04188128 -0.058772944 0.0005763322 0.036171928 -0.098645136 0.1136038
0.089133516 -0.059736542 0.11275768 0.08690788 -0.07618163 -0.06392516 -0.07830317 -0.090726934
-0.040023908 0.077246845 0.08192672 0.05402589 0.007530652 0.042571068 0.07921596 -0.015174404
-0.07463773 -0.04820247 -0.031100884 0.10542725 0.07669887 -0.011318743 0.011091933 -0.08993296
0.073761 0.09829906 0.016569957 -0.074997514 0.03345047 -0.0891577 -0.042563297 -0.0587454
0.11340721 0.07602309 0.08954309 -0.050768055 0.029021397 0.031997904 0.014100954 0.0790831
0.038372368 0.0833503 -0.008552603 0.07596092 -0.012390517 0.08308743 -0.07028313 0.09773989
-0.10746457 -0.035784453 -0.006723553 -0.062129177 -0.088953026 -0.00837265 -0.01033359 0.022996232
0.054141104 -0.010972731 0.07466118 0.0151418 -0.007341936 0.003367044 0.030556515 0.0847408
-0.023983628 0.032184064 0.040161148 0.05142802 0.052265286 0.11404069 0.06653164 0.0823815
0.0114117265 0.06294288 -0.07544471 -0.0052346513 -0.11435976 0.0208126 -0.113536865 0.06314568
0.09819737 0.06833783 -0.02527479 0.09975679 -0.055637885 0.031531006 -0.09925477 0.031850323
0.06741308 0.07451409 -0.08119108 -0.056324806 0.088070035 -0.09284844 0.06365305 -0.030372903
0.007874861 -0.049035303 -0.100122415 -0.11281084 0.07387145 0.01650919 -0.08094591 -0.008391224
0.083862394 -0.014228478 0.08315393 0.016556844 -0.067727014 -0.06550388 -0.098418355 -0.025927342
0.099448115 -0.025942996 0.06233783 -0.022146657 -0.10418527 0.06868537 -0.095829494 -0.06553604
-0.008596599 0.11300807 0.018726692 0.06427765 -0.04934664 -0.024831943 0.07385847 -0.080894716
00000000: f8c3 d8bc a897 93bd f404 f1bc 2f4b e4bd
00000010: ee1e 3fbd a48c 5d3d ea9a cb3d 40b0 eb3a
00000020: 9062 bd3c 0480 c9bd 7ab3 23bd 7863 663d
00000030: 7ef3 e5bd 911b ebbd 8ac9 dbbd 5037 483c
00000040: e0c7 6a3d b81e e1bd 0628 dabd 9058 fb3c
00000050: 369a bebd 3001 2a3c 7a56 46bd c394 63bd
00000060: 48e1 bfbc b0c3 ccbb 2249 d0bd f447 a43d
00000070: 28a8 d53d 1ab4 d8bd cce4 d83d 40f7 443d
00000080: b22e 0abd c2d7 1abd 62a1 6bbd 1cb2 cd3d
00000090: bc3a c1bc a812 943d 8889 293d fded 94bd
000000a0: 8481 7b3d 52ae e13d 1e64 40bd 78c6 0d3d
000000b0: 5a4e c23d 9c5a d83d a467 1c3d 9e37 ec3d
000000c0: a86c b3bc 64a2 2c3d 8c05 3f3d ec08 443d
000000d0: 8898 9c3d 322f aa3d a256 b8bd c05e 8abd
000000e0: 8441 a33d a6a0 e33d c0ab d5bd 9f8d a8bd
000000f0: 8eea d33d d071 3cbd 9c17 b0bd 3216 7fbd
00000100: e07a 51bc 72a6 d43d da18 17bd b893 4bbc
00000110: 9c79 c83d ce70 5abd 50c8 cc3c 0001 8a3c
00000120: f2c6 9ebd c04c f63b 8e6c ba3d b81d 9c3c
00000130: 4a1c d23d 1a4b c43d 2e18 893d c095 a9bd
00000140: 70d6 683c ca40 c1bd 1078 5fbd 9cf3 83bd
00000150: b6db 5bbd a06a de3b 021b 74bd 489a db3d
00000160: ce61 843d 64ae 2d3d 64f4 623d 183f abbc
00000170: 8841 9f3d 4c5f 503d 06c5 ab3d 4ceb bf3d
00000180: f1c5 b2bd c800 7a3d b4ba e93d 9ea3 e2bd
00000190: 3606 7dbd 96c1 02bd c752 c5bd 6e09 d0bd
000001a0: 0c0f dabc 84c9 c93d 407b e83b 0c02 d2bd
000001b0: 9b22 d1bd 60c2 973c a064 133b b805 2f3d
000001c0: e88a 393d 90a5 083d d0ab 713c 301b b23b
000001d0: 72fd dfbd ee0c c1bd 3c72 833d 62c3 a63d
000001e0: 4249 bcbd 7b10 5dbd b48b 2bbd e6bb 70bd
000001f0: 0015 173a 0429 143d 7606 cabd 1ca9 e83d
00000200: a28b b63d 4eae 74bd 80ed e63d c2fc b13d
00000210: 1d05 9cbd 32eb 82bd 6a5d a0bd 0bcf b9bd
00000220: 1cf0 23bd 9833 9e3d 32c9 a73d 404a 5d3d
00000230: b0c3 f63b 005f 2e3d fa3b a23d 109e 78bc
00000240: abdb 98bd f46f 45bd 48c7 febc 3eea d73d
00000250: 4c14 9d3d 4072 39bc f0ba 353c c62e b8bd
00000260: 0210 973d 0451 c93d b8bd 873c 4c98 99bd
00000270: 5c03 093d 5098 b6bd da56 2ebd 049f 70bd
00000280: 0a42 e83d feb1 9b3d 5e62 b73d 2af2 4fbd
00000290: 48be ed3c 3c10 033d b007 673c 52f6 a13d
000002a0: 582c 1d3d 90b3 aa3d 3820 0cbc 6691 9b3d
000002b0: 9801 4bbc be29 aa3d 9af0 8fbd da2b c83d
000002c0: 6216 dcbd b892 12bd 4051 dcbb 2a7b 7ebd
000002d0: 012d b6bd 702d 09bc 384e 29bc 9862 bc3c
000002e0: 10c3 5d3d f8c6 33bc f6e7 983d 5015 783c
000002f0: a094 f0bb a0a9 5c3b a851 fa3c 968c ad3d
00000300: 5079 c4bc 70d3 033d 0480 243d 30a6 523d
00000310: 2014 563d 2a8e e93d be41 883d a2b7 a83d
00000320: 40f8 3a3c 32e8 803d c282 9abd 7087 abbb
00000330: 7335 eabd 307f aa3c 0486 e8bd 8652 813d
00000340: b41b c93d b4f4 8b3d 140d cfbc 4a4d cc3d
00000350: 8de4 63bd a826 013d 1646 cbbd 7c75 023d
00000360: de0f 8a3d d89a 983d 8247 a6bd d7b4 66bd
00000370: 105e b43d 5327 bebd 885c 823d 98d0 f8bc
00000380: 9005 013c 3ed9 48bd fb0c cdbd 5f09 e7bd
00000390: ea49 973d 483e 873c f8c6 a5bd 587b 09bc
000003a0: 0cc0 ab3d 901e 69bc 9c4c aa3d 38a2 873c
000003b0: 76b4 8abd e626 86bd 908f c9bd 9465 d4bc
000003c0: 74ab cb3d 6886 d4bc f455 7f3d e86c b5bc
000003d0: 165f d5bd eaaa 8c3d 4142 c4bd c237 86bd
000003e0: c0d8 0cbc c670 e73d b868 993c 00a4 833d
000003f0: b41f 4abd 5c6c cbbc 1c43 973d 21ac a5bd

bias f4 [6]
0.05094987 -0.07388775 -0.111818984 0.05209364 -0.053492513 0.06975949
00000000: d0b0 503d 7652 97bd 5a01 e5bd 2460 553d
00000010: f71a 5bbd 10de 8e3d

weight f4 [16, 6, 5, 5]
0.0027672127 -0.049445994 0.056207925 0.033035554 -0.0002732873 -0.03910968 -0.043942876 -0.061061665
-0.004738942 0.034464166 -0.025718402 0.056593776 0.042258017 -0.02926854 -0.06748131 0.047035113
0.0630922 -0.055518854 0.069951996 0.07669115 -0.041580755 -0.012055293 0.06171292 0.05333036
0.0298163 0.024419151 -0.008857332 0.029175445 -0.0656286 -0.032953978 -0.07405532 0.058763936
-0.05404147 -0.016474962 0.0458588 0.021307409 0.01680693 -0.06503327 0.031509265 0.0659115
-0.08149472 0.07050191 0.05445169 -0.01568038 -0.004995659 0.008681804 0.044044286 -0.0047535673
0.046650827 -0.025616698 -0.04804526 0.0002901405 -0.04437607 -0.006322004 -0.024786703 -0.058381766
0.034253158 -0.005931385 -0.0431421 -0.027874708 0.07066463 0.05147189 0.015651666 -0.040628947
0.06559147 0.042023808 0.05762294 -0.048138067 0.044351682 -0.07537966 0.05260648 -0.011549309
-0.04259557 0.07257925 -0.05056191 0.033635974 -0.0070833415 -0.04514674 0.013723277 0.028640881
-0.014491074 0.023793869 0.040171877 0.016031452 0.032318115 -0.041107256 0.065161705 -0.01410345
-0.025962107 0.01685375 -0.076814115 0.056775093 -0.028333504 -0.024483457 0.07681002 0.020705856
0.06163366 -0.008512557 -0.055855047 -0.079355314 0.036443576 -0.012304112 -0.010450661 -0.042638347
0.03779941 0.05601938 0.021795541 -0.05456607 -0.0613477 0.066986665 0.042725205 0.061683223
-0.027622957 0.08018516 0.021193586 0.08094041 -0.03730491 -0.054055944 0.0076922104 -0.008109264
-0.05392693 0.063840225 -0.035175934 -0.059825182 0.05428922 0.08156593 0.03209702 -0.056359567
0.03138543 -0.0744222 -0.045526188 0.035652287 0.021718085 0.01148203 0.042515494 -0.07410765
0.07183482 0.054911673 0.06403345 -0.06295044 -0.016553804 -0.06409455 0.054045707 -0.08011116
0.059073314 -0.0564583 0.0304688 0.057893917 0.06884475 0.07502754 -0.02323331 -0.070972845
-0.04166526 -0.043042693 0.044262946 -0.065385565 -0.0022722036 0.0023367777 0.0039285347 0.027242377
0.016233645 -0.0067443177 -0.027124956 -0.074172504 0.045399547 0.010372423 0.039253026 0.0042898133
-0.07848564 -0.0527889 -0.076720856 0.04158777 -0.045008585 0.06882456 0.05217722 0.0068599507
0.06263837 -0.045490008 -0.07015152 0.026705086 0.027966522 0.017177276 -0.0033676326 -0.07898409
-0.058313005 -0.050756924 0.040722437 -0.01571887 -0.029855017 0.018599354 0.06472297 0.025544815
0.021467663 0.06453809 -0.02521826 0.0046549365 -0.058839187 -0.05730395 -0.006050974 0.00040839612
-0.025518198 0.075385496 -0.013069704 0.017485835 0.06880787 -0.01399646 -0.025598302 -0.001345709
-0.05659572 0.0011309609 0.07824184 0.029375516 0.07060483 0.028516442 0.053814963 -0.012469359
0.03184724 0.045311794 -0.022774566 -0.010511935 -0.038724568 -0.06435281 0.032147087 -0.0038353577
0.05887258 -0.057395726 -0.03216744 -0.079213604 -0.019348234 0.028143652 0.029656738 -0.07551513
0.017143257 -0.0753347 -0.06790512 0.016937532 -0.05147209 0.06542076 -0.06413717 -0.023471449
-0.015656792 0.054048315 0.0070269555 -0.06408164 -0.046765026 -0.018039912 -0.071774065 0.04307808
0.07031134 -0.039352752 0.032736763 -0.00796926 0.0030192137 -0.04213189 0.012877487 0.040882304
00000000: 205a 353b e287 4abd 483a 663d 4a50 073d
00000010: 0048 8fb9 7931 20bd 72fd 33bd cc1b 7abd
00000020: 2049 9bbb 4c2a 0d3d 66af d2bc e0ce 673d
00000030: be16 2d3d 94c4 efbc a433 8abd e4a7 403d
00000040: 7c36 813d bd67 63bd fe42 8f3d 4010 9d3d
00000050: 9550 2abd 9083 45bc b0c6 7c3d f070 5a3d
00000060: 5041 f43c ac0a c83c 581e 11bc 5801 ef3c
00000070: 4a68 86bd c0fa 06bd 51aa 97bd 74b2 703d
00000080: 975a 5dbd 80f6 86bc 70d6 3b3d e08c ae3c
00000090: b0ae 893c 2a30 85bd dc0f 013d 9cfc 863d
000000a0: b4e6 a6bd 4e63 903d bc08 5f3d 2474 80bc
000000b0: a0b2 a3bb 203e 0e3c c867 343d d0c3 9bbb
000000c0: f014 3f3d 1cda d1bc 1bcb 44bd 001e 9839
000000d0: afc3 35bd d028 cfbb 7c0d cbbc b821 6fbd
000000e0: 0a4d 0c3d 105c c2bb c5b5 30bd 8059 e4bc
000000f0: 9eb8 903d 30d4 523d ec37 803c 8a6a 26bd
00000100: d254 863d 2821 2c3d 0806 6c3d 6c2c 45bd
00000110: 1caa 353d a760 9abd e479 573d 5039 3dbc
00000120: b178 2ebd 6ea4 943d 011a 4fbd e0c5 093d
00000130: 601b e8bb caeb 38bd 98d7 603c 48a0 ea3c
00000140: f86b 6dbc 5ceb c23c 448b 243d 6454 833c
00000150: 0060 043d 1560 28bd 8073 853d 2812 67bc
00000160: 7cae d4bc e010 8a3c b850 9dbd 008d 683d
00000170: aa1b e8bc 8891 c8bc 924e 9d3d 549f a93c
00000180: 9473 7c3d 4078 0bbc 43c8 64bd 0a85 a2bd
00000190: dc45 153d 3097 49bc 4039 2bbc 8ca5 2ebd
000001a0: 8ed3 1a3d 9474 653d 908c b23c ac80 5fbd
000001b0: ba47 7bbd 4e30 893d a000 2f3d 8ca7 7c3d
000001c0: 8a49 e2bc 1e38 a43d 2c9e ad3c 16c4 a53d
000001d0: 09cd 18bd c469 5dbd f00e fc3b b8dc 04bc
000001e0: 7ce2 5cbd aabe 823d a414 10bd 400b 75bd
000001f0: 605e 5e3d 0a0c a73d 2a78 033d 4ad9 66bd
00000200: 028e 003d ab6a 98bd ab79 3abd 2208 123d
00000210: 20ea b13c 201f 3c3c ba24 2e3d c0c5 97bd
00000220: 221e 933d 10eb 603d f823 833d 29ec 80bd
00000230: d89b 87bc 0144 83bd 085f 5d3d 5211 a4bd
00000240: dcf6 713d d240 67bd b499 f93c 2c22 6d3d
00000250: 7afe 8c3d 0aa8 993d c853 bebc 365a 91bd
00000260: 31a9 2abd 894d 30bd 104d 353d dee8 85bd
00000270: 40e9 14bb a024 193b f0ba 803b 682b df3c
00000280: 6cfc 843c 70ff dcbb 2835 debc c1e7 97bd
00000290: e0f4 393d 18f1 293c c8c7 203d 9091 8c3b
000002a0: 14bd a0bd 2c39 58bd d31f 9dbd f057 2a3d
000002b0: ec5a 38bd e4f3 8c3d c8b7 553d 70c9 e03b
000002c0: 8c48 803d bb53 3abd 9aab 8fbd a0c4 da3c
000002d0: 0c1a e53c 5cb7 8c3c 80b3 5cbb 69c2 a1bd
000002e0: 9ed9 6ebd 7ee6 4fbd 92cc 263d dcc4 80bc
000002f0: 8292 f4bc ac5d 983c 7a8d 843d 5c43 d13c
00000300: f4dc af3c 8c2c 843d 8696 cebc 7088 983b
00000310: 5c01 71bd 8cb7 6abd 4047 c6bb 001e d639
00000320: 8a0b d1bc b663 9a3d 5022 56bc 743e 8f3c
00000330: 24eb 8c3d 6851 65bc 88b3 d1bc 8062 b0ba
00000340: ead0 67bd c03c 943a 423d a03d eca4 f03c
00000350: 4499 903d 509b e93c 146d 5c3d 484c 4cbc
00000360: 4072 023d dc98 393d ba91 babc 403a 2cbc
00000370: a79d 1ebd 68cb 83bd aaac 033d a05a 7bbb
00000380: 6024 713d c817 6bbd 01c2 03bd be3a a2bd
00000390: 3080 9ebc 848d e63c b0f2 f23c ada7 9abd
000003a0: 0470 8c3c 1449 9abd d711 8bbd 94c0 8a3c
000003b0: 66d4 52bd 52fb 853d 595a 83bd 3247 c0bc
000003c0: ac42 80bc c461 5d3d 6042 e63b 3c3d 83bd
000003d0: af8c 3fbd 70c8 93bc 48fe 92bd a472 303d
000003e0: 64ff 8f3d 5a30 21bd fc16 063d 8091 02bc
000003f0: 00de 453b 7d92 2cbd 18fc 523c 3474 273d

bias f4 [16]
-0.08076003 0.06624681 0.05518216 0.06071365 -0.004406385 -0.009415917 0.06913598 -0.010357462
-0.06887421 0.031032898 -0.016396463 0.03243904 -0.051405348 -0.024719365 -0.074172035 0.05629684
00000000: 8465 a5bd 68ac 873d b006 623d e0ae 783d
00000010: 7063 90bb 3845 1abc 2a97 8d3d 58b2 29bc
00000020: ec0d 8dbd b438 fe3c e051 86bc ccde 043d
00000030: 6a8e 52bd 4480 cabc 82e7 97bd 8497 663d

weight f4 [120, 400]
-0.0003722906 0.026282508 0.02365816 0.03675731 -0.048487525 0.048938457 -0.002568394 0.038438324
0.0064079463 0.0022847578 0.0156178735 0.033393893 0.022289816 0.021804314 -0.042358 0.04713105
0.019392755 0.04076908 0.0031812862 0.006779749 0.037097793 0.0118306205 -0.008593004 0.016283806
0.0210245 -0.036859155 0.046668943 -0.003354501 0.0027858801 -0.017765142 0.02923746 0.035968963
-0.03211762 0.042023476 -0.027441187 0.020511646 -0.03748833 -0.005688686 0.04253794 0.03858525
-0.047659177 0.047692645 -0.0113018975 -0.021735806 0.010471713 0.039087433 -0.030138547 0.006801583
0.018593859 0.04030216 0.02099431 -0.02212255 0.010839701 -0.014240652 -0.042176016 0.049296375
-0.04191658 -0.00747459 0.024391625 -0.009189308 -0.0127305575 0.02320278 -0.012124695 0.042768743
-0.01063028 -0.014285881 -0.005934082 0.010219224 -0.011210561 0.031263117 -0.047458686 0.034885865
-0.018378735 0.03101499 -0.0023158602 0.032906625 -0.018624019 -0.036492992 -0.040818177 0.0056674965
-0.023448259 0.005794406 0.00019196793 0.022854563 -0.009452451 0.029283632 -0.034724385 -0.0065411516
0.019442577 -0.0329395 -0.0047042444 -0.018874168 0.01639017 -0.010941666 0.025490459 -0.021149457
-0.0008441694 -0.029507434 0.04150709 0.0018339939 0.0027482212 0.037953746 0.042976353 -0.025800718
-0.03197127 -0.018649697 0.026946459 -0.029065996 -0.021100951 0.034633372 0.037463468 0.013283495
-0.03258153 -0.045886762 0.025971893 -0.046814717 -0.015408974 -0.018707145 0.032823037 0.048285317
0.047812197 0.00042756274 0.020416025 0.04293156 0.022774976 0.031647 -0.045782436 0.020640705
0.027151894 -0.046880167 0.04828408 -0.031131936 0.0109701045 0.03321374 0.029816452 0.0002794154
-0.0365402 -0.04335761 0.010774769 -0.027057027 0.010418594 0.015213463 0.04823873 0.009904873
-0.03338904 -0.021127606 0.0074383207 0.0074289516 0.0243753 0.03491691 0.015761394 -0.030222828
-0.028606165 0.016705755 -0.0032723919 -0.030155439 0.012072485 0.004337091 0.0077540986 0.00068577006
-0.007524878 0.037455563 0.0016902275 0.046316896 -0.020555174 0.045157526 0.045378346 0.0015562475
-0.038946114 0.01363099 -0.00664898 0.0040770248 -0.02105165 -0.046782363 -0.04565547 0.028066855
0.019559558 0.041771088 -0.03550548 0.00039839 0.008169837 0.018701937 -0.03127858 0.023447696
-0.047210466 -0.0042081103 -0.007387191 0.0331327 -0.034536444 -0.010051917 -0.008992039 0.005931653
-0.005435098 0.009637445 -0.046566714 -0.03834095 0.004211314 0.040634755 0.030130375 -0.016460441
-0.043022163 -0.013208192 0.045957897 0.01286548 0.018262971 0.042076606 0.0045767836 -0.02774756
-0.049794197 0.0013228133 0.01545338 -0.015996147 0.0024163648 -0.03833594 -0.018337548 -0.03421755
-0.013113033 -0.047317978 0.007083822 0.042847883 -0.025418997 -0.03848061 0.032511633 0.022977386
0.01977494 0.020262208 0.036826085 -0.015239768 -0.04401933 -0.0038447492 0.025683705 -0.03322868
0.013913434 -0.028352588 -0.02498654 -0.0032845922 -0.02218014 0.0051134042 0.010935176 0.0061523616
0.0058067627 0.00392846 0.04138362 0.008673739 0.016624663 0.048015837 0.0009753704 0.0131860785
0.028349642 -0.032871246 0.008638095 0.011651956 -0.020851273 0.021383125 0.008978762 -0.005206473
00000000: 0030 c3b9 6a4e d73c c2ce c13c d58e 163d
00000010: db9a 46bd b173 483d 8052 28bb 8171 1d3d
00000020: c0f9 d13b e0bb 153b 1ce2 7f3c 09c8 083d
00000030: 2299 b63c f69e b23c 957f 2dbd 7d0c 413d
00000040: 8edd 9e3c 7bfd 263d 207d 503b a828 de3b
00000050: dbf3 173d 38d5 413c acc9 0cbc 9e65 853c
00000060: 923b ac3c a0f9 16bd ef27 3f3d 30d7 5bbb
00000070: 5093 363b 3488 91bc 6683 ef3c 3154 133d
00000080: c48d 03bd cf20 2c3d 57cc e0bc 0a08 a83c
00000090: 5d8d 19bd 2868 babb 433c 2e3d 910b 1e3d
000000a0: 4536 43bd 5d59 433d 982b 39bc 4a0f b2bc
000000b0: 8c91 2b3c 251a 203d 1de5 f6bc d0df de3b
000000c0: 2652 983c e113 253d 42fc ab3c 5a3a b5bc
000000d0: 0099 313c a051 69bc c2c0 2cbd ffea 493d
000000e0: b8b0 2bbd 68ed f4bb f2d0 c73c c08e 16bc
000000f0: d493 50bc c213 be3c a8a6 46bc 472e 2f3d
00000100: a02a 2ebc 540f 6abc b072 c2bb 886e 273c
00000110: 80ac 37bc c10d 003d 0a64 42bd 7be4 0e3d
00000120: 008f 96bc 2613 fe3c b0c5 17bb 19c9 063d
00000130: 6691 98bc ad79 15bd f630 27bd 68b6 b93b
00000140: 9016 c0bc 00df bd3b 004b 4939 7e39 bb3c
00000150: 74de 1abc 3ae4 ef3c 283b 0ebd 2857 d6bb
00000160: 0a46 9f3c 92eb 06bd 1026 9abb 009e 9abc
00000170: ae44 863c ac44 33bc 5ed1 d03c a041 adbc
00000180: 404b 5dba 93b9 f1bc 5703 2a3d a062 f03a
00000190: 801b 343b 6375 1b3d f907 303d 075c d3bc
000001a0: 4ef4 02bd 40c7 98bc d2be dc3c d01b eebc
000001b0: e7db acbc b9db 0d3d 4b73 193d 04a3 593c
000001c0: 3674 05bd c2f3 3bbd 02c3 d43c cac0 3fbd
000001d0: ec75 7cbc ba3f 99bc 7371 063d d3c6 453d
000001e0: b9d6 433d 802a e039 823f a73c 01d9 2f3d
000001f0: 9692 ba3c 49a0 013d 5d86 3bbd b216 a93c
00000200: a66d de3c 6b05 40bd 87c5 453d 6708 ffbc
00000210: f4bb 333c 210b 083d a241 f43c 807e 9239
00000220: 2dab 15bd c097 31bd a888 303c b3a6 ddbc
00000230: c0b2 2a3c e441 793c f995 453d 0c48 223c
00000240: f2c2 08bd cd13 adbc 28bd f33b 906e f33b
00000250: b6ae c73c 0905 0f3d 0a1e 813c dd95 f7bc
00000260: 7a57 eabc 82da 883c a075 56bb 8a08 f7bc
00000270: accb 453c 281e 8e3b 1816 fe3b 40c5 333a
00000280: 4093 f6bb 016b 193d a08a dd3a c9b6 3d3d
00000290: 5363 a8bc 19f7 383d a5de 393d 00fb cb3a
000002a0: f685 1fbd 8454 5f3c b0df d9bb 9098 853b
000002b0: 8374 acbc dd9e 3fbd 3b01 3bbd 76ec e53c
000002c0: 5e3b a03c 2918 2b3d 326e 11bd 00df d039
000002d0: c8da 053c ce34 993c f81d 00bd 6215 c03c
000002e0: c35f 41bd 30e4 89bb 4010 f2bb 27b6 073d
000002f0: 1676 0dbd ccb0 24bc 5853 13bc 505e c23b
00000300: e818 b2bb 60e6 1d3c bdbc 3ebd 660b 1dbd
00000310: 10ff 893b a170 263d fad3 f63c 0cd8 86bc
00000320: 0238 30bd 2c67 58bc 593e 3c3d bcc9 523c
00000330: 3a9c 953c 8558 2c3d d8f8 953b da4e e3bc
00000340: 00f5 4bbd 4062 ad3a 2c30 7d3c 5a0a 83bc
00000350: e05b 1e3b 2606 1dbd a038 96bc b427 0cbd
00000360: 0cd8 56bc 7fd0 41bd 681f e83b 4381 2f3d
00000370: 803b d0bc d89d 1dbd eb2a 053d 123b bc3c
00000380: 0eff a13c eefc a53c f3d6 163d 38b0 79bc
00000390: 9d4d 34bd 30f8 7bbb a266 d23c cc1a 08bd
000003a0: 2cf5 633c b043 e8bc 93b0 ccbc 5042 57bb
000003b0: 20b3 b5bc 588e a73b 7429 333c c099 c93b
000003c0: a846 be3b 50ba 803b df81 293d 4c1c 0e3c
000003d0: 7230 883c 41ac 443d 00b0 7f3a 6c0a 583c
000003e0: 823d e83c 00a4 06bd cc86 0d3c d8e7 3e3c
000003f0: 4ad0 aabc aa2b af3c a81b 133c 109b aabb

bias f4 [120]
-0.024600137 -0.016023047 -0.0026503205 -0.017606586 0.013621781 0.034899283 0.008018006 0.011317402
0.0027636401 -0.03061058 -0.01217436 0.04721183 -0.024836307 0.02172393 0.007403154 -0.044372827
-0.042920437 0.0118478015 0.021792885 -0.046295382 -0.042078495 -0.036395006 0.0031647086 -0.016455501
-0.03134267 0.027016457 0.0034888089 0.01571529 0.035986204 0.013792012 0.018436518 0.041301
-0.017410547 0.016334306 -0.0350329 0.03052393 -0.0043003485 0.001167506 0.002500277 -0.026642127
0.005405575 0.044551406 0.0061657317 -0.017347861 0.017280784 0.002595283 -0.044639405 -0.044139545
0.013263319 0.009987742 -0.01732583 0.016448293 0.019398656 0.04919116 0.016956355 0.013298895
0.020969603 -0.016142882 -0.030570418 -0.004900299 0.040786978 -0.044355996 0.046328973 0.033679824
0.015394408 -0.040754486 -0.03425955 -0.0076422878 -0.007956754 -0.047434013 0.018421251 0.00029941276
0.024530564 0.03899413 0.039980095 0.030460987 0.017203819 0.045953695 0.0051349998 0.04214983
-0.02498728 -0.011997037 0.025345203 -0.016479265 -0.023918217 0.009839874 0.045924935 0.0373359
-0.031515647 -0.0314789 -0.01583641 -0.028596794 -0.041703183 -0.03263133 0.0476997 -0.010535061
0.012141496 0.04469726 -0.044077467 0.042751838 0.021092635 -0.04077066 0.03922117 -0.01885072
-0.014357775 -0.043912727 -0.017707668 0.022133786 0.03719667 0.028110314 0.018354844 0.049808983
-0.02853241 0.047006015 -0.02091961 0.016976956 -0.03308472 -0.028382873 -0.011339117 -0.03841684
00000000: 3a86 c9bc c442 83bc 00b1 2dbb b03b 90bc
00000010: e42d 5f3c 8df2 0e3d f45d 033c a06c 393c
00000020: 301e 353b 0ac3 fabc f876 47bc 3161 413d
00000030: 8375 cbbc 62f6 b13c 2896 f23b 48c0 35bd
00000040: 57cd 2fbd 481d 423c fe86 b23c 3aa0 3dbd
00000050: 805a 2cbd ee12 15bd 0067 4f3b b0cd 86bc
00000060: 2c61 00bd 9e51 dd3c 80a4 643b 5abd 803c
00000070: 4566 133d e4f7 613c 2e08 973c 3d2b 293d
00000080: 90a0 8ebc 86cf 853c a87e 0fbd 520d fa3c
00000090: f0e9 8cbb 0007 993a b0db 233b 9740 dabc
000000a0: 4021 b13b 897b 363d e809 ca3b 1a1d 8ebc
000000b0: 6e90 8d3c a015 2a3b cfd7 36bd abcb 34bd
000000c0: 644e 593c a0a3 233c e6ee 8dbc 92be 863c
000000d0: eee9 9e3c ab7c 493d 0ee8 8a3c 9ce3 593c
000000e0: 72c8 ab3c 143e 84bc d06e fabc b092 a0bb
000000f0: 3f10 273d a2ae 35bd 73c3 3d3d dbf3 093d
00000100: d438 7c3c 2dee 26bd be53 0cbd 286c fabb
00000110: 0c5d 02bc 2b4a 42bd 2ae8 963c 80fa 9c39
00000120: 52f4 c83c 4fb8 1f3d 2bc2 233d 5289 f93c
00000130: 06ef 8c3c f139 3c3d 8043 a83b 4da5 2c3d
00000140: 20b2 ccbc 388f 44bc bea0 cf3c 86ff 86bc
00000150: 23f0 c3bc 6c37 213c c91b 3c3d 87ed 183d
00000160: 8d16 01bd 05f0 00bd 5cbb 81bc d343 eabc
00000170: f5d0 2abd 6ea8 05bd c360 433d 409b 2cbc
00000180: 20ed 463c 7914 373d 938a 34bd 8d1c 2f3d
00000190: 76ca ac3c 23ff 26bd 61a6 203d d36c 9abc
000001a0: e03c 6bbc d5dd 33bd ac0f 91bc ea51 b53c
000001b0: 895b 183d 9a47 e63c e65c 963c 8104 4c3d
000001c0: cdbc e9bc 6189 403d 9a5f abbc 4213 8b3c
000001d0: d883 07bd 3383 e8bc b4c7 39bc fa5a 1dbd

weight f4 [84, 120]
0.06478642 -0.029359907 0.02414821 -0.058825195 -0.056292783 0.08696766 0.030092739 0.05484754
0.036676407 -0.07940252 -0.0415175 -0.027728021 -0.0074115843 0.03278353 0.058679223 0.005689785
-0.085641794 0.044385433 -0.03827968 0.055191696 0.01738657 -0.06364149 -0.009783216 0.03693849
0.028018437 0.054481477 -0.057809085 -0.0064048246 -0.07760442 -0.073131785 0.08662853 0.057324797
0.04840204 0.08501387 -0.075592846 -0.016693905 -0.07790571 -0.08484791 -0.07022917 0.01077155
-0.07087518 -0.06454191 -0.050855402 -0.040059242 0.047768533 -0.030389063 0.0898885 0.005376421
0.01261501 0.018958174 -0.06668055 -0.005518347 0.006920077 0.05694951 -0.082180984 0.013603695
0.013744369 0.06967926 -0.08902649 -0.0549277 0.08940607 -0.04629661 0.020882957 0.0010195822
0.008830421 0.053159237 0.06941351 -0.06110455 -0.07684094 0.05054006 0.0062541068 -0.004390992
0.0059073195 -0.06566766 -0.06767781 0.017964266 -0.038650718 -0.06284983 0.03183587 -0.053476997
0.055588663 0.07769592 0.009607509 0.030346408 0.066829264 0.05882813 0.04998687 -0.03809877
-0.026572935 0.07759772 0.039976448 0.02473899 -0.041485485 -0.008295812 -0.07889757 0.011313416
-0.061176322 -0.02201555 -0.07774795 -0.08709041 -0.085782796 0.010518238 0.054833278 0.0809125
0.0067473203 -0.0050705746 0.0786033 0.013997026 0.06809917 -0.057133384 0.045771644 -0.07903191
0.07288438 -0.008438937 0.035804227 0.03683725 0.0072285905 0.06534484 0.047520623 0.061729133
0.02864027 -0.07184437 -0.031234812 0.022387765 0.0062408596 -0.067626685 0.057252303 -0.06196402
0.08670485 0.04345551 -0.047769703 0.066389546 0.044475153 -0.033342063 -0.0780946 -0.07916151
-0.07659147 -0.0484784 -0.079390086 -0.044022676 -0.037356805 0.029918157 0.049403593 -0.026249364
-0.0142109245 0.07848582 -0.056662463 -0.08710962 0.03605084 0.08305617 -0.007917196 0.0742946
0.04652202 -0.028823324 0.012157008 0.005132742 0.034865513 0.019572154 0.040489838 -0.017746225
0.055076554 0.016790159 -0.026148714 0.06658405 0.04255955 -0.008421496 -0.03411107 -0.016632788
-0.07566587 -0.042280328 0.05915144 0.036582544 0.035519615 0.02299773 -0.038775288 0.020974398
0.0011033416 0.037154466 -0.050906625 -0.06852312 0.06879796 -0.017092563 0.069800586 0.023689754
-0.04638119 -0.034650736 -0.01744064 0.010776654 -0.067686334 0.07044938 -0.010070369 -0.08307561
0.025919773 0.06976676 -0.062251806 0.07760592 -0.025552332 0.0848434 0.08949655 -0.09104136
0.07530081 -0.07513092 0.012377605 -0.06507136 0.070207 0.03836505 0.055764765 0.0027383268
0.08282705 -0.062913045 0.008799814 -0.08115255 -0.07410956 0.08740181 -0.07540508 -0.049020194
0.016109489 -0.048691627 -0.016133048 -0.018736832 0.01619248 -0.057027105 -0.057788234 0.05114667
-0.020489387 0.022418924 0.0033213645 0.025209963 0.0708898 0.07137902 0.06599043 0.07153742
-0.026210003 0.064396024 0.01857169 -0.057110846 -0.013103783 -0.07624993 -0.05867578 -0.06728111
-0.028055087 -0.08737911 0.032627456 0.008393265 -0.05183253 0.032830358 0.05757448 -0.055928607
0.034292445 0.08257967 -0.06640228 0.0028609708 0.008124128 0.044944853 -0.045237277 0.0018425882
00000000: beae 843d 3084 f0bc 78d2 c53c b0f2 70bd
00000010: 4393 66bd 1a1c b23d 0c85 f63c d0a7 603d
00000020: 003a 163d ca9d a2bd 410e 2abd e025 e3bc
00000030: e0dc f2bb 0648 063d a059 703d 6071 ba3b
00000040: f764 afbd 80cd 353d 27cb 1cbd b010 623d
00000050: 486e 8e3c 7856 82bd c849 20bc d04c 173d
00000060: ec86 e53c f827 5f3d 38c9 6cbd 90df d1bb
00000070: 11ef 9ebd 1ec6 95bd 4c6a b13d 68cd 6a3d
00000080: 3841 463d c01b ae3d 6cd0 9abd a8c1 88bc
00000090: 078d 9fbd bec4 adbd 50d4 8fbd 287b 303c
000000a0: 0227 91bd 8d2e 84bd c14d 50bd 2915 24bd
000000b0: f0a8 433d 7cf2 f8bc 7617 b83d b02c b03b
000000c0: 30af 4e3c 2c4e 9b3c d08f 88bd 40d3 b4bb
000000d0: d0c1 e23b e443 693d 814e a8bd 08e2 5e3c
000000e0: 1030 613c 00b4 8e3d 8553 b6bd defb 60bd
000000f0: 881a b73d 84a1 3dbd bc12 ab3c 80a3 853a
00000100: 78ad 103c 80bd 593d ac28 8e3d c448 7abd
00000110: c85e 9dbd 1803 4f3d 40ef cc3b 50e2 8fbb
00000120: 3092 c13b c47c 86bd aa9a 8abd cc29 933c
00000130: 3750 1ebd 69b7 80bd 5466 023d b20a 5bbd
00000140: f0b0 633d 0a1f 9f3d d068 1d3c 0899 f83c
00000150: c8dd 883d c4f5 703d 08bf 4c3d 750d 1cbd
00000160: 7caf d9bc 8eeb 9e3d 58be 233d 6ca9 ca3c
00000170: afec 29bd 28eb 07bc 0d95 a1bd e85b 393c
00000180: 0694 7abd f459 b4bc 513a 9fbd 755c b2bd
00000190: e4ae afbd b054 2c3c dc98 603d 74b5 a53d
000001a0: a018 dd3b 1027 a6bb c4fa a03d c853 653c
000001b0: 9477 8b3d b204 6abd 0c7b 3b3d 7bdb a1bd
000001c0: 6844 953d 7843 0abc 74a7 123d a8e2 163d
000001d0: d0dd ec3b 84d3 853d fca4 423d b0d7 7c3d
000001e0: 009f ea3c 2423 93bd 26e0 ffbc 8c66 b73c
000001f0: 2080 cc3b dc7f 8abd 6481 6a3d fccd 7dbd
00000200: 5092 b13d 68fe 313d 2aaa 43bd 3ef7 873d
00000210: 942b 363d b091 08bd 10f0 9fbd 6e1f a2bd
00000220: fddb 9cbd 4991 46bd 4597 a2bd 1f51 34bd
00000230: 7303 19bd ec16 f53c 6c5b 4a3d e808 d7bc
00000240: f0d4 68bc 2cbd a03d e616 68bd 8766 b2bd
00000250: 0caa 133d 5a19 aa3d 20b7 01bc c427 983d
00000260: e08d 3e3d e41e ecbc 302e 473c 9030 a83b
00000270: 24cf 0e3d c855 a03c acd8 253d 8860 91bc
00000280: f497 613d 848b 893c d435 d6bc 385d 883d
00000290: ec52 2e3d 50fa 09bc 0db8 0bbd 7c41 88bc
000002a0: b5f6 9abd 232e 2dbd c848 723d 94d7 153d
000002b0: 047d 113d bc65 bc3c d6d2 1ebd 80d2 ab3c
000002c0: 009e 903a 482f 183d 7783 50bd d955 8cbd
000002d0: f2e5 8c3d b405 8cbc 9cf3 8e3d 0411 c23c
000002e0: 34fa 3dbd eeed 0dbd acdf 8ebc 9090 303c
000002f0: 229f 8abd c447 903d 30fe 24bc 8c23 aabd
00000300: b455 d43c e0e1 8e3d c0fb 7ebd daef 9e3d
00000310: 2053 d1bc 60c2 ad3d f849 b73d e473 babd
00000320: 5037 9a3d 3dde 99bd 70cb 4a3c 2244 85bd
00000330: b0c8 8f3d ac24 1d3d 9869 643d 8075 333b
00000340: 3aa1 a93d 8ed8 80bd 182d 103c 4f33 a6bd
00000350: c1c6 97bd b8ff b23d fb6d 9abd 66c9 48bd
00000360: 0cf8 833c df70 47bd 7429 84bc fc7d 99bc
00000370: 18a6 843c 4195 69bd 5bb3 6cbd 2c7f 513d
00000380: 5cd9 a7bc e4a7 b73c 40ab 593b 2085 ce3c
00000390: ac2e 913d 2a2f 923d fe25 873d 3682 923d
000003a0: 5cb6 d6bc 10e2 833d a823 983c 10ed 69bd
000003b0: 40b1 56bc ec28 9cbd 0456 70bd aeca 89bd
000003c0: c8d3 e5bc d2f3 b2bd 5ea4 053d e883 093c
000003d0: 594e 54bd 2079 063d 38d3 6b3d 6515 65bd
000003e0: 3c76 0c3d 881f a93d ebfd 87bd 207f 3b3b
000003f0: 101b 053c 1818 383d b94a 39bd 0083 f13a

bias f4 [84]
-0.065895386 0.014953509 -0.07884568 0.061521754 0.0054540113 0.08197729 -0.08629643 -0.050866295
0.064509824 -0.06263166 -0.03970496 -0.07731169 -0.023262486 -0.044831738 0.032525167 -0.026073396
-0.017127998 0.08513126 -0.02810011 0.033240177 -0.007512413 -0.05914536 -0.019985951 -0.040950306
0.024263829 0.04176818 0.010349862 0.08143005 -0.06966752 0.0045373216 0.07757074 0.018806837
0.022455104 -0.007908873 -0.0034590736 -0.060501434 0.05220124 -0.055671405 -0.030537996 0.08387399
-0.08446947 0.07233016 0.0035934746 0.014284261 -0.089333475 0.06451972 -0.0023407415 -0.029911377
-0.020165019 0.018392056 0.08178027 -0.009804174 0.043623894 0.06472513 -0.029675286 -0.005390987
-0.07420107 -0.0799097 -0.073815316 0.0018326491 -0.008450232 -0.084725365 0.06160514 0.057875514
0.036465675 -0.028348848 -0.03968829 0.058350235 -0.08950404 0.03035622 -0.07740663 -0.008215144
-0.06265094 0.08665457 0.0015249029 -0.05197957 -0.03427217 -0.057612125 0.057685792 0.006290421
-0.08586413 -0.042363588 0.07174744 0.044255957
00000000: 29f4 86bd 90ff 743c d879 a1bd 3cfe 7b3d
00000010: 90b7 b23b b6e3 a73d 2fbc b0bd 2d59 50bd
00000020: ba1d 843d 0745 80bd aba1 22bd 9755 9ebd
00000030: f890 bebc 7ca1 37bd 1c39 053d e097 d5bc
00000040: 0450 8cbc 4c59 ae3d 3432 e6bc da26 083d
00000050: b02a f6bb 6842 72bd 94b9 a3bc 82bb 27bd
00000060: f0c4 c63c 1c15 2b3d 7892 293c ccc4 a63d
00000070: d8ad 8ebd d0ad 943b 68dd 9e3d cc10 9a3c
00000080: c4f3 b73c 3894 01bc a0b1 62bb 5ad0 77bd
00000090: f8d0 553d b307 64bd d22a fabc 20c6 ab3d
000000a0: 54fe acbd d621 943d 8080 6b3b 8808 6a3c
000000b0: 78f4 b6bd ea22 843d 2067 19bb b408 f5bc
000000c0: 1c31 a5bc f0aa 963c 6a7c a73d b0a1 20bc
000000d0: f8ae 323d 9c8e 843d 9619 f3bc e0a6 b0bb
000000e0: bbf6 97bd b2a7 a3bd 7c2c 97bd 8035 f03a
000000f0: d872 0abc 7e84 adbd ac55 7c3d e00e 6d3d
00000100: 085d 153d d83b e8bc 3090 22bd a800 6f3d
00000110: e54d b7bd 9cad f83c 5e87 9ebd d098 06bc
00000120: 234f 80bd f477 b13d 40df c73a 88e8 54bd
00000130: fa60 0cbd b1fa 6bbd f047 6c3d e01f ce3b
00000140: 88d9 afbd 7185 2dbd 52f0 923d bc45 353d

weight f4 [10, 84]
-0.1053761 -0.053856034 0.035394363 0.019437991 0.036978967 0.0204468 -0.09330699 0.076471426
-0.06733709 0.06334 0.014724895 -0.08370686 0.026136093 -0.09361443 -0.062333867 -0.0022361428
-0.05726028 0.019325085 -0.057121288 0.001578182 -0.103685915 0.06471484 -0.09298879 -0.07940798
-0.07580154 0.08109937 -0.0480819 -0.10102146 -0.009829797 0.07088069 0.023270495 -0.049335964
-0.00841324 -0.031165361 0.025982596 -0.033454284 0.093675055 -0.0282631 -0.03689699 -0.023621365
0.012610652 -0.077075854 0.080456816 0.019469567 -0.009160206 0.02272246 0.04000964 -0.10851127
-0.04419899 0.035462625 -0.024343282 -0.07278295 -0.09390956 -0.043548718 0.008454613 0.08449604
-0.030887544 -0.07529256 -0.07197325 0.053320862 0.013811164 -0.054748066 0.008407079 0.09879748
0.02458673 0.014816396 -0.019492835 0.061174907 0.042878978 -0.05849681 -0.034922943 -0.035534434
0.065278955 0.024736889 -0.09113987 0.083637424 -0.011003353 0.06191566 0.05099166 -0.07529956
0.00025058538 0.08325795 0.02035033 0.023590885 0.022836916 -0.017736815 0.07851022 0.05921436
-0.092814565 -0.05391965 -0.02868478 0.027126573 -0.10472468 -0.10379705 0.09677904 0.011963367
0.033203475 -0.058938622 -0.011082329 -0.050645396 -0.06681314 -0.06856547 0.068350755 -0.012221411
0.08315659 0.06219452 -0.023760729 0.09988975 0.08298253 -0.09603277 -0.074426994 -0.040611237
-0.005787283 0.009769112 0.03267736 0.02254846 0.029283352 0.049527533 -0.0061424747 0.063435815
0.063291825 -0.03714115 -0.06077136 0.1029655 -0.08641159 -0.055229463 -0.050730642 -0.09384091
0.10266278 -0.020464212 -0.07428585 0.0023192167 0.064225264 0.023607291 -0.02128724 0.06595229
-0.09898181 -0.09901191 0.041975312 -0.039333537 0.016136847 0.05526895 0.10678365 0.02243691
-0.08381418 -0.08484049 0.04480935 -0.092469506 -0.06383904 0.086936854 0.05581007 0.07392732
0.09529524 -0.0733422 0.10020203 -0.093293004 -0.051356386 0.080346815 -0.05527293 -0.009659745
-0.028109148 0.034882493 0.06061759 0.07471218 0.07866634 0.04270471 -0.06683863 -0.011375941
-0.07755286 0.048138075 0.021035038 0.07031027 0.008285567 -0.09910906 -0.040968314 0.05683673
0.0029293895 -0.09377123 0.026771896 0.026087515 -0.035432957 -0.09620854 0.056749545 -0.06308532
-0.003836967 0.012509644 0.012840055 -0.09639604 -0.009560131 0.0066015497 -0.0285827 0.05374349
-0.034810632 0.08927653 0.05599224 0.076699905 -0.0798335 -0.09420329 0.050565057 0.025990508
-0.022175394 0.09573779 0.106168546 0.046548523 -0.017457299 0.052079372 0.026516713 0.04010173
-0.0085877925 -0.10817862 0.04909677 0.012488946 -0.013969794 0.059043355 -0.028846055 -0.09840483
0.05504129 -0.033382952 -0.058386315 0.06631016 0.083930515 0.017983846 -0.04661053 0.036666535
-0.060637727 -0.043874927 -0.09605412 0.09301854 -0.008416519 -0.07929817 0.012575783 -0.04332327
-0.05291286 0.10694786 0.04060877 0.087966554 0.054893054 -0.060103472 0.10684463 0.023316555
0.0528669 -0.10046672 0.08687975 0.038815342 0.027794741 -0.06292799 -0.026540987 -0.1045658
-0.09852569 0.107807584 0.08039398 -0.07275364 0.07332494 -9.936094e-05 0.10603101 -0.09015151
00000000: 6dcf d7bd 2598 5cbd aef9 103d 6c3c 9f3c
00000010: 4277 173d 0c80 a73c bc17 bfbd 0d9d 9c3d
00000020: 07e8 89bd 67b8 813d b040 713c 816e abbd
00000030: 5c1b d63c ecb8 bfbd cc51 7fbd 408c 12bb
00000040: c189 6abd a44f 9e3c 03f8 69bd 00db ce3a
00000050: 4859 d4bd 3789 843d e870 bebd a7a0 a2bd
00000060: d63d 9bbd 6d17 a63d 87f1 44bd 57e4 cebd
00000070: 280d 21bc e529 913d c4a1 be3c 8214 4abd
00000080: b0d7 09bc 804e ffbc 74d9 d43c 5c07 09bd
00000090: b5d8 bf3d 0488 e7bc 4c21 17bd 9881 c1bc
000000a0: e89c 4e3c f2d9 9dbd 8bc6 a43d a47e 9f3c
000000b0: b014 16bc 7424 ba3c 26e1 233d 283b debd
000000c0: 000a 35bd 4241 113d 906b c7bc 3a0f 95bd
000000d0: a853 c0bd 2460 32bd 3885 0a3c 430c ad3d
000000e0: e007 fdbc fc32 9abd b666 93bd fa66 5a3d
000000f0: 3848 623c 823f 60bd d8bd 093c 5556 ca3d
00000100: 1c6a c93c 78c0 723c 70af 9fbc 8a92 7a3d
00000110: dea1 2f3d 5a9a 6fbd 5c0b 0fbd 8e8c 11bd
00000120: f9b0 853d 04a5 ca3c 8aa7 babd 194a ab3d
00000130: 6847 34bc 469b 7d3d a2dc 503d a836 9abd
00000140: 0061 8339 2583 aa3d bcb5 a63c ac41 c13c
00000150: 7c14 bb3c cc4c 91bc f7c9 a03d c28a 723d
00000160: 9015 bebd dada 5cbd 58fc eabc 8c38 de3c
00000170: e579 d6bd 8c93 d4bd 1734 c63d 0002 443c
00000180: 5e00 083d a069 71bd a892 35bc 8c71 4fbd
00000190: 54d5 88bd 0e6c 8cbd 7bfb 8b3d 503c 48bc
000001a0: 014e aa3d aebf 7e3d dca5 c2bc ff92 cc3d
000001b0: bff2 a93d d4ac c4bd 2e6d 98bd f857 26bd
000001c0: 40a3 bdbb a00e 203c b2d8 053d 8cb7 b83c
000001d0: a4e3 ef3c 62dd 4a3d d046 c9bb a3ea 813d
000001e0: 259f 813d 5221 18bd 64eb 78bd 93df d23d
000001f0: 8ff8 b0bd 4a38 62bd efca 4fbd aa2f c0bd
00000200: dd40 d23d 90a4 a7bc 2e23 98bd 00fe 173b
00000210: 8988 833d 1464 c13c 9462 aebc ff11 873d
00000220: fab6 cabd c2c6 cabd 4eee 2b3d 341c 21bd
00000230: 6c31 843c b261 623d 63b1 da3d 9ccd b73c
00000240: c5a6 abbd dac0 adbd 028a 373d a760 bdbd
00000250: 0bbe 82bd f30b b23d 1a99 643d 3567 973d
00000260: 272a c33d 6f34 96bd b936 cd3d 6710 bfbd
00000270: 135b 52bd df8c a43d de65 62bd e843 1ebc
00000280: 2845 e6bc f2e0 0e3d 264a 783d b302 993d
00000290: d11b a13d 22eb 2e3d b1e2 88bd 2862 3abc
000002a0: 09d4 9ebd 6e2c 453d ac51 ac3c d5fe 8f3d
000002b0: 30c0 073c b1f9 cabd 64ce 27bd a2cd 683d
000002c0: 00fb 3f3b 210b c0bd bc50 db3c 7cb5 d53c
000002d0: 2622 11bd fc08 c5bd 3672 683d e032 81bd
000002e0: a075 7bbb 40f5 4c3c 185f 523c 496b c5bd
000002f0: 18a2 1cbc d051 d83b 4426 eabc 2222 5c3d
00000300: 9895 0ebd 9dd6 b63d 1e58 653d d714 9d3d
00000310: bf7f a3bd a8ed c0bd 4e1d 4f3d 0cea d43c
00000320: 2ca9 b5bc 2d12 c43d e56e d93d aaa9 3e3d
00000330: 9c02 8fbc 2e51 553d 9439 d93c b641 243d
00000340: d0b3 0cbc c18c ddbd b219 493d 709e 4c3c
00000350: 90e1 64bc 72d7 713d 904e ecbc 7988 c9bd
00000360: fa72 613d 90bc 08bd 7d26 6fbd 9fcd 873d
00000370: c3e3 ab3d dc52 933c afea 3ebd a62f 163d
00000380: 445f 78bd 32b6 33bd 06b8 c4bd 8180 be3d
00000390: 70e5 09bc 1467 a2bd a80a 4e3c be73 31bd
000003a0: 28bb 58bd 7b07 db3d 6255 263d cf27 b43d
000003b0: 8ad7 603d 0f2f 76bd 5bd1 da3d 5c02 bf3c
000003c0: f68a 583d 7fc1 cdbd 03ee b13d d6fc 1e3d
000003d0: ccb1 e33c 64e0 80bd 7c6c d9bc 9826 d6bd
000003e0: d6c7 c9bd 39ca dc3d 99a5 a43d dcff 94bd
000003f0: 632b 963d 0060 d0b8 c926 d93d 5ba1 b8bd

bias f4 [10]
-0.08805975 0.043519504 0.011491805 0.095567755 0.0046520904 0.016031094 0.00575231 0.10265482
0.07825724 0.10299482
00000000: ac58 b4bd 8241 323d 2048 3c3c 07b9 c33d
00000010: 9070 983b a453 833c e07d bc3b b13c d23d
00000020: 5545 a03d f3ee d23d
