seq2seq/m.pt (torch_old, 261419 bytes, 10 tensors)

weight f4 [6, 3, 5, 5]
-0.06108793 0.05480641 0.03485836 0.0718026 -0.067175046 0.10699433 -0.04116933 0.09073417
-0.03953083 -0.016081065 -0.064431414 0.022278056 -0.09094834 -0.018270023 -0.052585848 0.05864401
-0.018908821 -0.10042634 0.07115312 -0.10642932 0.096291974 -0.00050441176 0.097973585 -0.018102594
0.056279868 -0.08941618 0.042345554 -0.07199074 -0.009591788 0.03807114 0.054920882 -0.028882436
-0.007284574 0.039897293 -0.06846061 0.09374988 -0.040909365 -0.054546326 -0.07215744 -0.041186787
-0.011068821 -0.04738097 0.06381187 -0.052647278 -0.070080355 -0.10432434 -0.08640636 0.028798372
0.043572664 -0.03220076 0.08637881 -0.029786222 0.033749238 0.113905996 0.080028296 -0.08776247
-0.027150497 -0.07748979 -0.09939723 0.07860884 -0.0904718 0.01946278 -0.104506426 -0.08331108
0.09091443 -0.06243351 0.065945104 -0.07564637 -0.06624065 0.06511177 -0.07110086 0.034503058
0.07670976 -0.090067804 -0.10874645 0.07366221 0.0048619136 -0.05375058 -0.07817356 0.072027296
-0.0032443777 0.06285907 0.03275031 -0.033503644 -0.114266016 0.062776774 -0.08312217 -0.019852221
-0.09375438 -0.030580856 0.034657642 -0.096314795 -0.016200908 -0.10801746 -0.04829581 0.029046863
-0.036153518 0.10588105 -0.08464542 -0.046461202 0.10248302 0.066207364 0.04605344 0.08589172
0.10217135 0.022133589 -0.09783821 0.10371962 -0.038508467 -0.011888273 0.004201524 0.046409413
0.10952787 -0.10172538 -0.030130997 0.05910191 -0.033198237 -0.063586585 -0.07407053 -0.09391211
-0.067195535 0.044271544 0.07039581 0.047426373 -0.057019584 -0.025810823 -0.09753096 0.0396284
0.07878497 0.01818277 0.10970612 -0.09319378 -0.05884375 0.04142587 0.011618227 -0.014920972
-0.10258415 0.06420179 -0.06600222 -0.063787185 -0.020002633 -0.047213808 -0.0909802 0.041939557
0.012952775 0.06619637 -0.10330107 -0.027303867 -0.08770437 0.04487671 -0.10223913 0.06877871
-0.06743978 -0.06699896 -0.018728659 -0.08244394 -0.018086672 -0.013029687 -0.0024548844 -0.054721955
0.0918324 -0.030898511 -0.023438722 0.040850773 -0.11271119 -0.04286223 0.016368851 0.10958964
0.053130537 -0.111604095 0.020575851 -0.113636956 0.091202796 0.07955477 0.038927168 0.052206084
-0.041997 0.005013235 -0.09076622 0.00041086227 0.11110988 0.02633284 -0.058849916 0.037142485
0.05960332 -0.04579161 0.054361284 -0.05096297 0.0074358135 0.09094961 0.024715066 -0.00077818334
0.09863612 0.09000659 -0.03515906 -0.072786875 0.054693654 -0.11276594 0.08166908 -0.082769856
-0.046968237 -0.041173004 0.09768376 -0.09908087 0.056923226 0.014367536 0.05201964 0.09492932
0.05605878 -0.04985544 -0.0526739 -0.008705467 -0.027519234 0.014653981 0.08141449 -0.06117341
-0.08908509 -4.7542155e-05 0.024883091 -0.036655948 -0.0066394433 -0.04104591 0.02662173 -0.044723548
-0.008244388 -0.08780747 0.0982039 0.0035987794 -0.0234643 0.07349695 0.012181684 -0.09896041
-0.019341923 0.09724872 -0.08898042 0.03613332 0.07927406 -0.10357169 0.07185204 0.07929543
0.005576797 0.10381749 0.11147019 0.06929253 -0.01944884 0.019769803 -0.047152013 -0.02028986
0.061784506 0.0703588 -0.07718166 0.0837999 -0.054184925 0.09955661 -0.10143149 -0.07989461
00000000: 5637 7abd b07c 603d a4c7 0e3d 3e0d 933d
00000010: 1293 89bd d81f db3d 2ca1 28bd d6d2 b93d
00000020: 14eb 21bd 70bc 83bc 9ef4 83bd 7880 b63c
00000030: 2043 babd 04ab 95bc 4264 57bd b434 703d
00000040: ace6 9abc 53ac cdbd bab8 913d 9ef7 d9bd
00000050: ba34 c53d 803a 04ba 60a6 c83d e44b 94bc
00000060: b885 663d d51f b7bd 8872 2d3d e26f 93bd
00000070: e026 1dbc 7cf0 1b3d b8f4 603d dc9a ecbc
00000080: 70b3 eebb 586b 233d 1435 8cbd f0ff bf3d
00000090: 9490 27bd f86b 5fbd 48c7 93bd 7ab3 28bd
000000a0: 005a 35bc 8c12 42bd ccaf 823d aca4 57bd
000000b0: 4a86 8fbd 00a8 d5bd d1f5 b0bd 90ea eb3c
000000c0: 4079 323d f2e4 03bd 60e7 b03d 3c02 f4bc
000000d0: a43c 0a3d 8c47 e93d e0e5 a33d cfbc b3bd
000000e0: b86a debc f8b2 9ebd c690 cbbd acfd a03d
000000f0: 4749 b9bd 6870 9f3c 7707 d6bd 009f aabd
00000100: 5831 ba3d 48ba 7fbd 3a0e 873d 7cec 9abd
00000110: 2ea9 87bd 5259 853d 549d 91bd 1453 0d3d
00000120: 021a 9d3d 7875 b8bd 75b6 debd 36dc 963d
00000130: b050 9f3b 9129 5cbd 7619 a0bd 0c83 933d
00000140: a09f 54bb 42bc 803d 3025 063d 1e3b 09bd
00000150: 4d04 eabd 1c91 803d f53b aabd 20a1 a2bc
00000160: 4c02 c0bd b484 fabc 2cf5 0d3d b140 c5bd
00000170: c4b7 84bc 4238 ddbd d4d1 45bd b0f3 ed3c
00000180: b615 14bd 2ad8 d83d 945a adbd 1a4e 3ebd
00000190: 9ee2 d13d ba97 873d 88a2 3c3d 00e8 af3d
000001a0: 363f d13d 8051 b53c 665f c8bd f46a d43d
000001b0: 0ebb 1dbd 08c7 42bc f0ac 893b cc17 3e3d
000001c0: 2650 e03d 6555 d0bd 48d5 f6bc d814 723d
000001d0: e0fa 07bd af39 82bd 4ab2 97bd fe54 c0bd
000001e0: d09d 89bd 1456 353d ae2b 903d 2842 423d
000001f0: 5e8d 69bd 3871 d3bc 50be c7bd 6451 223d
00000200: 045a a13d 08f4 943c 9aad e03d 61dc bebd
00000210: 2506 71bd 2cae 293d 605a 3e3c 1877 74bc
00000220: a417 d2bd 3a7c 833d 2c2c 87bd dba2 82bd
00000230: 90dc a3bc 4463 41bd d453 babd d0c8 2b3d
00000240: e037 543c f691 873d 838f d3bd 5cac dfbc
00000250: 599e b3bd a4d0 373d c062 d1bd dadb 8c3d
00000260: de1d 8abd c036 89bd d86c 99bc 5ed8 a8bd
00000270: 802a 94bc 787a 55bc 20e2 20bb 2124 60bd
00000280: a012 bc3d e01e fdbc 9002 c0bc 2453 273d
00000290: 20d5 e6bd 4e90 2fbd f817 863c 8870 e03d
000002a0: 689f 593d b090 e4bd b08e a83c 7eba e8bd
000002b0: 88c8 ba3d 9ced a23d 1872 1f3d 0cd6 553d
000002c0: 0c05 2cbd 1046 a43b a4e3 b9bd 0069 d739
000002d0: 948d e33d f8b7 d73c 9c0c 71bd b822 183d
000002e0: 9c22 743d fc8f 3bbd f0a9 5e3d 8cbe 50bd
000002f0: 20a8 f33b ca43 ba3d 4077 ca3c 00ff 4bba
00000300: bc01 ca3d 6055 b83d f202 10bd 4911 95bd
00000310: 7406 603d d4f1 e6bd 1e42 a73d 3e83 a9bd
00000320: c461 40bd 06a5 28bd 6c0e c83d e9ea cabd
00000330: 5428 693d d065 6b3c 8c12 553d 4e6a c23d
00000340: e49d 653d 3835 4cbd 96c0 57bd 60a1 0ebc
00000350: 0470 e1bc 4017 703c a4bc a63d f890 7abd
00000360: 3e72 b6bd 0068 47b8 a0d7 cb3c 8c24 16bd
00000370: b08f d9bb c21f 28bd d015 da3c 0a30 37bd
00000380: 7813 07bc 67d4 b3bd 201f c93d 80d9 6b3b
00000390: 3438 c0bc 9285 963d b095 473c c1ab cabd
000003a0: f472 9ebc 562a c73d 5e3b b6bd 8800 143d
000003b0: 705a a23d 651d d4bd 2a27 933d a465 a23d
000003c0: 90bd b63b 449e d43d 7c4a e43d 3ee9 8d3d
000003d0: 2c53 9fbc 48f4 a13c 7822 41bd ec36 a6bc
000003e0: c011 7d3d 4618 903d 6b11 9ebd 489f ab3d
000003f0: 03f1 5dbd 56e4 cb3d 50bb cfbd c99f a3bd

bias f4 [6]
0.10037257 0.11509223 -0.113757536 0.040357813 0.020934746 -0.06382358
00000000: 2290 cd3d 7ab5 eb3d b6f9 e8bd 3c4e 253d
00000010: 587f ab3c f0b5 82bd

weight f4 [16, 6, 5, 5]
-0.065338366 0.013030507 -0.00635428 -0.040739555 -0.016073883 0.07560143 -0.04339243 0.000551939
0.004026115 -0.02611716 -0.052941762 0.028404683 -0.07650958 -0.040082425 -0.04820737 -0.027104817
-0.065157816 -0.051492956 0.00026598573 -0.011475094 0.034396313 -0.04097813 -0.073352054 -0.03968766
-0.014960468 0.077280745 -0.029002752 0.060072362 -0.06174343 0.0057006776 -0.062105164 0.032545216
0.048293784 0.05502516 0.07007626 0.04470189 -0.012151517 -0.011562608 0.034161754 -0.049693357
0.006466098 0.040503033 0.017278127 0.03172279 0.052432954 0.018701956 0.06162575 -0.01165127
-0.051394626 -0.014968529 0.051038623 -0.012987889 0.048071146 -0.072523385 0.08128789 0.049163565
-0.023895454 0.030408546 -0.053069845 -0.049142115 -0.07952298 -0.04350828 0.0713633 0.021967784
0.0033110455 -0.073941514 0.032169126 -0.07938728 -0.06772668 -0.049943388 0.07877882 -0.03217
0.073516086 0.05306092 0.034718663 -0.05327963 0.080525875 0.06500581 0.011594869 -0.033395242
0.0729208 -0.010912649 0.07735032 -0.06453766 0.07478127 0.05568242 0.020776607 0.0019117594
-0.016157947 -0.0008697584 -0.03620828 0.03867875 0.050215468 -0.026770834 0.062207 -0.024941523
-0.02875087 -0.068787694 0.0126852095 0.061615467 -0.043857515 -0.043044172 0.07775614 0.043161035
-0.012424029 -0.054381244 0.03301619 0.05403702 -0.033775456 0.028624691 -0.073897205 -0.06347632
-0.06962079 -0.01565843 0.004839726 0.028321572 -0.019760277 0.06643173 0.07677199 -0.06193837
-0.055639267 0.04466459 0.06591357 0.019312918 -0.060559794 0.0054689944 -0.05840701 0.0052639097
0.0069767833 0.051023945 -0.073095046 -0.045549784 -0.0440833 -0.0065391585 0.025094874 -0.026515946
0.04641673 -0.045241944 -0.00056651235 -0.017462745 0.013549171 -0.02104197 0.015049137 0.008917943
0.021432206 0.014094964 0.047150284 0.040384315 -0.047219217 0.0625025 0.025034815 0.058819875
0.03917855 -0.05452926 0.04940325 -0.012025699 -0.017346874 -0.03020731 -0.058580786 0.060514927
0.0024655983 0.00749781 0.04584278 0.06379607 0.04247795 -0.05507253 0.03422115 -0.01952516
-0.028461859 -0.049029697 -0.003270477 -0.0025184602 0.06801267 0.0190325 -0.020187993 -0.019914106
-0.012506232 0.005065277 0.043077186 0.0048616827 -0.06770885 0.056499496 -0.032857683 0.052293718
-0.028200261 -0.014618233 0.029968448 -0.004239738 0.0370462 -0.06750723 0.006283462 0.009439617
0.066345856 0.051526442 -0.03224788 0.011440985 0.06323272 -0.07411019 -0.041351214 -0.074169494
0.041270994 0.031110331 -0.035360403 0.07876022 0.0019052625 0.050606087 0.066818595 0.0787386
0.032607652 0.07324514 0.04409693 0.08148137 0.05151838 -0.036138237 -0.011064626 -0.03442329
0.04247894 -0.057335712 -0.0053976327 -0.046107702 0.043704763 0.017229974 0.05316618 0.03252905
0.028189085 -0.011060059 0.021327823 -0.034205906 -0.057673488 -0.06608396 0.07703017 0.0017740875
0.0543136 -0.06090813 0.010999158 0.0061008856 -0.080109924 0.061294764 0.04233133 0.015026137
0.03335266 -0.04376886 0.05324824 0.0012214258 0.034682773 0.0732739 0.073884964 0.07176772
0.056668296 0.023312367 0.040055446 0.023386754 0.08131835 0.059280977 -0.03246427 -0.025008816
00000000: 1fd0 85bd e87d 553c 9037 d0bb 85de 26bd
00000010: 60ad 83bc ecd4 9a3d 43bc 31bd 00b0 103a
00000020: 80ed 833b a8f3 d5bc 76d9 58bd f0b0 e83c
00000030: 0eb1 9cbd 782d 24bd 1775 45bd ec0a debc
00000040: 7671 85bd 47ea 52bd 0074 8b39 0802 3cbc
00000050: 26e3 0c3d afd8 27bd 9a39 96bd 878f 22bd
00000060: c01c 75bc 5e45 9e3d 2e97 edbc 700e 763d
00000070: aee6 7cbd c0cc ba3b fc61 7ebd 224e 053d
00000080: b4cf 453d 1062 613d 2484 8f3d 5419 373d
00000090: 2817 47bc 1871 3dbc 32ed 0b3d 438b 4bbd
000000a0: 90e1 d33b 82e6 253d dc8a 8d3c c2ef 013d
000000b0: f0c3 563d d834 993c 486b 7c3d f8e4 3ebc
000000c0: 2c83 52bd 903e 75bc e00d 513d 28cb 54bc
000000d0: 40e6 443d 2487 94bd 447a a63d bc5f 493d
000000e0: 66c0 c3bc 581b f93c c45f 59bd 3e49 49bd
000000f0: f2dc a2bd bd35 32bd ec26 923d c8f5 b33c
00000100: 20fe 583b a66e 97bd c6c3 033d cc95 a2bd
00000110: 49b4 8abd 7091 4cbd ca56 a13d b1c4 03bd
00000120: 9a8f 963d 6856 593d 2835 0e3d be3b 5abd
00000130: c0ea a43d c421 853d 68f8 3d3c 73c9 08bd
00000140: 8057 953d f8ca 32bc d869 9e3d 522c 84bd
00000150: ec26 993d 4013 643d b433 aa3c 0094 fa3a
00000160: ac5d 84bc 8000 64ba 224f 14bd 9c6d 1e3d
00000170: bcae 4d3d 824e dbbc c4cc 7e3d 2a52 ccbc
00000180: f286 ebbc 90e0 8cbd a0d5 4f3c 8060 7c3d
00000190: f0a3 33bd 164f 30bd 9c3e 9f3d a0c9 303d
000001a0: 288e 4bbc debe 5ebd fc3b 073d ec55 5d3d
000001b0: 2258 0abd 547e ea3c 6b57 97bd dfff 81bd
000001c0: 5895 8ebd 1c46 80bc 9096 9e3b a402 e83c
000001d0: 4ee0 a1bc 5c0d 883d a23a 9d3d 17b3 7dbd
000001e0: 00e6 63bd 38f2 363d b2fd 863d 2036 9e3c
000001f0: 8c0d 78bd 4035 b33b 303c 6fbd e07c ac3b
00000200: 809d e43b 7cfe 503d dbb2 95bd 6992 3abd
00000210: b190 34bd 7046 d6bb c493 cd3c f837 d9bc
00000220: 781f 3e3d 9e4f 39bd 0082 14ba 080e 8fbc
00000230: 58fd 5d3c 3660 acbc a890 763c 901c 123c
00000240: 9892 af3c 90ee 663c a820 413d 066a 253d
00000250: f068 41bd 5001 803d d015 cd3c 1ced 703d
00000260: b079 203d 135a 5fbd 105b 4a3d 7007 45bc
00000270: 081b 8ebc 5275 f7bc 68f2 6fbd 80de 773d
00000280: e095 213b 30b0 f53b a4c5 3b3d 84a7 823d
00000290: 5cfd 2d3d bc93 61bd 7a2b 0c3d 3af3 9fbc
000002a0: d828 e9bc 5dd3 48bd 8055 56bb c00c 25bb
000002b0: 3a4a 8b3d 0cea 9b3c 4a61 a5bc e822 a3bc
000002c0: f0e6 4cbc a0fa a53b b471 303d c04e 9f3b
000002d0: f0aa 8abd 046c 673d c795 06bd f031 563d
000002e0: 3c04 e7bc 5081 6fbc 6480 f53c 80ed 8abb
000002f0: c2bd 173d 3b41 8abd 80e5 cd3b a0a8 1a3c
00000300: 56e0 873d 640d 533d 5a16 04bd f872 3b3c
00000310: 2880 813d 15c7 97bd e45f 29bd 2de6 97bd
00000320: c60b 293d 18db fe3c 12d6 10bd 0a4d a13d
00000330: 00ba f93a 5448 4f3d 30d8 883d b441 a13d
00000340: 9a8f 053d 8c01 963d fc9e 343d b4df a63d
00000350: f004 533d b005 14bd 6848 35bc 70ff 0cbd
00000360: 66fe 2d3d dad8 6abd a0de b0bb 6edb 3cbd
00000370: c403 333d e025 8d3c c8c4 593d 2e3d 053d
00000380: ccec e63c 4035 35bc b0b7 ae3c 7e1b 0cbd
00000390: 093b 6cbd 0757 87bd fec1 9d3d 8088 e83a
000003a0: f077 5e3d ce7a 79bd d035 343c f0e9 c73b
000003b0: ac10 a4bd 3810 7b3d 9e63 2d3d 3030 763c
000003c0: cc9c 083d fa46 33bd d41a 5a3d 4018 a03a
000003d0: 860f 0e3d a010 963d 0051 973d f4fa 923d
000003e0: 041d 683d 94f9 be3c 2e11 243d 9495 bf3c
000003f0: 3c8a a63d 9cd0 723d 41f9 04bd 4adf ccbc

bias f4 [16]
-0.008524016 -0.051058456 -0.060092054 -0.006630115 0.06067823 0.023129992 0.046167985 -0.07373037
-0.07965262 -0.056521222 0.012240253 -0.0704855 -0.0372547 0.016148731 0.04199019 -0.060376074
00000000: 50a8 0bbc ac22 51bd 1623 76bd 7041 d9bb
00000010: bc89 783d 1c7b bd3c a41a 3d3d f3ff 96bd
00000020: ea20 a3bd cc82 67bd 588b 483c b45a 90bd
00000030: 6298 18bd 584a 843c e8fd 2b3d e74c 77bd

weight f4 [120, 400]
-0.014818601 0.01739953 -0.020321703 -0.017941363 0.048899863 0.021283265 -0.01171124 -0.0406483
-0.043166813 0.035225753 0.012405664 0.047535177 -0.012984075 -0.044686314 -0.047899306 0.02013195
0.0019238591 -0.013295792 -0.04196457 0.035447355 -0.016938336 -0.03514833 0.027388837 -0.04576678
-0.017916799 -0.043114122 0.02031507 0.0141882785 -0.027707571 0.038917657 0.023028854 0.010671634
0.026069652 0.031245131 0.020658705 0.024333749 0.0005425438 0.04840645 0.0022276267 0.03986107
0.028233755 0.045507308 0.04523882 -0.017712384 0.049555454 0.01643503 -0.011705317 -0.013289593
-0.04036777 0.0062153228 0.045535896 -0.037642516 0.032247093 0.0006936565 0.019934896 -0.02794589
0.02755547 0.04974093 0.004654277 0.036378 -0.03927244 0.04559244 -0.034103766 -0.008568622
-0.009919744 -0.024969464 0.043930482 0.0001750812 0.036515925 0.045129273 -0.0027968884 -0.030465042
0.008807503 -0.03932677 0.01362985 0.0015577264 0.012109317 0.0076396354 0.020980392 -0.04845958
-0.038440365 0.04960416 0.042359594 0.0052727275 -0.023006022 -0.0035737231 -0.04955518 0.040013086
-0.020489538 0.04806407 -0.040532835 0.024475586 -0.049954582 -0.034089558 -0.0070939437 0.036276486
-0.015356701 -0.044938393 0.02405202 0.009696323 0.031317856 -0.04528436 0.021495197 0.04744843
0.033289764 -0.0016366541 0.043687392 0.048045706 -0.00860817 0.027089331 -0.048135143 -0.03778885
-0.041131653 0.013190504 0.007413637 -0.035212927 0.03326163 0.031767856 -0.019552244 -0.031567164
-0.040217113 0.030161563 -0.02858357 -0.025012732 -0.015415154 0.016824994 0.046298664 0.011628956
0.0011440441 -0.0017016158 0.028559405 0.008637093 -0.0022414736 0.03755865 0.01823711 0.04989734
0.00028958917 0.0039983876 0.017141152 0.01140536 0.022117857 0.0015288964 0.012915064 -0.031783573
0.015632723 0.0047416873 -0.03525845 -0.03548225 -0.03317635 0.033633273 -0.047225084 -0.0033039227
-0.042731106 -0.023200834 0.047924753 -0.04630223 -0.01565776 0.018849205 -0.021625305 0.029670496
0.012386072 -0.0058651976 0.018649962 -0.015505087 0.040948037 -0.022653967 -0.020744925 -0.028110916
-0.023349786 -0.01305262 0.016921502 0.01873884 0.023617838 0.031141367 -0.04866568 0.023933042
0.02140366 0.013256092 -0.023759646 0.04686636 0.0024847202 0.024408195 -0.040719975 0.003823381
0.046589587 0.02699345 0.039040703 -0.0058443025 -0.009557199 0.021145437 0.04735857 -0.014022179
-0.0458649 0.04988349 -0.028733362 0.004340183 -0.045027565 0.008319307 0.018619698 0.015478168
0.033922706 -0.026187694 0.0086299665 -0.010108225 0.010802597 0.013586763 0.041521218 -0.047839697
0.046936434 -0.018198855 -0.022586513 -0.048111763 0.015869621 -0.030192638 0.04508299 -0.0005113408
0.03267457 -0.027179867 0.037639473 0.0019494668 0.016114753 0.038562868 0.038454104 -0.008286435
-0.0366612 -0.0131859 -0.036687005 0.011965178 0.020814624 0.0049510524 0.024960283 -0.04085203
-0.012404896 -0.020098878 0.010120552 0.011599958 -0.04345535 -0.01308921 0.043185104 0.003995925
0.015285257 0.0023538545 0.047114175 -0.0014983043 0.02358209 -0.0056543164 0.012038283 0.023478266
-0.019544447 0.008760326 -0.010441996 0.016154822 0.015495677 -0.03718538 0.03174931 0.03823186
00000000: b8c9 72bc 7689 8e3c b379 a6bc c4f9 92bc
00000010: 394b 483d 3e5a ae3c 80e0 3fbc d57e 26bd
00000020: afcf 30bd e148 103d 2041 4b3c 3fb4 423d
00000030: 28bb 54bc ff08 37bd 1032 44bd c2eb a43c
00000040: 002a fc3a 98d6 59bc 0ae3 2bbd 3f31 113d
00000050: 44c2 8abc b2f7 0fbd 8e5e e03c f275 3bbd
00000060: 40c6 92bc 6f98 30bd ca6b a63c f475 683c
00000070: fdfa e2bc 1f68 1f3d 02a7 bc3c 14d8 2e3c
00000080: 0690 d53c caf5 ff3c 723c a93c 9257 c73c
00000090: 8039 0e3a d745 463d 60fd 113b 5d45 233d
000000a0: 7a4a e73c df65 3a3d 574c 393d 9019 91bc
000000b0: a9fa 4a3d c2a2 863c a8c7 3fbc 98bc 59bc
000000c0: ad58 25bd e8a9 cb3b d983 3a3d 0a2f 1abd
000000d0: 8715 043d 80d6 353a 824e a33c c7ee e4bc
000000e0: 02bc e13c 25bd 4b3d e882 983b 1901 153d
000000f0: 23dc 20bd 23bf 3a3d 64b0 0bbd 6863 0cbc
00000100: 6c86 22bc c38c ccbc 73f0 333d 0096 3739
00000110: b991 153d 79d9 383d 004c 37bb d391 f9bc
00000120: 584d 103c 1b15 21bd bc4f 5f3c a02c cc3a
00000130: 2866 463c e855 fa3b 12df ab3c 8d7d 46bd
00000140: a573 1dbd bb2d 4b3d 4181 2d3d d8c6 ac3b
00000150: 2077 bcbc 2035 6abb 5ffa 4abd c3e4 233d
00000160: add9 a7bc d5de 443d c205 26bd 0681 c83c
00000170: 2d9d 4cbd 7ea1 0bbd 5074 e8bb a796 143d
00000180: ac9a 7bbc 5211 38bd be08 c53c 54dd 1e3c
00000190: 2747 003d 187c 39bd b216 b03c 4959 423d
000001a0: d95a 083d 0085 d6ba 8df1 323d 93cb 443d
000001b0: 4809 0dbc 72ea dd3c 5b29 45bd 7bc8 1abd
000001c0: aa79 28bd fc1c 583c 18ee f23b 6e3b 10bd
000001d0: 593d 083d 031f 023d 072c a0bc 924c 01bd
000001e0: b3ba 24bd 6215 f73c 1728 eabc 80e7 ccbc
000001f0: d88f 7cbc 92d4 893c aba3 3d3d 6087 3e3c
00000200: c0f3 953a c008 dfba 6af5 e93c 9882 0d3c
00000210: b0e5 12bb 19d7 193d fe65 953c 2761 4c3d
00000220: 00d4 9739 e804 833b 9a6b 8c3c 8cdd 3a3c
00000230: 8230 b53c 4065 c83a b499 533c 7e2f 02bd
00000240: 3210 803c 2860 9b3b 2a6b 10bd d655 11bd
00000250: ede3 07bd 0bc3 093d 176f 41bd a086 58bb
00000260: d006 2fbd ad0f bebc bf4c 443d 68a7 3dbd
00000270: b444 80bc a669 9a3c 8d27 b1bc 8a0f f33c
00000280: f4ee 4a3c d830 c0bb cec7 983c 0c09 7ebc
00000290: 21b9 273d d094 b9bc 43f1 a9bc dd48 e6bc
000002a0: 0d48 bfbc a8da 55bc f69e 8a3c 3282 993c
000002b0: 327a c13c 2e1c ff3c aa55 47bd 3a0f c43c
000002c0: ba56 af3c 1430 593c 97a3 c2bc f1f6 3f3d
000002d0: b0d6 223b b2f3 c73c fdc9 26bd b091 7a3b
000002e0: b9d4 3e3d 5e21 dd3c 25e9 1f3d 9081 bfbb
000002f0: cc95 1cbc 3239 ad3c 0ffb 413d 48bd 65bc
00000300: d5dc 3bbd a152 4c3d 3a62 ebbc 1838 8e3b
00000310: d36e 38bd b44d 083c 5688 983c 2498 7d3c
00000320: 89f2 0a3d 9387 d6bc b464 0d3c f89c 25bc
00000330: 60fd 303c 049b 5e3c 2712 2a3d 8ff3 43bd
00000340: 6b40 403d c415 95bc 5a07 b9bc d710 45bd
00000350: 0201 823c 8d56 f7bc f1a8 383d 800b 06ba
00000360: c5d5 053d 50a8 debc d92b 1a3d 4085 ff3a
00000370: 1603 843c 19f4 1d3d 0d82 1d3d d4c3 07bc
00000380: 0e2a 16bd ac09 58bc 1d45 16bd 9809 443c
00000390: 6e83 aa3c 703c a23b 8279 cc3c 7554 27bd
000003a0: e83d 4bbc 67a6 a4bc acd0 253c c00d 3e3c
000003b0: 3dfe 31bd 2074 56bc dde2 303d 40f0 823b
000003c0: 046f 7a3c 2043 1a3b cbfa 403d c062 c4ba
000003d0: 3a2f c13c d847 b9bb 383c 453c 7e55 c03c
000003e0: ad1b a0bc 7887 0f3c e814 2bbc 1e57 843c
000003f0: 94e1 7d3c b24f 18bd 910b 023d 0399 1c3d

bias f4 [120]
-0.02239951 -0.030449688 0.035245914 -0.02185436 0.016936485 0.00094808266 0.011884458 -0.021536415
0.041522417 -0.043615606 -0.006832868 0.045705345 -0.018820494 0.016437192 -0.01441399 -0.036127497
-0.005300142 0.032094333 -0.032458745 0.014820877 -0.0047396235 0.027756494 0.040540162 0.048662398
-0.04656597 -0.04607141 0.010717504 0.007954679 -0.039758712 0.039041903 -0.008910812 0.036156457
0.03428513 0.020309571 0.0035676062 -0.029482156 0.025049265 -0.042574804 -0.012658298 0.0208284
0.034670558 -0.03133329 0.018173855 -0.00976219 0.039160553 0.009603173 -0.02310353 0.025692035
0.019380216 0.0016729124 -0.012582481 0.010076325 0.04665223 0.011439092 -0.010868777 0.018512402
-0.014230888 -0.00059532 -0.045572974 0.011362016 -0.041430473 -0.024217112 -0.049760103 0.008379072
-0.014171291 -0.04993405 -0.014068283 0.014605869 0.011384387 0.018760625 0.010231525 0.002902817
-0.04101746 0.044985954 0.0025924332 -0.008389629 -0.0034090094 0.04635853 0.034881223 0.034832437
-0.007273145 0.04735202 0.004014928 -0.03980037 0.03409123 0.032009434 0.02885228 -0.046604928
-0.0059797354 0.040371124 0.021792527 -0.016673572 -0.0119476095 -0.01412056 -0.007728409 -0.023602927
-0.03898129 0.016782288 -0.0152509995 0.0077564903 -0.007954847 0.032999102 -0.04951009 -0.03805829
0.028287176 0.024947722 0.021801766 0.009869248 -0.048389763 0.0413757 0.032064144 -0.005950231
0.008213282 0.037203256 0.012056369 -0.022242023 -0.014232732 -0.028926944 -0.04964229 0.01703788
00000000: 2d7f b7bc a071 f9bc 055e 103d ea07 b3bc
00000010: 62be 8a3c c088 783a 08b7 423c 236d b0bc
00000020: 6913 2a3d 47a6 32bd 40e6 dfbb 8735 3b3d
00000030: 702d 9abc 4aa7 863c a828 6cbc 6dfa 13bd
00000040: d0ac adbb 5975 033d 76f3 04bd 44d3 723c
00000050: d84e 9bbb 9661 e33c 710d 263d 3952 473d
00000060: f5bb 3ebd 60b5 3cbd 7898 2f3c 5854 023c
00000070: 08da 22bd 67ea 1f3d a8fe 11bc cb18 143d
00000080: 916e 0c3d 4260 a63c 80ce 693b 9084 f1bc
00000090: 1e34 cd3c eb62 2ebd c064 4fbc 52a0 aa3c
000000a0: b702 0e3d 5657 00bd 56e1 943c 98f1 1fbc
000000b0: d166 203d a056 1d3c 9d43 bdbc 1a78 d23c
000000c0: 42c3 9e3c a045 db3a c026 4ebc 2c17 253c
000000d0: 6916 3f3d 086b 3b3c f412 32bc 52a7 973c
000000e0: ac28 69bc 400f 1cba baaa 3abd c027 3a3c
000000f0: 00b3 29bd f762 c6bc 40d1 4bbd 6048 093c
00000100: b42e 68bc a587 4cbd a87e 66bc 744d 6f3c
00000110: 9485 3a3c e2af 993c 20a2 273c 303d 3e3b
00000120: ed01 28bd 3143 383d d0e5 293b a874 09bc
00000130: b069 5fbb 71e2 3d3d 9ddf 0e3d 75ac 0e3d
00000140: 9053 eebb 31f4 413d a88f 833b b605 23bd
00000150: 3fa3 0b3d 531c 033d 9e5b ec3c cfe4 3ebd
00000160: a8f1 c3bb 315c 253d 3e86 b23c 0497 88bc
00000170: e8bf 43bc ec59 67bc 983e fdbb ed5a c1bc
00000180: d8aa 1fbd 027b 893c 54df 79bc 282a fe3b
00000190: 0c55 02bc 112a 073d 18cb 4abd 02e3 1bbd
000001a0: 82ba e73c 2a5f cc3c 9e99 b23c a0b2 213c
000001b0: 5834 46bd 9179 293d b155 033d 28fa c2bb
000001c0: 0091 063c 7162 183d 1488 453c e734 b6bc
000001d0: 6830 69bc 33f8 ecbc b755 4bbd 0693 8b3c

weight f4 [84, 120]
0.04262851 0.06005311 -0.016524844 -0.016212218 -0.0096914545 0.004829511 -0.007376805 0.01448933
0.08908546 -0.06546524 -0.030589852 0.042296916 0.0686789 0.064002275 -0.0076822415 0.00637614
0.01459977 0.07544334 0.0020802245 -0.011158414 0.038503498 0.063964546 0.027228482 -0.048980594
0.08773847 -0.019033082 0.07274188 -0.035536487 0.046786845 0.07747491 -0.0004805103 -0.0341562
0.05551912 0.06935257 0.06325482 0.066836834 9.134412e-05 -0.0058983415 0.087228894 0.07180013
0.05394277 -0.056454524 0.022159122 -0.029307462 -0.088500194 -0.0693566 -0.036928143 -0.053100795
0.08376193 0.06838432 0.028463207 0.009118862 -0.01215297 0.060545012 0.059194326 -0.050690774
-0.04214779 -0.088977896 -0.06816889 0.029757373 -0.05860719 -0.04604222 0.04024686 0.022468112
-0.08725123 -0.04864416 0.07630004 0.09128331 -0.054006048 -0.08571492 0.012696549 -0.069569334
-0.0028277338 -0.08128514 -0.03261092 0.033260673 0.017145768 -0.085119225 -0.020402648 -0.009213068
0.05309932 0.046694204 0.008664615 -0.02292896 -0.023292944 0.04840544 -0.024426907 -0.074453406
0.06390524 -0.041231796 0.034263745 -0.04633198 0.043654665 -0.0035658926 0.017830938 0.07437748
-0.050475534 0.076169714 -0.039543163 0.0051062033 0.08902657 -0.090844825 -0.027920417 -0.01093813
-0.03309039 -0.078662634 -0.0058392957 0.00803943 0.021627627 -0.066407196 -0.0661024 0.036075145
0.07620251 0.031429313 -0.0040034205 0.030375667 0.05593264 -0.050850485 -0.052273992 -0.021770738
-0.06742257 -0.020914122 -0.0804148 0.011243984 0.07286365 -0.0712633 0.02095069 -0.02551122
-0.053127542 -0.0868456 -0.017663121 0.07526338 -0.044939615 -0.042942446 -0.02884226 -0.051780276
-0.06100782 0.07477133 0.049323276 0.0055451617 0.078342974 -0.03144028 -0.090210244 0.040135935
-0.04665612 -0.08288898 0.06846523 0.0020750389 0.075373486 0.06337409 -0.09128575 0.07782127
-0.037387658 -0.07601473 0.068449154 -0.08812724 0.04146616 -0.061514836 0.056041643 -0.0418832
-0.015924558 -0.01260858 0.06901902 -0.06027679 -0.050243165 0.07768965 0.0077493936 0.055263683
-0.07487124 0.0030336305 0.06251614 0.024137735 -0.07571834 -0.07089304 -0.014983557 0.03799215
-0.083872765 -0.08047359 0.03642246 -0.043486398 0.053760648 0.049666807 -0.062822886 -0.09068135
-0.041597147 0.0833953 -0.030841485 0.07011525 0.054204836 0.03002578 -0.032114577 0.05231674
0.04122381 0.008741595 -0.034336478 0.07939677 -0.039914455 0.012842916 -0.014246836 0.056447357
0.046708837 0.07048379 -0.016738668 0.04525405 0.07972047 0.07568669 -0.01647012 -0.03736637
0.07497206 -0.038054753 -0.06921269 -0.0417304 0.0077133924 0.030962616 0.0120937675 0.06180422
0.033760354 -0.057753205 0.027861863 -0.0690639 0.008893296 -0.030476492 -0.05216317 0.09093663
0.024322413 -0.049278278 -0.049094714 -0.06286265 -0.06737694 -0.009359635 0.049297974 0.01589495
-0.086327925 0.05344458 0.07377893 -0.034794763 0.06851055 0.052654818 0.07297464 -0.087685585
-0.07204521 -0.029334288 0.07505195 -0.08353304 -0.0069546327 -0.0123413205 -0.026037171 -0.0506387
-0.00818982 0.0064179823 0.05770415 -0.0023351088 0.021296278 -0.013316743 0.019517168 -0.068176195
00000000: 3c9b 2e3d 40fa 753d 1c5f 87bc 7ccf 84bc
00000010: e8c8 1ebc e040 9e3b 20b9 f1bb a864 6d3c
00000020: 7072 b63d a412 86bd 9297 fabc 883f 2d3d
00000030: 86a7 8c3d a013 833d 50bb fbbb f0ee d03b
00000040: e033 6f3c 0a82 9a3d 6054 083b c8d1 36bc
00000050: d8b5 1d3d d8ff 823d 440e df3c e09f 48bd
00000060: 3ab0 b33d 44eb 9bbc b2f9 943d b58e 11bd
00000070: 90a3 3f3d 2aab 9e3d 00ed fbb9 5fe7 0bbd
00000080: 0468 633d b808 8e3d be8b 813d c0e1 883d
00000090: 0090 bf38 e046 c1bb 10a5 b23d f20b 933d
000000a0: 18f3 5c3d dc3c 67bd 0c87 b53c 3416 f0bc
000000b0: 973f b5bd d50a 8ebd f741 17bd 3880 59bd
000000c0: 608b ab3d 140d 8c3d ac2b e93c 4867 153c
000000d0: 401d 47bc 0cfe 773d c075 723d 21a1 4fbd
000000e0: 29a3 2cbd 0b3a b6bd 229c 8bbd bcc5 f33c
000000f0: 180e 70bd c496 3cbd e4d9 243d 0c0f b83c
00000100: c6b0 b2bd 193f 47bd 3243 9c3d bef2 ba3d
00000110: 7235 5dbd 4e8b afbd 3005 503c 5e7a 8ebd
00000120: 8051 39bb d378 a6bd 0793 05bd 583c 083d
00000130: 4875 8c3c fd52 aebd 7423 a7bc 68f2 16bc
00000140: ac7e 593d 6c42 3f3d 08f6 0d3c 84d5 bbbc
00000150: d8d0 bebc c844 463d f01a c8bc 077b 98bd
00000160: c0e0 823d ace2 28bd 2458 0c3d 9ac6 3dbd
00000170: 3ccf 323d c0b1 69bb 3012 923c 3853 983d
00000180: 6fbf 4ebd defe 9b3d 03f8 21bd f051 a73b
00000190: 9053 b63d da0c babd 5cb9 e4bc d835 33bc
000001a0: ca89 07bd e019 a1bd 9057 bfbb d0b7 033c
000001b0: 6c2c b13c 7f00 88bd b260 87bd 88c3 133d
000001c0: 1010 9c3d 06bc 003d 202f 83bb 64d6 f83c
000001d0: a019 653d 9948 50bd 411d 56bd 8c58 b2bc
000001e0: d814 8abd 1854 abbc 84b0 a4bd b038 383c
000001f0: 8a39 953d 7ef2 91bd c8a0 ab3c e8fc d0bc
00000200: 449c 59bd 1bdc b1bd 40b2 90bc b023 9a3d
00000210: 9a12 38bd 6be4 2fbd 9a46 ecbc 8e17 54bd
00000220: 56e3 79bd b621 993d 3407 4a3d 30b4 b53b
00000230: 4872 a03d 86c7 00bd 26c0 b8bd 9465 243d
00000240: 7d1a 3fbd b3c1 a9bd 8037 8c3d 60fd 073b
00000250: 6a5d 9a3d 46ca 813d 06f4 babd c260 9f3d
00000260: cd23 19bd 9cad 9bbd 122f 8c3d 0e7c b4bd
00000270: 6cd8 293d fbf6 7bbd ec8b 653d b88d 2bbd
00000280: 3874 82bc 3894 4ebc d859 8d3d cce4 76bd
00000290: c7cb 4dbd c01b 9f3d a0ee fd3b 2c5c 623d
000002a0: 1856 99bd e0cf 463b 7608 803d 80bc c53c
000002b0: 3812 9bbd 5f30 91bd 987d 75bc a89d 1b3d
000002c0: 7cc5 abbd 56cf a4bd b82f 153d cb1e 32bd
000002d0: 2034 5c3d 6c6f 4b3d 49a9 80bd 25b7 b9bd
000002e0: c561 2abd 28cb aa3d 48a7 fcbc 9698 8f3d
000002f0: e405 5e3d a0f8 f53c 938a 03bd 144a 563d
00000300: 4cda 283d e838 0f3c 68a4 0cbd c69a a23d
00000310: 577d 23bd 186b 523c 906b 69bc 5835 673d
00000320: c451 3f3d ce59 903d 881f 89bc 505c 393d
00000330: 7c44 a33d a001 9b3d 58ec 86bc 7b0d 19bd
00000340: f48a 993d 4ddf 1bbd 62bf 8dbd 7fed 2abd
00000350: a0c0 fc3b 50a5 fd3c f024 463c 6c26 7d3d
00000360: 4c48 0a3d a08e 6cbd 903e e43c 6071 8dbd
00000370: 30b5 113c d6a9 f9bc 0ca9 55bd fc3c ba3d
00000380: cc3f c73c 05d8 49bd 8a17 49bd 22be 80bd
00000390: ecfc 89bd 2859 19bc acec 493d 2036 823c
000003a0: b2cc b0bd b4e8 5a3d 6819 973d f484 0ebd
000003b0: 424f 8c3d 94ac 573d ba73 953d 8094 b3bd
000003c0: 708c 93bd 764e f0bc d6b4 993d 5f13 abbd
000003d0: b0e3 e3bb 4033 4abc e84b d5bc 876a 4fbd
000003e0: 982e 06bc f04d d23b 305b 6c3d a008 19bb
000003f0: 8875 ae3c 782e 5abc 78e2 9f3c f69f 8bbd

bias f4 [84]
0.07270713 0.0016736463 -0.0561967 0.0033795834 0.015400253 -0.055183847 -0.07151422 -0.024798907
-0.08287816 0.07473755 -0.043448266 -0.04261448 -0.072416596 -0.037043408 0.06892353 -0.039217792
0.06087096 0.06032522 -0.060297556 -0.026517488 -0.038406465 0.0028841048 0.042028546 -0.06619725
0.08801761 -0.003414452 -0.06485118 0.01734674 -0.053194642 -0.07884477 0.06631197 -0.074454375
0.015709832 -0.059083704 -0.07767378 0.040490374 0.00923834 0.0063134655 0.0056656897 0.08152692
0.014616303 0.031429216 -0.02833116 -0.062403962 -0.048274256 0.025846481 -0.021537915 0.02106423
-0.0004453361 -0.0741487 -0.07326671 0.041356653 -0.00054799765 -0.015375823 -0.04207146 0.044591933
-0.046835653 -0.0080906 0.06840032 0.014089003 0.016078137 -0.06406551 0.07448995 -0.06762696
-0.03970003 -0.07135098 0.06058073 -0.024804227 -0.08547808 0.0058786795 -0.016662188 0.005638428
-0.04979661 0.08978821 0.047220707 0.05222535 -0.0059026405 -0.055657987 -0.032217525 -0.058861837
-0.056287516 -0.04847941 0.083288684 0.0428755
00000000: 7ae7 943d 405e db3a 832e 66bd 007c 5d3b
00000010: 5851 7c3c 7508 62bd 0c76 92bd 1427 cbbc
00000020: 06bc a9bd 0010 993d cff6 31bd 858c 2ebd
00000030: 274f 94bd d4ba 17bd c827 8d3d d6a2 20bd
00000040: d453 793d 9417 773d 92fa 76bd 343b d9bc
00000050: 1950 1dbd 4003 3d3b 2026 2c3d 6c92 87bd
00000060: 9442 b43d 00c5 5fbb b2d0 84bd c01a 8e3c
00000070: a0e2 59bd 5e79 a1bd 92ce 873d 897b 98bd
00000080: e8b1 803c c101 72bd 6e13 9fbd 3cd9 253d
00000090: 685c 173c 30e1 ce3b 40a7 b93b 96f7 a63d
000000a0: 3879 6f3c ecbb 003d c016 e8bc 4c9b 7fbd
000000b0: 3abb 45bd 00bc d33c 4870 b0bc e48e ac3c
000000c0: 007c e9b9 46db 97bd db0c 96bd 9865 293d
000000d0: 80a7 0fba e0ea 7bbc 2053 2cbd 08a6 363d
000000e0: bed6 3fbd 708e 04bc 7815 8c3d 90d5 663c
000000f0: 4cb6 833c c734 83bd 308e 983d 0180 8abd
00000100: 809c 22bd 7620 92bd 8023 783d 3c32 cbbc
00000110: 220f afbd f0a1 c03b 247f 88bc 90c2 b83b
00000120: 88f7 4bbd e2e2 b73d 806a 413d 40ea 553d
00000130: f06a c1bb a1f9 63bd 86f6 03bd 1c19 71bd
00000140: bd8d 66bd 5992 46bd 4293 aa3d 389e 2f3d

weight f4 [10, 84]
0.05920864 0.10312078 0.10512494 -0.06172722 0.027145915 -0.050364878 -0.06352946 -0.08865129
-0.09769669 -0.06265107 0.0636226 0.049713917 0.044008814 0.03871218 -0.058281727 0.0017390847
0.103308775 -0.065543115 -0.0065053925 -0.0712343 0.05995276 -0.069088 -0.016728804 -0.033644237
-0.014174201 0.10652188 -0.08913271 0.07811155 0.07611453 0.085027896 0.10581759 -0.06456971
0.03224372 0.07077729 0.102370255 -0.045355886 -0.040559784 -0.043667875 -0.07535973 0.07641461
0.05110056 -0.10074737 0.076180734 -0.038777992 0.07945087 -0.0036211312 -0.009689793 -0.07886011
-0.053530592 0.065877475 -0.067469575 0.061000414 -0.0828799 0.01726871 0.027332343 -0.017467484
-0.03665258 -0.03583125 -0.105626 -0.10115312 0.04515692 0.0998851 0.0032684281 0.10843644
-0.034172542 0.105129205 0.07975008 -0.05365928 0.034044407 -0.019340679 0.012417816 -0.079288
0.061823852 0.09953409 -0.09828095 0.017478414 -0.047468994 -0.044889495 0.01050546 -0.0049462914
-0.02325742 -0.07062782 -0.032235935 -0.051067818 0.06551189 -0.07675721 -0.09148927 -0.037075855
0.020096086 0.046617813 0.00965903 -0.057229087 -0.03768398 0.016973816 -0.07109332 0.06754238
-0.09226717 0.0497526 0.10392652 -0.030489244 -0.06508949 -0.0060790107 0.08658505 0.002653554
0.037561186 -0.0635816 0.096368514 0.041314654 0.009639144 0.10077236 0.042702354 -0.08241625
-0.06446212 0.05149495 0.10830913 0.062195666 0.035760887 -0.07136673 -0.092912994 -0.06472191
0.008651353 -0.098191224 0.10449264 0.067650996 -0.034866832 0.053842284 -0.091409415 -0.0050625056
0.08970561 -0.086879015 0.06700715 -0.10164361 0.0032907873 -0.009966411 0.029666029 -0.028971083
0.08251429 -0.00096497685 0.061962344 -0.101347 -0.027211018 0.087793745 0.07554855 0.07536442
-0.10408124 0.023704208 -0.014846183 0.102454595 0.08314552 0.10117822 0.056397967 0.08812668
-0.033543214 0.033709936 -0.047592454 0.053785257 -0.030247249 -0.06982523 0.05274742 0.0969786
0.08877369 -0.019067764 0.026761241 -0.020136163 0.035910584 0.049169816 -0.040731117 0.061088182
-0.035908565 -0.024251983 0.058567934 0.09618635 0.10235343 0.06029039 0.023433723 0.039461814
-0.06423032 0.086590104 -0.068589814 0.09289969 0.094295345 0.026849918 -0.096968725 0.019088112
-0.10269256 -0.105725355 -0.07603874 0.10482446 0.07536251 -0.01398693 -0.011416391 0.028761439
0.06662648 0.041522272 -0.039586537 0.023896359 0.0731406 0.08606101 0.08785536 -0.050594397
0.07001666 -0.07522881 -0.03318543 -0.09099646 0.06928644 -0.0556417 -0.004785344 -0.077506155
-0.0293115 0.048151426 -0.02697523 0.011678092 -0.07627387 0.045217447 0.022062697 0.10879909
-0.044086486 -0.015080854 -0.011840664 0.013321072 -0.06182621 -0.08786756 0.03534857 0.09813232
0.042916782 -0.07971492 -0.08778128 0.09790533 -0.06741732 0.030487053 0.043896653 0.09327004
-0.010784924 0.09957654 0.029987939 0.07332546 0.015998162 -0.018112838 0.049119763 0.09263568
-0.05424815 0.100218214 -0.009933069 -0.03568384 0.084914975 -0.07136619 0.09676964 0.03397485
-0.040593795 -0.00821498 0.06841924 -0.02603656 -0.050145753 -0.01450634 -0.035668537 -0.01987736
00000000: c284 723d fd30 d33d bf4b d73d aed5 7cbd
00000010: 1c61 de3c 674b 4ebd bc1b 82bd cf8e b5bd
00000020: 3415 c8bd 344f 80bd 914c 823d d2a0 4b3d
00000030: 9642 343d aa90 1e3d d2b8 6ebd 00f2 e33a
00000040: 8d93 d33d 783b 86bd 302b d5bb 4ae3 91bd
00000050: 0691 753d 027e 8dbd d80a 89bc 8ace 09bd
00000060: e83a 68bc 2528 da3d 368b b6bd f3f8 9f3d
00000070: efe1 9b3d 1b23 ae3d e5b6 d83d 203d 84bd
00000080: fe11 043d aff3 903d 7fa7 d13d 18c7 39bd
00000090: 0422 26bd 16dd 32bd 3456 9abd 437f 9c3d
000000a0: d24e 513d a354 cebd a504 9c3d acd5 1ebd
000000b0: 23b7 a23d 8050 6dbb f0c1 1ebc 6981 a1bd
000000c0: e542 5bbd c5ea 863d 7d2d 8abd 92db 793d
000000d0: f0bc a9bd 1c77 8d3c 14e8 df3c f817 8fbc
000000e0: 0421 16bd cac3 12bd 7252 d8bd 5e29 cfbd
000000f0: 76f6 383d 8f90 cc3d 2033 563b ed13 de3d
00000100: 82f8 0bbd fb4d d73d 0354 a33d d5c9 5bbd
00000110: 2672 0b3d 5870 9ebc 1874 4b3c bf61 a2bd
00000120: 023b 7d3d 87d8 cb3d 8647 c9bd e42e 8f3c
00000130: d96e 42bd 0cde 37bd 181f 2c3c 8014 a2bb
00000140: 5886 bebc 52a5 90bd d409 04bd 7d2c 51bd
00000150: 192b 863d e232 9dbd ba5e bbbd dadc 17bd
00000160: 8ca0 a43c 52f2 3e3d e840 1e3c 0c69 6abd
00000170: 845a 1abd ac0c 8b3c 6099 91bd a953 8a3d
00000180: 92f6 bcbd 62c9 4b3d 6dd7 d43d 94c4 f9bc
00000190: a34d 85bd 7032 c7bb 8153 b13d 40e7 2d3b
000001a0: c2d9 193d 1237 82bd db5c c53d 8e39 293d
000001b0: 80ed 1d3c bd61 ce3d aae8 2e3d dac9 a8bd
000001c0: b704 84bd 5eec 523d 2dd1 dd3d e2c0 7e3d
000001d0: 027a 123d b828 92bd 2b49 bebd ec8c 84bd
000001e0: 68be 0d3c 7b18 c9bd 3d00 d63d 9b8c 8a3d
000001f0: 86d0 0ebd ba89 5c3d dc34 bbbd 60e3 a5bb
00000200: 93b7 b73d a0ed b1bd 0b3b 893d 862a d0bd
00000210: 40aa 573b 284a 23bc 2c06 f33c c454 edbc
00000220: 41fd a83d 80f6 7cba 3acc 7d3d 048f cfbd
00000230: a4e9 debc 35cd b33d 33b9 9a3d a958 9a3d
00000240: 8c28 d5bd 542f c23c 683d 73bc b7d3 d13d
00000250: 3348 aa3d 8736 cf3d 8e01 673d c37b b43d
00000260: 9c64 09bd 6e13 0a3d 4ef0 42bd ee4d 5c3d
00000270: 14c9 f7bc 8800 8fbd ae0d 583d b79c c63d
00000280: fbce b53d 0034 9cbc 643a db3c 98f4 a4bc
00000290: fa16 133d 4a66 493d acd5 26bd 9a37 7a3d
000002a0: dc14 13bd 18ac c6bc eee4 6f3d 59fd c43d
000002b0: ad9e d13d 0ef3 763d 14f8 bf3c b6a2 213d
000002c0: 308b 83bd 2756 b13d d178 8cbd 3142 be3d
000002d0: eb1d c13d 5cf4 db3c 8a97 c6bd ac5e 9c3c
000002e0: 7a50 d2bd 8986 d8bd 33ba 9bbd 35ae d63d
000002f0: a957 9a3d 7029 65bc d00b 3bbc 1c9d eb3c
00000300: 7773 883d 4213 2a3d 7e25 22bd 4cc2 c33c
00000310: bdca 953d c140 b03d 83ed b33d 123c 4fbd
00000320: e564 8f3d 9011 9abd 72ed 07bd 5a5c babd
00000330: 0de6 8d3d 8de8 63bd 60ce 9cbb 8cbb 9ebd
00000340: ac1e f0bc 6e3a 453d 28fb dcbc 7855 3f3c
00000350: 7a35 9cbd ee35 393d d4bc b43c 0fd2 de3d
00000360: 0894 34bd b015 77bc 58ff 41bc a040 5a3c
00000370: 7b3d 7dbd e8f3 b3bd aac9 103d 99f9 c83d
00000380: 82c9 2f3d 9341 a3bd acc6 b3bd 9782 c83d
00000390: 1812 8abd fcbf f93c facc 333d 5d04 bf3d
000003a0: 40b3 30bc c9ee cb3d 44a9 f53c a92b 963d
000003b0: 940e 833c 6061 94bc ce31 493d c7b7 bd3d
000003c0: 4f33 5ebd 353f cd3d 50be 22bc 3829 12bd
000003d0: e7e7 ad3d 7028 92bd 292f c63d 3629 0b3d
000003e0: ae45 26bd 2098 06bc 631f 8c3d a04a d5bc
000003f0: a265 4dbd 00ac 6dbc 2c19 12bd d8d5 a2bc

bias f4 [10]
0.06969861 0.0952565 0.06226317 0.045207806 -0.014794804 -0.06830101 -0.10540352 0.088528
0.0653645 -0.09934149
00000000: 25be 8e3d d715 c33d aa07 7f3d d22b 393d
00000010: e865 72bc 66e1 8bbd cddd d7bd 2b4e b53d
00000020: d3dd 853d 8d73 cbbd
