seq2seq/no_agreement_1.pt (torch_old, 249430 bytes, 10 tensors)

conv1.weight f4 [6, 3, 5, 5]
0	0xbd82eeb8	-0.06393188
1	0x3de01292	0.10941042
2	0x3d10a510	0.035313666
3	0x3da73982	0.081652656
4	0x3cb2d978	0.021832213
5	0xbdd2a67a	-0.10285659
6	0x3dc55264	0.096348554
7	0xbd341920	-0.043969274
8	0x3c8c4720	0.017123759
9	0x3de92c02	0.11385347
10	0xbde713a9	-0.11283047
11	0x3a859e80	0.0010194331
12	0x3d18eae8	0.0373334
13	0x3d75d620	0.06001866
14	0xbd74ea76	-0.059793912
15	0xbd1a1f3c	-0.037627444
16	0xbd8fe63d	-0.07026336
17	0xbd91a127	-0.071108155
18	0xbde92277	-0.11383527
19	0xbc2c9910	-0.01053454
20	0xbcb175e8	-0.021662667
21	0xbddaada4	-0.106776506
22	0x3ddb9982	0.10722639
23	0xbc4637f0	-0.0120982975
24	0x3dd49334	0.10379639
25	0xbd9d7d66	-0.076899335
26	0xbde5dcc4	-0.11223748
27	0x3cca8ca0	0.024725258
28	0xbd5a3b9a	-0.053279497
29	0xbdd20a82	-0.102559105
30	0x3d725c34	0.059169963
31	0x3ca0bed8	0.019622251
32	0xbdc6bb1e	-0.097036585
33	0xbc8396bc	-0.016063087
34	0xbdb312b9	-0.087438054
35	0xbbadb7e0	-0.0053014606
36	0xbca107b4	-0.019656993
37	0xbdd72641	-0.10505343
38	0x3c2f9a40	0.010717928
39	0x3db6aacc	0.08919296
40	0x3cbec480	0.023287058
41	0xbdbe5588	-0.092936575
42	0x3d677e58	0.056516975
43	0x3d7c77ac	0.061637565
44	0xbdec08a2	-0.11525084
45	0x3c9fa700	0.019488811
46	0xbdc973c5	-0.098365344
47	0xbdb8b560	-0.090189695
48	0xbdc5e3c6	-0.09662585
49	0xbde10bbd	-0.10988567
50	0xbd228432	-0.039676853
51	0xbdac0d05	-0.08400921
52	0xbd9a4fc0	-0.07534742
53	0xbd786df9	-0.060651753
54	0xbc8f3350	-0.017480522
55	0xbd84c01b	-0.06481954
56	0xbc6f5030	-0.0146065205
57	0xbd9258b1	-0.07145823
58	0x3bf13ef0	0.007362239
59	0x3dad4998	0.084613025
60	0x3cb50020	0.022094786
61	0x3dca6b9e	0.098838076
62	0xbdd35bf6	-0.103202745
63	0xbd5e4251	-0.054262463
64	0xbda9d94a	-0.08293398
65	0x3c64b390	0.013958827
66	0x3daec268	0.08533174
67	0xbd968374	-0.073492914
68	0xbcd68090	-0.02618435
69	0x3d8323f8	0.06403345
70	0x3dd4ec00	0.10396576
71	0xbdeac7ba	-0.11463876
72	0x3dc371e8	0.0954321
73	0x3d15e508	0.036595374
74	0xbd61427f	-0.054995056
75	0xbd2cb118	-0.042161077
76	0xbc626b70	-0.01381956
77	0xbd1b2ec8	-0.03788641
78	0x3de09c78	0.10967344
79	0x3d374908	0.044747382
80	0x3c5fcbf0	0.013659462
81	0xbdc0a77d	-0.09406946
82	0xbc9ea0d4	-0.019363798
83	0xbc30c348	-0.010788746
84	0xbdb2ec40	-0.08736467
85	0xbda78c92	-0.081811085
86	0xbd43caf8	-0.047800988
87	0xbda94cd2	-0.082666054
88	0xbd1e4cf8	-0.038647622
89	0xbc8fb600	-0.017542839
90	0xbd547064	-0.051864997
91	0x3d03373c	0.032035097
92	0x3d1dc6d8	0.03851971
93	0x3d4d3c40	0.050106287
94	0xbce3c4f8	-0.027803883
95	0x3cf9cfd0	0.0304946
96	0x3d71003c	0.058838114
97	0x3db695c8	0.08915287
98	0x3d7f4200	0.062318802
99	0xbb9472d0	-0.0045302883
100	0xbb027cc0	-0.0019910783
101	0xbcea4e64	-0.028601833
102	0x3c842d88	0.016134992
103	0xbd3744ea	-0.044743456
104	0x3cbd5390	0.023111135
105	0x3da6eaf0	0.081502795
106	0xbda1b814	-0.07896438
107	0x3db4abc6	0.08821826
108	0x3cf78658	0.030215427
109	0x3dda2420	0.106514215
110	0xbd3057b6	-0.043052398
111	0x3d180500	0.037114143
112	0x3de7750a	0.1130162
113	0x3c236ff0	0.009975418
114	0x3c32cdc0	0.010913312
115	0xbd8ab854	-0.06773439
116	0x3b211560	0.002457939
117	0x3dc69470	0.09696281
118	0xbc003de0	-0.007827252
119	0x3da18780	0.07887173
120	0xbddbde39	-0.10735745
121	0xbd488862	-0.04895819
122	0x3c475fc0	0.012168825
123	0x3d0b69ec	0.03403656
124	0x3dbbe580	0.09174633
125	0xbcfeb1b8	-0.031090602
126	0xbdaa8650	-0.08326399
127	0x3d35dd64	0.044400588
128	0xbc74c678	-0.014939897
129	0xbd77c41e	-0.060489766
130	0x3c6d4400	0.0144815445
131	0xbdd18a92	-0.10231508
132	0x3d846f88	0.064665854
133	0x3cd1e6c0	0.025622725
134	0x3d3e7ba8	0.046504647
135	0xbd118982	-0.03553153
136	0x3d485b54	0.048915222
137	0xbcb86a30	-0.022511572
138	0xbdba50d3	-0.09097447
139	0x3da027e8	0.078201115
140	0xbde71c2f	-0.112846725
141	0x39a2e800	0.000310719
142	0x3db615a4	0.08890846
143	0x3d8224ae	0.06354652
144	0x3d8380d4	0.064210564
145	0x3d074edc	0.03303419
146	0xbca74a48	-0.020421162
147	0xbd79e05c	-0.06100498
148	0x3daca5cc	0.08430061
149	0x3d0605dc	0.03272043
150	0x3d98233a	0.07428594
151	0xbd0db422	-0.034595616
152	0xbd79a3aa	-0.060947098
153	0x3d9b3afc	0.0757961
154	0x3cd02c30	0.025411695
155	0xbcc37758	-0.023860618
156	0xbd949b7c	-0.07256219
157	0x3cfef290	0.031121522
158	0x3dd75e86	0.10516076
159	0x3d6af4f4	0.05736251
160	0xbd8555b2	-0.06510486
161	0x3da8520a	0.08218773
162	0x3dd45b98	0.103690326
163	0xbd886818	-0.06660479
164	0xbdd15106	-0.10220532
165	0x3d7d0890	0.061775744
166	0x3da66e8c	0.08126554
167	0x3d82260e	0.063549146
168	0x3cb9f068	0.022697642
169	0x3d4acf6c	0.04951422
170	0xbdddebe3	-0.108360074
171	0x3d6b34e0	0.057423472
172	0xbd01bbe2	-0.03167332
173	0xbc3edba8	-0.01164905
174	0x3dd388b6	0.1032881
175	0xbdc2fc27	-0.095207505
176	0x3da7c2da	0.08191462
177	0xbc0d0d00	-0.0086090565
178	0x3dd1e0e6	0.10247974
179	0x3d817692	0.063214436
180	0xbc186bc0	-0.009303033
181	0xbd9397e3	-0.072067045
182	0xbd325d30	-0.0435459
183	0xbda4f691	-0.08054841
184	0xbdceeddd	-0.101039626
185	0xbd1ac3b6	-0.0377843
186	0xbd6f51c5	-0.05842759
187	0x3cf02c70	0.029318064
188	0xbdc554a2	-0.09635283
189	0x3cbcf1c0	0.023064494
190	0xbdd9d491	-0.10636247
191	0xbda11e38	-0.07867092
192	0x3d428694	0.047491625
193	0x3d9cc3f0	0.076545596
194	0xbd601ace	-0.054713063
195	0xbdb0a034	-0.08624306
196	0x3d32cf2c	0.043654606
197	0xbd5a7697	-0.053335752
198	0xbcf66d30	-0.030081362
199	0xbd030c2e	-0.031994037
200	0xbd0132de	-0.03154265
201	0xbdd47df1	-0.10375584
202	0xbde2affb	-0.11068722
203	0xbd26774a	-0.040641107
204	0xbbdc1870	-0.0067167804
205	0xbcdfb3fc	-0.027307503
206	0xbda6f028	-0.08151275
207	0xbd959038	-0.07302898
208	0x3d956100	0.07293892
209	0xbddcf7b8	-0.10789436
210	0x3daf0708	0.08546263
211	0x3d851828	0.06498748
212	0x3dbedc5e	0.093193755
213	0x3d0c7750	0.034293473
214	0x3d75d0d0	0.060013592
215	0x3cb804f0	0.022463292
216	0x39ad4100	0.0003304556
217	0xbcde9534	-0.027170755
218	0x3d8b7920	0.06810212
219	0xbcd2f6b4	-0.025752403
220	0x3b8f2f40	0.0043696463
221	0xbd42074e	-0.047370248
222	0x3dd61dfe	0.10454939
223	0x3d81fa56	0.06346576
224	0xbc81b524	-0.015833445
225	0xbdae3c3c	-0.085075825
226	0x3d6d49b8	0.05793163
227	0xbd3c2db4	-0.045942023
228	0xbdd2e4f6	-0.10297577
229	0xbcdbb714	-0.026820697
230	0xbc0f1750	-0.0087335855
231	0x3dce24f6	0.100656435
232	0x3cc7e798	0.024402425
233	0x3de9ea00	0.11421585
234	0xbd6cba40	-0.05779481
235	0xbd9c2474	-0.076241404
236	0x3dcbf4e0	0.099588156
237	0x3d19b854	0.037529305
238	0xbdb0efc8	-0.08639485
239	0xbd04d72c	-0.032431766
240	0xbcd06400	-0.025438309
241	0xbdbe4b45	-0.092917
242	0x3a171a80	0.00057641417
243	0xbc3dbb70	-0.011580333
244	0x3d836878	0.0641641
245	0x3de7167e	0.11283587
246	0x3da33aba	0.079701856
247	0x3d8a193e	0.06743096
248	0x3d90481a	0.07045002
249	0x3d172e78	0.03690955
250	0x3b25dac0	0.0025307387
251	0xbc277160	-0.010219902
252	0xbca0d5e8	-0.019633248
253	0x3db6b39a	0.08920975
254	0xbdbf5056	-0.09341495
255	0xbdbef728	-0.09324485

conv1.bias f4 [6]
0	0xbd2dfeee	-0.042479448
1	0xbcd26414	-0.025682487
2	0x3c8edfe0	0.017440736
3	0x3dd5f860	0.104477644
4	0xbdcbde40	-0.099545
5	0x3c8b4598	0.017000958

conv2.weight f4 [16, 6, 5, 5]
0	0xbcfd7d22	-0.030943457
1	0xbd27058a	-0.040776767
2	0x3ce5aa78	0.028035387
3	0xbd5b6726	-0.053565167
4	0x3c6eff78	0.014587276
5	0x3d9ed8a8	0.07756168
6	0x3c8cd25c	0.01719015
7	0xbd9b2fc8	-0.07577473
8	0x3d88e0b2	0.06683482
9	0xbd74b84e	-0.05974608
10	0x3ce4f874	0.027950503
11	0x3d39efdc	0.045394763
12	0x3b8796c0	0.004137844
13	0x3d153fe0	0.03643787
14	0x3cccefb0	0.025016636
15	0x3d25384c	0.040336892
16	0x3bd95450	0.0066323653
17	0xbc077518	-0.008267663
18	0x3d60ac14	0.054851606
19	0x3ca0c9b8	0.019627437
20	0x3d841c1a	0.064506724
21	0xbd556a4a	-0.05210332
22	0x3d8b1f0a	0.067930296
23	0xbd45eb64	-0.04832019
24	0xbd86e1bc	-0.06586024
25	0x3cc32464	0.023821063
26	0x3d900cfe	0.07033728
27	0xbd8d53d1	-0.06900752
28	0xbd4bc566	-0.0497488
29	0x3bf8db40	0.007594496
30	0x3d90c6d6	0.07069175
31	0x3b7d0940	0.003861025
32	0xbd899836	-0.06718485
33	0x3d5e7e70	0.0543198
34	0x3d577130	0.05259818
35	0xbd86da7a	-0.0658464
36	0x3d660bbc	0.056163535
37	0x3d9b164a	0.07572611
38	0x3da09580	0.07841015
39	0x3c1d76d0	0.009610847
40	0x3d93e91a	0.07222195
41	0x3d4f5724	0.050620213
42	0xbd8065b8	-0.06269401
43	0x3d0fbc34	0.035091594
44	0x3c7422f8	0.014900915
45	0xbd41e179	-0.047334168
46	0x3d1e348a	0.038624324
47	0xbd9ad755	-0.075606026
48	0xbd9fef3e	-0.07809304
49	0x3d150656	0.036382996
50	0xbd06b5e8	-0.032888323
51	0x3c98c620	0.01864916
52	0xbd7b2b40	-0.061320543
53	0x3c24e3d0	0.01006408
54	0xbd624e5d	-0.055250514
55	0x3a6b0a00	0.00089660287
56	0x3d5953c0	0.053058386
57	0x3c3df928	0.011595048
58	0xbd7e1340	-0.062030077
59	0xbd4dd436	-0.05025121
60	0x3d55c9bc	0.052194342
61	0x3d5fc96c	0.05463545
62	0xbd3ce171	-0.046113435
63	0xbd9b42f8	-0.07581133
64	0xbd3fcf09	-0.046828303
65	0x3d49b3d8	0.049243778
66	0x3d85daec	0.06535897
67	0xbd1d8571	-0.038457338
68	0xbd6ed2f3	-0.058306646
69	0x3d22ab38	0.03971407
70	0xbd2cb9e0	-0.04216945
71	0x3d82c0a8	0.063844025
72	0xbce9b02e	-0.028526392
73	0xbc2731b0	-0.0102047175
74	0xbc609130	-0.01370649
75	0x3d11cae6	0.03559389
76	0xbd387ae1	-0.04503906
77	0x3d9cfe00	0.07665634
78	0x3b966cb0	0.0045905933
79	0x3d9bff9c	0.07617113
80	0x3ce63030	0.02809915
81	0xbd572c62	-0.05253256
82	0xbc2cccf8	-0.010546915
83	0xbd9f8f8e	-0.07791053
84	0xbd539e2f	-0.051664528
85	0x3d788fe0	0.060684085
86	0xbcb157d8	-0.021648332
87	0x3d5d9a48	0.054102212
88	0xbd2daedd	-0.04240309
89	0x3d626a7c	0.055277333
90	0xbd6a2694	-0.057165697
91	0x3d5e49ac	0.054269478
92	0x3bde6200	0.006786585
93	0xbd36a652	-0.04459221
94	0x3cc04b8c	0.023473524
95	0x3d236dc6	0.03989961
96	0xbcdd98ac	-0.027050339
97	0x39b05600	0.0003363341
98	0x3da2a612	0.07941832
99	0xbd41c8b1	-0.047310535
100	0x3d705748	0.058676988
101	0x3da2e91c	0.07954618
102	0xbd805db9	-0.06267876
103	0x3b5d7580	0.003379196
104	0x3c89743c	0.016779058
105	0xbd48c9da	-0.049020626
106	0x3d1ed56c	0.038777754
107	0x3d97ac1a	0.07405873
108	0x3be02ca0	0.006841257
109	0x3d0d14c2	0.034443624
110	0x3d40a35c	0.04703079
111	0xbb190820	-0.002335079
112	0xbd32a599	-0.043614957
113	0x3da0b376	0.078467295
114	0x3d4cbec8	0.04998663
115	0x3d213c40	0.0393641
116	0xbd87b71c	-0.06626722
117	0x3d4bfe28	0.04980293
118	0x3d9a761c	0.07542059
119	0xbd0c887c	-0.03430985
120	0x3d9dfe38	0.07714504
121	0xbc2da5a8	-0.010598578
122	0x3c9f3f48	0.019439355
123	0xbd50f114	-0.05101116
124	0xbd74a5e7	-0.05972853
125	0xbd8bcaa1	-0.06825758
126	0x3d9e38a2	0.077256456
127	0xbd232646	-0.039831422
128	0xbda52455	-0.080635704
129	0xbc6256d0	-0.013814643
130	0xbc8fa9f4	-0.017537095
131	0xbce07c0e	-0.027402904
132	0xbd5b36ac	-0.053518936
133	0xbb0b8380	-0.0021288097
134	0xbd8d1939	-0.068895765
135	0x3d9e0b4c	0.077169985
136	0xbd616256	-0.05502542
137	0xbc0d2d08	-0.008616693
138	0x3cb01320	0.021493495
139	0x3d984dfc	0.07436749
140	0x3d9263dc	0.07147953
141	0xbd553c30	-0.052059352
142	0xba2ec200	-0.00066664815
143	0x3da6d42c	0.08145937
144	0xbd293f28	-0.041319996
145	0xbb933500	-0.004492402
146	0x3c092090	0.00836958
147	0xbd8c2d08	-0.068445265
148	0xbd252c69	-0.040325556
149	0xbc83f278	-0.016106829
150	0x3caa911c	0.020821147
151	0xbae71040	-0.0017628744
152	0x3d8734d6	0.066018745
153	0xbd138966	-0.036019705
154	0xbda071aa	-0.0783418
155	0xbc2997c0	-0.010351121
156	0xbd5e9888	-0.054344684
157	0x3bdf66b0	0.006817661
158	0xbd30f787	-0.04320481
159	0xbd4779c8	-0.048700124
160	0xbd8080e6	-0.062745854
161	0xbd92301b	-0.07138082
162	0xbd62b380	-0.055346966
163	0xbcf69530	-0.030100435
164	0xbd598d51	-0.053113285
165	0x3c364bf0	0.011126503
166	0xbda174ba	-0.07883592
167	0x3c8c77fc	0.017147057
168	0x3d8f3608	0.069927275
169	0xbd0f4e95	-0.03498705
170	0x3d4932ac	0.04912059
171	0x3d788164	0.06067027
172	0x3d75ddbc	0.060025916
173	0x3d9da2da	0.07697077
174	0xbd615af2	-0.055018373
175	0x3d0b6df2	0.0340404
176	0x3cdf331c	0.02724605
177	0x3d415100	0.04719639
178	0xbd848086	-0.064698264
179	0x3d9c2526	0.07624273
180	0xbcdac01e	-0.026702937
181	0x3c801d20	0.015638888
182	0x3cfd0720	0.030887187
183	0xbd408abd	-0.04700731
184	0xbd8cde92	-0.068783894
185	0x3c60d520	0.013722688
186	0xbd58183a	-0.05275748
187	0xbd874ffe	-0.06607054
188	0x3da2ac30	0.079429984
189	0x3da1576a	0.07878001
190	0xbccdba7c	-0.025113337
191	0xbd15c0e7	-0.03656092
192	0x3c4bd1e0	0.012440175
193	0xbcb9b9d2	-0.022671614
194	0x3d9c1cba	0.07622667
195	0xbcedee4c	-0.029044293
196	0x3d5a0624	0.053228512
197	0x3c81bfb8	0.015838489
198	0x3bbfea00	0.0058567524
199	0x3d8ceb7e	0.06880854
200	0xbbcfd380	-0.0063423514
201	0x3d2f1daa	0.0427529
202	0xbda3b7d8	-0.0799405
203	0x3d403108	0.04692176
204	0xb937ac00	-0.00017516315
205	0x3da701f2	0.08154668
206	0x3d1bd384	0.038043514
207	0x3c84ef74	0.016227461
208	0xbcafda2c	-0.021466337
209	0x3cbdb8d0	0.023159415
210	0xbce78510	-0.028261691
211	0xbc89a6c4	-0.016803153
212	0xbd825476	-0.06363766
213	0x3cf021ec	0.02931305
214	0xbd82ddaa	-0.06389935
215	0x3c528dd8	0.012851201
216	0xbd73a5fe	-0.059484474
217	0x3c96b58c	0.018397115
218	0xbd02f1da	-0.03196893
219	0xbcb6ef82	-0.022331003
220	0x3c225b18	0.009909414
221	0x3cd9b0a0	0.02657348
222	0xbd9bb54c	-0.07602939
223	0xbd1e633e	-0.038668863
224	0xbc67b5e0	-0.0141424835
225	0x3d03af38	0.032149523
226	0xbc17f658	-0.0092750415
227	0xbd9c3630	-0.07627523
228	0xbc07d3e8	-0.0082902685
229	0x3d95699e	0.072955355
230	0xbd6c2f6a	-0.057662405
231	0x3caa2074	0.020767428
232	0x3cc64140	0.024201035
233	0xbd80bdc5	-0.06286196
234	0xbce17d94	-0.0275257
235	0x3d98612e	0.074404106
236	0x3da494a8	0.080361664
237	0x3b46fd00	0.0030363202
238	0xbda2564f	-0.07926618
239	0x3d9c8910	0.0764333
240	0x3da5ed52	0.08101906
241	0x3cc91e9c	0.024550728
242	0xbd906848	-0.0705114
243	0x3bcde0b0	0.0062828884
244	0x3d5318b8	0.051537246
245	0x3c928fb0	0.017890781
246	0x3d3a8e98	0.045546144
247	0xbd375c74	-0.044765905
248	0xba607980	-0.0008563027
249	0xbd475519	-0.04866514
250	0xbd54603c	-0.05184959
251	0x3d886758	0.06660336
252	0x3d49fd44	0.0493138
253	0xbcbd8f6a	-0.023139674
254	0xbd84fa10	-0.06493008
255	0xbd5315d9	-0.051534507

conv2.bias f4 [16]
0	0xbcb50b10	-0.022100002
1	0x3d956e2a	0.07296403
2	0x3d8b3332	0.06796874
3	0x3d82e18e	0.063906774
4	0xbb1a4960	-0.002354227
5	0xbd751b9f	-0.059840795
6	0x3d54533c	0.05183719
7	0xbbf148f0	-0.007363431
8	0xbc6d6bd8	-0.014491044
9	0x3c959bac	0.018262707
10	0xbd0f79ff	-0.035028454
11	0x3d0c583a	0.034263827
12	0xbd202b83	-0.039103996
13	0x3d8572b0	0.065160155
14	0xbd9399e3	-0.07207086
15	0x3bb995e0	0.0056636184

fc1.weight f4 [120, 400]
0	0xbca2fba3	-0.01989538
1	0x3ce6651e	0.028124388
2	0x3cf63652	0.030055199
3	0xbcca6267	-0.024705125
4	0xbc9d29a0	-0.019184887
5	0x3d37e8d3	0.044899773
6	0x3ca795a2	0.020457093
7	0x3d4ac7e9	0.049507055
8	0x3d0a3995	0.03374632
9	0x3d4a6ecb	0.049422067
10	0x3d43bb81	0.04778624
11	0xbc725b6c	-0.0147923045
12	0x3ab04d40	0.0013450757
13	0x3b4d32a0	0.0031310692
14	0x3d095bbf	0.03353476
15	0x3d41cbe9	0.047313605
16	0xbbea5ee8	-0.007152427
17	0xba3b2b80	-0.0007139966
18	0xbc0b4338	-0.008499913
19	0xbc8da370	-0.017289847
20	0xbd22b33a	-0.039721705
21	0x3c8cb832	0.017177675
22	0xbd36a985	-0.04459526
23	0x3a07d480	0.0005181506
24	0x3cc7d942	0.024395589
25	0xbcb00133	-0.021484947
26	0x3b56cb80	0.0032775104
27	0x3d222291	0.039583746
28	0x3d48640d	0.04892354
29	0xbb1119b0	-0.0022140555
30	0xbcbaa06d	-0.022781575
31	0x3cdcb0b2	0.026939724
32	0x3d127e59	0.035765026
33	0x3cfccb2e	0.030858602
34	0xbc6a3ab4	-0.0142962225
35	0xb8856c00	-6.362051e-05
36	0xbc501634	-0.012700606
37	0x3d402689	0.04691175
38	0xb9fccf00	-0.00048219413
39	0x3c9c2ae6	0.019063424
40	0x3c55b2c4	0.013043109
41	0xbca1b557	-0.01973979
42	0xbcabfbc3	-0.020994073
43	0x3d48baa7	0.04900613
44	0x3d3e0cd1	0.04639894
45	0x3cc459e6	0.023968648
46	0xbd376652	-0.044775315
47	0x3d2b0479	0.041752312
48	0xbd37d29b	-0.044878583
49	0xbad40f40	-0.0016178861
50	0xbc379094	-0.011203904
51	0x3d425369	0.047442827
52	0xbc7df440	-0.015500128
53	0x3c15a26c	0.009132963
54	0xbd22dd30	-0.039761722
55	0xbd22b298	-0.0397211
56	0x3c89f2c2	0.016839389
57	0x39f4ef00	0.00046717376
58	0x3c55cf04	0.013049845
59	0xbc92dc8a	-0.017927427
60	0xbbfff458	-0.0078111105
61	0x3d3f5c0f	0.046718653
62	0x3d249395	0.040179808
63	0xbc6d9e14	-0.014503021
64	0xbd3666df	-0.0445317
65	0xbd2fd82d	-0.04293077
66	0x3ca91112	0.020638023
67	0x3d11e219	0.035616014
68	0xbd3d55cf	-0.04622441
69	0xbd001ad0	-0.03127557
70	0xbd43328b	-0.047655623
71	0xbc044274	-0.008072484
72	0x3cee8b42	0.029119138
73	0xbcb89267	-0.022530748
74	0xbcc5b357	-0.024133367
75	0x3bb249a8	0.0054409094
76	0x3d027e17	0.03185853
77	0x3d36ca73	0.044626664
78	0x3c0594cc	0.008153152
79	0xbb0201b0	-0.0019837432
80	0x3ca77bba	0.02044474
81	0xbcb2a070	-0.021805018
82	0x3c836fe2	0.01604456
83	0xbc6d88ac	-0.014497917
84	0x3d2fb8ff	0.042901035
85	0xbb9e09a8	-0.0048229285
86	0x3d48b005	0.04899599
87	0xbc8f1424	-0.017465658
88	0xbae2a1c0	-0.0017290637
89	0xbd4806f0	-0.04883474
90	0xbd263835	-0.040580947
91	0x3cf487a2	0.029849831
92	0x3d2dfb11	0.042475764
93	0x3d1650a1	0.036697987
94	0x3c99163a	0.018687356
95	0x3d2487d3	0.040168595
96	0x3d483f13	0.048888277
97	0x3cb78e12	0.022406612
98	0x3c97c22a	0.018525202
99	0x3d15d685	0.036581535
100	0x3c814e06	0.015784275
101	0x3c28b854	0.0102978535
102	0xbd192726	-0.03739085
103	0x3d1d704f	0.038437184
104	0x3d3ee41d	0.046604265
105	0xbd1c7066	-0.03819313
106	0x3c760424	0.015015636
107	0xbc955280	-0.018227816
108	0x3ce86e46	0.028372895
109	0xbd11889d	-0.035530675
110	0x3cf5df0a	0.03001358
111	0x3c1edc78	0.0096961185
112	0xbcf4aa1d	-0.029866273
113	0x3c634da4	0.013873491
114	0x3cd6c0b6	0.026214939
115	0xbd03f1dc	-0.032213077
116	0x3befc458	0.007317107
117	0xbc991250	-0.01868549
118	0x3bb82c40	0.0056205094
119	0xbd195c98	-0.03744182
120	0x3d0ebb85	0.0348468
121	0x3c9ae8b6	0.018909793
122	0x3cd599f2	0.026074383
123	0x3b8d5ad8	0.004313808
124	0xbc40376c	-0.011731964
125	0xbd2d2c1b	-0.04227839
126	0xbd1cbfbb	-0.038268786
127	0x3c7eb224	0.015545402
128	0x3c07cd88	0.008288749
129	0x3bc5a698	0.0060318224
130	0x3c492bb8	0.01227849
131	0x3d432cb7	0.047650065
132	0xbd42b7f8	-0.047538728
133	0xbd1626c8	-0.03665808
134	0x3be3b340	0.0069488585
135	0xbcdb1cda	-0.026747156
136	0x3d1fd06d	0.03901713
137	0xbd27b29e	-0.040941827
138	0xbc3dee28	-0.011592425
139	0xbd282bde	-0.04105746
140	0x3af99bc0	0.001904361
141	0x3c485434	0.012227107
142	0xbce4e8dd	-0.02794307
143	0x3c2e6d78	0.010646217
144	0xbcd5a693	-0.026080405
145	0x3c9163b6	0.017747741
146	0xbc43752c	-0.011929791
147	0xbd0ebf52	-0.034850426
148	0xbcb17e8d	-0.02166679
149	0x3c64d8cc	0.013967704
150	0xbcdd7253	-0.027032053
151	0x3ca91fc2	0.020645026
152	0x3c0100ec	0.007873755
153	0x3b44ce30	0.0030030124
154	0x3c0bacc0	0.0085250735
155	0x3c815302	0.015786652
156	0x3bf52e98	0.007482361
157	0xbbd2fa00	-0.0064384937
158	0x3cb23c36	0.021757226
159	0xbd478bb0	-0.0487172
160	0x3c8b4112	0.016998801
161	0xbcb0bc1a	-0.021574069
162	0xbce4b30d	-0.02791741
163	0xbc3d4dc8	-0.011554189
164	0x3c0784c0	0.008271396
165	0xbcd36f13	-0.0258098
166	0xbcc057b0	-0.023479313
167	0x3cb183ba	0.021669257
168	0x3d003401	0.031299595
169	0x3bf803d8	0.0075688176
170	0xbcf89bc3	-0.03034771
171	0xbd207db2	-0.039182372
172	0xbce09c20	-0.027418196
173	0xbbea1690	-0.007143803
174	0xbb65bea0	-0.0035056248
175	0x3bd6fb98	0.006560754
176	0xbc25198c	-0.010076892
177	0x3cbdfa5a	0.023190666
178	0x3d1d4137	0.03839227
179	0xbd3ccac5	-0.046091814
180	0x3c89ef16	0.016837638
181	0xbd16b396	-0.03679236
182	0xbd1d3850	-0.038383782
183	0x3d2d4bf1	0.04230875
184	0x3d13dc75	0.036098916
185	0xbd2b66da	-0.041846134
186	0x3c945042	0.018104676
187	0x3d0eea75	0.034891564
188	0x3c67a38c	0.014138114
189	0x3d24d63b	0.04024337
190	0x3ce2448a	0.027620573
191	0x3c1352e8	0.008991934
192	0x3d39b471	0.045338098
193	0xbd3702b5	-0.044680316
194	0x3c8b4ada	0.017003465
195	0xbd37a5ad	-0.044835735
196	0x3d2af0fb	0.041733723
197	0x3bc85840	0.006114036
198	0xbcaa100d	-0.020759607
199	0x3d077109	0.033066783
200	0xbc99fef7	-0.018798335
201	0xbd16c8d6	-0.036812626
202	0xbd37574a	-0.04476098
203	0x3bd418b0	0.0064726695
204	0xbd3b9bed	-0.045803
205	0xbd423bf0	-0.047420442
206	0x3cbef8b6	0.023311954
207	0xbc9fb453	-0.019495165
208	0x3cad6036	0.021164041
209	0x3cbd465a	0.023104835
210	0xbd488bba	-0.04896138
211	0xbc526620	-0.012841731
212	0xbd35f49b	-0.044422727
213	0xbca87b8d	-0.020566726
214	0x3d1609bd	0.03663038
215	0xbd017e4c	-0.031614587
216	0x3d276ef1	0.040877286
217	0x3cb766f6	0.022387963
218	0x3cbb4b7a	0.022863138
219	0xbccf38c0	-0.025295615
220	0x3cb42022	0.021987978
221	0xbd31a0fa	-0.04336641
222	0xbc9b8783	-0.018985515
223	0x3c798e04	0.015231613
224	0x3d0ab0ab	0.03385989
225	0x3ccfc412	0.025362048
226	0x3c526824	0.012842212
227	0x3cd1cb8a	0.02560975
228	0xbc1b8d88	-0.009494193
229	0xbb7358b0	-0.003713172
230	0x3d4577d7	0.04820999
231	0x3ca0d83e	0.019634362
232	0x3b2089d0	0.0024496205
233	0xbcf544a0	-0.02993995
234	0xbd32b73b	-0.043631773
235	0xbc857966	-0.016293239
236	0x3a9aaca0	0.0011800714
237	0xbcbde833	-0.02318201
238	0xbd0568b2	-0.03257055
239	0xbc2c7bb4	-0.01052754
240	0x3c85ab32	0.016316984
241	0x3d1d3e1b	0.038389307
242	0x3c59942c	0.013279956
243	0x3d414c6b	0.04719202
244	0x3c8f6bf2	0.017507527
245	0xbd406263	-0.04696883
246	0x3c36c800	0.011156082
247	0x3d1fbe81	0.039000038
248	0xbb8f0b50	-0.004365362
249	0xbd2203e5	-0.039554495
250	0x3d1bb5eb	0.038015287
251	0xbd3f8c2d	-0.04676454
252	0x3ceaa46a	0.028642852
253	0x3cfa4fb6	0.030555587
254	0x3b23db20	0.0025002435
255	0x3cd8d3b6	0.02646814

fc1.bias f4 [120]
0	0xbc8b4be0	-0.017003953
1	0x3d1a9619	0.0377408
2	0xbcffdaa0	-0.031232178
3	0xbd3c7fd0	-0.04602033
4	0x3cba4466	0.022737693
5	0xbd0f684b	-0.03501157
6	0x3d02bafb	0.0319166
7	0x3cc9e2ae	0.024644222
8	0xbce8ad60	-0.028402984
9	0x3d41ae0b	0.04728512
10	0x3c7523dc	0.014962163
11	0x3c9195e2	0.017771665
12	0x3c3b43b8	0.01142972
13	0xbd3e4970	-0.046456754
14	0xbc6954c8	-0.014241405
15	0xbc087408	-0.008328445
16	0x3c5a814c	0.013336491
17	0xbc4861b8	-0.012230329
18	0x3cff7c82	0.0311873
19	0x3c093b54	0.008375961
20	0xbcd4f1cd	-0.025994206
21	0x3d2e7b05	0.04259779
22	0xbc92112c	-0.017830454
23	0xbd0349e6	-0.032052897
24	0x3d1bc7a9	0.038032208
25	0xbba42b70	-0.005010061
26	0x3cc6b986	0.024258386
27	0x3d1fac39	0.038982604
28	0xbccaa447	-0.024736537
29	0x3c24c380	0.010056376
30	0xbc9eeddd	-0.019400531
31	0x3d28462f	0.041082557
32	0x3a399b40	0.0007080324
33	0xbd18f96d	-0.037347246
34	0x39a47800	0.00031369925
35	0x3c8285d6	0.015932959
36	0xbd017975	-0.03160997
37	0x3ce598a6	0.02802689
38	0x3d4c087d	0.049812783
39	0x3cdd1f2a	0.0269924
40	0x3cdefd4e	0.027220394
41	0x3d2541f1	0.04034609
42	0x3d3c64e1	0.045994643
43	0x3d436991	0.047708098
44	0xbcee14c0	-0.029062629
45	0xbc5b8118	-0.013397478
46	0x3c084ec8	0.008319564
47	0x3cbb4c2e	0.022863474
48	0xba5f8580	-0.0008526668
49	0x3c52f704	0.012876276
50	0xbd0a22dc	-0.03372465
51	0xbd446873	-0.047951173
52	0xbd06c64c	-0.032903954
53	0x3b530180	0.003219694
54	0x3d29c72d	0.041449714
55	0xbcdba45a	-0.026811767
56	0xbd48faf2	-0.049067445
57	0xbb124750	-0.0022320338
58	0x3d459c47	0.04824474
59	0xbd0c530d	-0.03425889
60	0xbd1fe193	-0.039033484
61	0xbd178ac5	-0.036997575
62	0xbcc12b73	-0.023580289
63	0xbd2dae0b	-0.04240231
64	0xbb8fd2b0	-0.0043891296
65	0x3cb72886	0.02235819
66	0xbb815270	-0.003946595
67	0xbcd65ffd	-0.026168818
68	0x3d35ed2d	0.04441564
69	0xbbdcffc0	-0.006744355
70	0xbc2d228c	-0.010567319
71	0x3c19e208	0.009392269
72	0x3bfeaa28	0.007771749
73	0x3ad46000	0.0016202927
74	0xbd48494b	-0.048898023
75	0x3cecc222	0.028901163
76	0xbcf7cbad	-0.030248487
77	0x3ba77370	0.005110197
78	0x3d0c0399	0.03418312
79	0xbd27df3a	-0.04098437
80	0x3bd8df10	0.006618388
81	0x3d248659	0.040167186
82	0x3c359a14	0.011084098
83	0xbd2c0c45	-0.04200389
84	0x3cf404da	0.02978747
85	0xbd38446a	-0.04498712
86	0xbcc410a3	-0.023933714
87	0x3ca8754e	0.020563748
88	0xbc62b48c	-0.013836991
89	0x3d1c9ed7	0.03823742
90	0x3cbbc482	0.02292085
91	0xbcff3dc7	-0.031157387
92	0x3c6d4fbc	0.014484342
93	0x3d13345f	0.035938617
94	0x3c02a8cc	0.007974815
95	0xbca10227	-0.019654347
96	0x3d0e54d1	0.034748856
97	0xbc6e1fa8	-0.014533915
98	0xbd2a792a	-0.041619457
99	0xbd097812	-0.033561774
100	0x3d06f473	0.03294797
101	0x3a6fd0c0	0.00091482326
102	0x3c898852	0.016788635
103	0x3b616e30	0.0034397952
104	0xbc7ce9f8	-0.015436642
105	0xbd1ca363	-0.038241755
106	0xbb97c640	-0.0046317875
107	0x3d4cb2e1	0.04997528
108	0xbd3479b7	-0.04406139
109	0xbc19222c	-0.009346526
110	0xbbf17a90	-0.007369347
111	0x3d45eff7	0.04832455
112	0x3cc352d2	0.023843203
113	0xbd1b10a0	-0.03785765
114	0xbd2d2b07	-0.042277362
115	0xbd139e63	-0.03603972
116	0x3ca41362	0.020028774
117	0xbd3dedda	-0.04636941
118	0x3d326cff	0.043560978
119	0x3b912240	0.0044291317

fc2.weight f4 [84, 120]
0	0x3d87eaec	0.06636605
1	0xbcaa22e0	-0.020768583
2	0x3d9c5a58	0.07634419
3	0xbc4d84d8	-0.012543879
4	0x3b607d00	0.0034254193
5	0x3d9a55a6	0.075358674
6	0x3d675314	0.056475714
7	0xbd89b7ea	-0.06724532
8	0xbdae03f4	-0.08496848
9	0x3d143644	0.036184564
10	0xbd7ee23e	-0.06222748
11	0x3dadf4c0	0.08493948
12	0x3da2c37c	0.07947442
13	0xbda20695	-0.07911412
14	0xbcf66ff6	-0.030082684
15	0xbc701588	-0.014653571
16	0xbd7000c1	-0.05859447
17	0xbcab055c	-0.020876579
18	0xbcb7bea8	-0.02242978
19	0x3d2085a8	0.039189965
20	0x3c3d2c20	0.011546165
21	0x3cfab644	0.03060449
22	0x3c53db28	0.012930669
23	0x3d24ec18	0.04026422
24	0xbda8a0f1	-0.08233822
25	0xbdba3ca4	-0.090935975
26	0x3d963204	0.073337585
27	0x3d1f71c8	0.03892687
28	0xbaffde40	-0.0019521192
29	0x3cb26dd8	0.021780893
30	0xbcb07440	-0.021539807
31	0xbcdd1aa0	-0.026990235
32	0x3c310a50	0.010805681
33	0x3c95081c	0.018192343
34	0xbcdad2a4	-0.02671177
35	0x3d52f6c8	0.05150488
36	0xbd5fcc05	-0.054637928
37	0x3c4ff0f0	0.012691721
38	0x3da06554	0.07831827
39	0xbdb15a8b	-0.08659848
40	0xbd914f6d	-0.070952274
41	0xbdb20d6d	-0.08693967
42	0x3d317a18	0.04332933
43	0x3d8f0f64	0.069853574
44	0xbbec0240	-0.0072024167
45	0x3d2437a4	0.040092126
46	0xbd052b7c	-0.032512173
47	0x3d9655ba	0.0734057
48	0xbd7a2c69	-0.06107751
49	0x3d597924	0.053094044
50	0xbbd88c40	-0.006608516
51	0xbd847742	-0.06468059
52	0x3d349b5c	0.044093475
53	0x3d980502	0.0742283
54	0x3d8f2e42	0.06991245
55	0xbc95f498	-0.018305108
56	0x3ce94fc0	0.02848041
57	0xbd8b98d3	-0.06816258
58	0xbd10e994	-0.035379007
59	0xbdb16815	-0.0866243
60	0x3c1df738	0.009641461
61	0xbc3b7fa0	-0.011444002
62	0x3b40b300	0.0029403567
63	0x3d6a07f0	0.057136476
64	0x3d2cf33c	0.042224154
65	0xbc9d0e38	-0.01917182
66	0x3dabf74e	0.08396779
67	0xbd93af68	-0.072111905
68	0xbda92fee	-0.08261095
69	0xbc58b070	-0.01322566
70	0xbdafe6ea	-0.08588965
71	0x3c759080	0.014988065
72	0xbcb4e4f4	-0.02208183
73	0xbdaddd51	-0.084894784
74	0xbd2e81e8	-0.042604357
75	0x3d1ba450	0.037998497
76	0x3d86990a	0.06572159
77	0xbc6f0830	-0.014589354
78	0x3cbff464	0.023431964
79	0x3d8439f4	0.06456366
80	0xbc62ac00	-0.013834953
81	0x3d90ebca	0.07076223
82	0x3da6941a	0.08133717
83	0x3b9b2c60	0.0047355145
84	0x3cd1c4cc	0.025606535
85	0xbb47ed00	-0.0030506253
86	0x3ccbc1d4	0.024872698
87	0x3c5c1410	0.013432518
88	0xbbc44520	-0.0059896857
89	0xbc6d6d98	-0.014491461
90	0x3d34b4fc	0.044117913
91	0xbd520172	-0.05127091
92	0x3d0cf8b0	0.034416854
93	0xbd9e8468	-0.07740098
94	0x3d9ce8be	0.076615795
95	0xbc6370e8	-0.013881899
96	0xbca618bc	-0.020275466
97	0xbd94b8cc	-0.0726181
98	0x3c8035f4	0.015650727
99	0xbd67c1a0	-0.05658114
100	0xbd934c08	-0.07192236
101	0xbd953582	-0.072855964
102	0xbcabecf0	-0.020987004
103	0x3cd4347c	0.025903933
104	0xbcfc8a8c	-0.030827783
105	0x3d156e34	0.03648205
106	0x3d7fda18	0.06246385
107	0x3d6474c0	0.055775404
108	0x3d8f26fe	0.06989859
109	0xbbf12870	-0.007359557
110	0xbd74f802	-0.05980683
111	0xbc66c558	-0.014085136
112	0x3db41f4e	0.087950334
113	0x3d038150	0.032105744
114	0x3da83b4a	0.082144335
115	0x3bd0ed80	0.0063759685
116	0x3d62f254	0.055406883
117	0x3d0d4c38	0.034496516
118	0x3d7394e8	0.05946818
119	0x3d6c4b18	0.057688802
120	0xbd151052	-0.036392517
121	0x3dba0c6e	0.09084402
122	0xbd8c4bbb	-0.06850382
123	0xbc42a070	-0.011879072
124	0x3d829936	0.06376879
125	0xbc4c4290	-0.012467042
126	0x3db23252	0.08701004
127	0xbdab916c	-0.083773464
128	0x3d379250	0.04481727
129	0x3d423714	0.047415808
130	0x3ca1f2dc	0.019769125
131	0x3cf22b88	0.029561773
132	0x3bcfd590	0.0063425973
133	0x3d271c70	0.040798604
134	0xbc1fcf20	-0.009753972
135	0xbd7839cd	-0.060601998
136	0x3d9fffc0	0.07812452
137	0xbd96432f	-0.07337033
138	0x3d169350	0.036761582
139	0x3d7a6cf8	0.061139077
140	0xbd64446d	-0.05572932
141	0xbd62f634	-0.05541058
142	0x3da8d710	0.08244145
143	0xbc9393f8	-0.018014893
144	0xbd8349ac	-0.06410536
145	0xbd961600	-0.07328415
146	0x3d18a730	0.037268817
147	0xbd48f0ea	-0.04905788
148	0xbdb09c12	-0.08623518
149	0xbd854ac7	-0.06508403
150	0x3d6aeb48	0.057353288
151	0xbbc54ba0	-0.006020978
152	0xbc539c00	-0.012915611
153	0xbd9ea33b	-0.077459775
154	0xbd3daf10	-0.04630953
155	0xbd3a5a9f	-0.04549658
156	0xbcfcc724	-0.030856676
157	0x3c960f70	0.018317908
158	0x3caaf298	0.02086763
159	0x3d9b6f5e	0.07589601
160	0x3d2decb4	0.042462066
161	0xbd8de3b3	-0.06928196
162	0x3c734218	0.014847301
163	0xbd93d80e	-0.072189435
164	0x3c63b5f0	0.013898358
165	0x3d9f2122	0.077699915
166	0xbd2bb4d6	-0.041920505
167	0xbc75bf80	-0.01499927
168	0xbdb380fa	-0.08764835
169	0xbd04779a	-0.032340623
170	0x3bc012a0	0.0058615953
171	0x3d9e3f9a	0.07726975
172	0xbd8b22a8	-0.067937195
173	0xbc97f404	-0.018548973
174	0x3d352b70	0.04423088
175	0xbda15ebf	-0.078793995
176	0x3c70d688	0.014699586
177	0xbd29fc80	-0.04150057
178	0xbc2488f8	-0.0100424215
179	0x3d60a728	0.054846913
180	0x3d284b98	0.041087717
181	0xbc15d050	-0.009143904
182	0xbd01aeb2	-0.031660743
183	0xbbb22070	-0.0054359958
184	0xbd4982ce	-0.04919701
185	0x3d888f9e	0.06668018
186	0xbd5e1d1f	-0.05422699
187	0x3c08c820	0.008348495
188	0xbd57e244	-0.052706018
189	0x3c9743a0	0.018464863
190	0xbd8654b8	-0.065591276
191	0xbcb4a1a8	-0.02204974
192	0x3b858e60	0.0040758103
193	0x3c3c8250	0.011505678
194	0xbd1300e6	-0.03588953
195	0xbad345c0	-0.001611881
196	0x3c149020	0.009067565
197	0xbd9867e3	-0.0744169
198	0xbce1bb48	-0.027555123
199	0x3bfc5bf0	0.0077013895
200	0x3d991830	0.074753165
201	0xbcc923ac	-0.024553142
202	0xbcf7b4d4	-0.030237593
203	0x3bc804f0	0.006104104
204	0x3d58fc28	0.05297485
205	0xbd8adbd8	-0.06780213
206	0xbcbedd94	-0.023299016
207	0x3d2f8900	0.042855263
208	0xbd8e029e	-0.06934093
209	0x3d3e2b90	0.046428263
210	0x3d010376	0.03149744
211	0xbd04b57f	-0.03239965
212	0x3bc82b00	0.0061086416
213	0x3d04a920	0.032387853
214	0xbd9e057a	-0.07715888
215	0xbdb4116a	-0.08792384
216	0x3c46c880	0.012132764
217	0x3db16b04	0.0866299
218	0x3d28a230	0.0411703
219	0xbb4d78c0	-0.003135249
220	0xbd187f10	-0.03723055
221	0x3cf2775c	0.02959793
222	0x3c637be0	0.013884515
223	0x3d46daa0	0.04854834
224	0xbcff997e	-0.03120112
225	0xbd1aadda	-0.037763454
226	0xbb7ef480	-0.0038903058
227	0xbdb55186	-0.0885344
228	0x3d037c30	0.032100856
229	0xbd037a88	-0.032099277
230	0x3d902102	0.07037546
231	0x3d8e21b8	0.06940025
232	0x3d330de0	0.043714404
233	0x3b850e50	0.004060544
234	0xbcea6fc4	-0.028617747
235	0xbd3b2a76	-0.04569479
236	0x3d7af4f8	0.061268777
237	0x3c1698d0	0.009191707
238	0x3da0743a	0.078346685
239	0x3d7e32cc	0.062060162
240	0xbcf3d258	-0.029763386
241	0x3d31000c	0.043212935
242	0x3be4ca00	0.006982088
243	0xbd7ed62c	-0.06221597
244	0x3da66b60	0.08125949
245	0xbd01d2c4	-0.031695142
246	0xbda1de5e	-0.07903741
247	0x3d0e2414	0.034702376
248	0x3d995344	0.07486585
249	0x3b40b900	0.0029407144
250	0x3d8793f2	0.06620015
251	0x3cd94478	0.026521906
252	0x3db17324	0.086645395
253	0x3d2d68dc	0.04233633
254	0xbd94f26b	-0.072728
255	0xbd001c19	-0.031276796

fc2.bias f4 [84]
0	0xbd60fde3	-0.054929625
1	0xbdb6cc17	-0.08925646
2	0x3ce11090	0.027473718
3	0x3d078a3a	0.033090807
4	0xbc2fc668	-0.010728456
5	0xbd9e9532	-0.077433005
6	0xbd9b6af9	-0.07588763
7	0x3c377ab0	0.011198685
8	0xbd1774a1	-0.03697646
9	0xbd8a185a	-0.06742926
10	0xbd349e45	-0.04409625
11	0xbb818bc0	-0.003953427
12	0x3d76d118	0.060258
13	0xbdaf338a	-0.08554752
14	0xbdaf5005	-0.085601844
15	0xbdb95836	-0.09050028
16	0xbd06ba63	-0.032892596
17	0x3cf41668	0.02979584
18	0x3cb4021c	0.021973662
19	0x3c96d9b8	0.018414363
20	0x3d95b660	0.07310176
21	0xbd577e4f	-0.05261069
22	0x3d95506c	0.0729073
23	0x3da703d2	0.081550255
24	0xbd192098	-0.0373846
25	0x3d810148	0.062990725
26	0x3d16c914	0.036812857
27	0x3db0b090	0.086274266
28	0x3c2317a8	0.009954371
29	0xbd7f11ab	-0.06227271
30	0x3d26b484	0.040699497
31	0xbdaa46c6	-0.0831428
32	0xbd895e49	-0.067074366
33	0xb8db7c00	-0.000104658306
34	0xbd3e940b	-0.046527904
35	0xbc10d8f8	-0.008840792
36	0x3d76762c	0.06017129
37	0x3c8a4a34	0.016881086
38	0x3d36feb4	0.044676498
39	0x3da9dbee	0.082939014
40	0xbd8495ad	-0.06473861
41	0x3c9b427c	0.0189526
42	0xbd0f6042	-0.035003908
43	0x3d12fca0	0.035885453
44	0xbb984dd0	-0.004647948
45	0xbc737ac0	-0.014860809
46	0xbb686520	-0.0035460666
47	0xbce01d28	-0.027357653
48	0x3d60a50c	0.0548449
49	0xbc29b788	-0.010358699
50	0xbcc456fc	-0.023967259
51	0x3d9be4d0	0.07612002
52	0xbb6300e0	-0.0034637973
53	0xbd6d1791	-0.057883803
54	0xbd33cd0a	-0.043896712
55	0x3d80b946	0.06285338
56	0x3d767e20	0.060178876
57	0xbd9e290b	-0.07722672
58	0xbd9951e4	-0.074863225
59	0xbd8ddcb1	-0.06926859
60	0x3db1b48e	0.08677016
61	0xbd9f6c9f	-0.0778439
62	0x3a41d780	0.0007394478
63	0x3d68080c	0.0566483
64	0xbdb48721	-0.08814836
65	0xbd3da56e	-0.046300344
66	0x3b51e020	0.0032024458
67	0x3d8988b4	0.06715527
68	0x3c9b8728	0.018985346
69	0x3db2dfc6	0.08734088
70	0x3c24b4a0	0.01005283
71	0xbd7e3568	-0.06206265
72	0xbdb8aca6	-0.09017305
73	0xbcdfe128	-0.027329043
74	0xbc009100	-0.007847071
75	0x3d879e16	0.066219494
76	0x3d9f590e	0.07780658
77	0x3d8b86f6	0.06812851
78	0x3cddffbc	0.027099483
79	0x3d720b60	0.05909288
80	0xbd4d9fb5	-0.050201137
81	0x3db29e2e	0.08721577
82	0xbda29d71	-0.07940186
83	0x3d505c54	0.0508693

fc3.weight f4 [10, 84]
0	0xbc3f6450	-0.011681631
1	0xbaeb2a00	-0.0017941594
2	0xbd80ec66	-0.062950894
3	0x3cbcf184	0.023064382
4	0x3d13dc62	0.036098845
5	0x3dd79823	0.10527065
6	0xbd3ab97a	-0.04558704
7	0x3d054e2a	0.032545246
8	0x3d840653	0.06446519
9	0x3cfa7afc	0.030576222
10	0xbd2221b0	-0.03958291
11	0xbc88fe60	-0.016722858
12	0x3dd7b7ab	0.10533079
13	0x3d335262	0.04377974
14	0x3db5ce83	0.088772796
15	0xbd89408a	-0.06701763
16	0x3d8d0f17	0.06887644
17	0xbba95530	-0.005167626
18	0x3db600f9	0.08886904
19	0x3dcf99a5	0.10136727
20	0x3caa0044	0.02075208
21	0xbc369e78	-0.01114618
22	0xbd8b9001	-0.06814576
23	0x3d94af9b	0.072600566
24	0x3d891507	0.06693464
25	0x3bbead60	0.0058190078
26	0xbca0edec	-0.0196447
27	0xbcb45f74	-0.022018172
28	0xbda719ec	-0.08159241
29	0xbcde3058	-0.027122661
30	0x3d991789	0.07475192
31	0x3d393486	0.045216106
32	0x3d5c2e9a	0.05375538
33	0xbd56e5cf	-0.052465256
34	0x3db905b7	0.09034293
35	0xbc0c27e0	-0.008554429
36	0xbdc8452d	-0.09778819
37	0xbdc79fe0	-0.097472906
38	0x3d5d8282	0.05407954
39	0xbd7305a3	-0.059331547
40	0xbcd8e570	-0.026476592
41	0x3db9b73d	0.09068153
42	0xbd06a084	-0.032867923
43	0x3c279860	0.0102292
44	0x3d97796b	0.073962055
45	0xbc8460dc	-0.016159467
46	0xbc737e18	-0.014861606
47	0xbdbee72e	-0.09321438
48	0xbd8ed434	-0.06974068
49	0xbdc395f6	-0.09550087
50	0xbc069e98	-0.008216523
51	0x3dd90d19	0.10598201
52	0xbdd56bc1	-0.10420943
53	0xbcbf840c	-0.023378395
54	0xbd70bd70	-0.05877441
55	0x3d5d11d2	0.053972073
56	0x3d9c428f	0.076298825
57	0x3d659c76	0.056057416
58	0xbb704440	-0.0036661774
59	0xbc585fa0	-0.0132063925
60	0x3da6e4a1	0.08149076
61	0xbd0de3d4	-0.034641102
62	0x3d2c2072	0.04202313
63	0x3dd369d1	0.10322917
64	0xbc9e877c	-0.019351713
65	0xbd73f5a2	-0.059560426
66	0xbd7c5c5d	-0.061611522
67	0x3d4f6ca2	0.05064071
68	0x3c9f7e04	0.019469269
69	0x3d2f6f82	0.04283095
70	0xbb9c69d0	-0.004773356
71	0x3dc2bd31	0.09508742
72	0xbdb996b0	-0.090619445
73	0xbc2d9840	-0.010595381
74	0xbd09b076	-0.033615552
75	0x3d869097	0.06570547
76	0xbda21294	-0.079137
77	0xbb9487a0	-0.0045327693
78	0xbcf87918	-0.03033118
79	0x3d96f439	0.073708005
80	0x3d5bf8c2	0.05370403
81	0x3d98169f	0.0742619
82	0xbcdd4a00	-0.027012825
83	0x3cde1624	0.027110167
84	0xbd4cb59d	-0.049977887
85	0x3dd6b875	0.10484401
86	0xbdde29e9	-0.108478375
87	0x3ade4fc0	0.0016961023
88	0xbdd1fc0c	-0.10253152
89	0xbdcf3b42	-0.101187244
90	0xbdcd4722	-0.10023333
91	0x3d2db54e	0.042409234
92	0xbc9e6378	-0.01933454
93	0xbdd8164a	-0.10551126
94	0xbd12da40	-0.03585267
95	0xbd6addc1	-0.057340387
96	0x3dab6a9b	0.08369943
97	0x3d4f385e	0.050590865
98	0xbcfaaf44	-0.030601151
99	0x3befb640	0.007315427
100	0xbdde8bf0	-0.10866535
101	0xbcfbf7bc	-0.030757777
102	0xbd10e3fc	-0.035373673
103	0x3d191ff6	0.037383996
104	0x3d292f02	0.041304596
105	0xbcd207dc	-0.025638513
106	0x3ddc7123	0.107637666
107	0xbd59ad2c	-0.053143665
108	0xbd908a12	-0.07057585
109	0x3dd0ab7d	0.10188959
110	0xbceafec0	-0.028685927
111	0x3d89d63d	0.06730316
112	0xbd003390	-0.031299174
113	0x3d3aacba	0.04557488
114	0x3dd98807	0.10621648
115	0xbd8640b8	-0.06555313
116	0xbd91a032	-0.07110633
117	0x3d01059e	0.031499498
118	0xbcb68f7c	-0.022285216
119	0xbbd8acb0	-0.006612383
120	0x3d421c9e	0.047390573
121	0x3c83a2b4	0.016068794
122	0x3cc0ce84	0.023535974
123	0x3dafd9fb	0.08586498
124	0xbd28aa76	-0.04117819
125	0x3d4844b2	0.048893638
126	0xbd8d3c2b	-0.06896242
127	0x3d91206d	0.07086263
128	0x3dd4ea19	0.10396213
129	0x3c85c0dc	0.016327314
130	0xbc447028	-0.011989631
131	0x3dc20f21	0.09475542
132	0xbd179c3c	-0.03701423
133	0xbc6ab658	-0.014325701
134	0xbd31b776	-0.043387853
135	0x3d8ee1a7	0.069766335
136	0xbd966b8c	-0.07344732
137	0xbd3f3eee	-0.046690874
138	0x3ddaa70b	0.10676392
139	0xbdd3e966	-0.103472516
140	0x3dbe6815	0.09297196
141	0x3c0847c0	0.008317888
142	0x3ce4fd14	0.027952708
143	0x3d0ec182	0.034852512
144	0xbb8bf3e0	-0.0042710155
145	0x3ce6b38c	0.028161786
146	0x3d292b6a	0.04130117
147	0xbd49f882	-0.04930926
148	0xbce3bde8	-0.027800515
149	0xbd83051e	-0.063974604
150	0xbdda4aea	-0.1065882
151	0xbddca3e7	-0.107734494
152	0xbdb267e3	-0.08711221
153	0x3dde12a7	0.108434014
154	0xbd05f698	-0.032705873
155	0x3dd12e83	0.102139495
156	0x3dc3cb53	0.095602654
157	0x3d805ca5	0.062676705
158	0xbca589d0	-0.020207316
159	0x3d2fc2ce	0.04291039
160	0xbca894e4	-0.02057881
161	0x3dd91c81	0.1060114
162	0x3c356d00	0.011073351
163	0x3d5b25c6	0.05350282
164	0x3dd90ad5	0.10597769
165	0x3d13299a	0.035928346
166	0x3bd0e3d0	0.0063748136
167	0xbd1d3170	-0.038377225
168	0x3d9ef6a5	0.077618875
169	0x3cae05b4	0.021242954
170	0x3c74a320	0.01493147
171	0xbd149970	-0.036279142
172	0x3cbbd1dc	0.022927217
173	0x3dce31db	0.10068103
174	0x3c6d4b38	0.014483266
175	0x3dc2d29d	0.095128275
176	0xbd1285bc	-0.03577207
177	0x3dc4d69b	0.09611245
178	0xbd8fef63	-0.07028081
179	0xbdde6b9a	-0.10860367
180	0x3dc8b9ab	0.09801038
181	0x3d400d52	0.046887703
182	0xbd8107b4	-0.063002974
183	0x3dd0b5a7	0.101908974
184	0x3c3d6910	0.011560693
185	0xbd2c0024	-0.04199232
186	0x3d2ae5b2	0.04172296
187	0x3d8d18b7	0.068894796
188	0x3d50087a	0.050789334
189	0x3d836973	0.06416597
190	0xbdd4c689	-0.1038943
191	0x3cbf9cbc	0.023390166
192	0xbceb1ac4	-0.028699286
193	0xbda0c06b	-0.07849201
194	0xbd702166	-0.0586256
195	0x3d1ed04a	0.03877286
196	0xbd79e692	-0.061010905
197	0xbdb9b53d	-0.090677716
198	0x3d4b8cda	0.049694873
199	0xbd0dc7c6	-0.034614347
200	0x3ccc7dbc	0.024962299
201	0xbc264c08	-0.010149963
202	0x3d9db827	0.0770114
203	0x3d1aca8a	0.037790813
204	0xbdbbdee0	-0.091733694
205	0x3da64793	0.081191204
206	0xbdd05ede	-0.101743445
207	0x3db0150d	0.08597765
208	0xbdb56db2	-0.08858813
209	0x3d902465	0.07038192
210	0xbc944d9c	-0.018103413
211	0xbd0a0bdc	-0.033702716
212	0x3d74e6c6	0.059790395
213	0xbc4faf40	-0.01267606
214	0x3cbf421c	0.023346953
215	0xbc8765d8	-0.016528055
216	0xbd8e2c68	-0.069420636
217	0xbb863ae0	-0.004096374
218	0x3da6278d	0.081130125
219	0x3c0de840	0.00866133
220	0x3cf084ac	0.029360138
221	0x3d9caf63	0.0765064
222	0xbcacd764	-0.0210988
223	0x3cbbf774	0.022945143
224	0xbd3e5e54	-0.046476677
225	0xbc99cff4	-0.018775918
226	0xbda6c4f4	-0.081430346
227	0xbd878fba	-0.066192105
228	0x3d28bb96	0.04119452
229	0x3d38c482	0.04510928
230	0x3dd87027	0.10568266
231	0xbb3f2920	-0.00291688
232	0xbdaeca4d	-0.085346796
233	0x3d9f6a1b	0.0778391
234	0x3c87f7ec	0.01659771
235	0xbda44e34	-0.080227286
236	0xbd1fd500	-0.039021492
237	0x3c882fc4	0.016624339
238	0x3b8ba550	0.00426165
239	0x3db0208b	0.08599957
240	0x3d18ef22	0.03733743
241	0xbd1e721c	-0.038683042
242	0xbd9366d3	-0.071973465
243	0x3dca67cf	0.09883081
244	0xbce9457c	-0.028475516
245	0xbb1773e0	-0.0023109838
246	0xbd7d83f7	-0.06189343
247	0xbb43bb60	-0.0029866323
248	0xbcf388d4	-0.02972833
249	0x3c7a3560	0.015271515
250	0xbd9e209d	-0.07721064
251	0x3c314a10	0.0108208805
252	0xbd96bcb4	-0.07360211
253	0x3dd1d4a1	0.10245634
254	0x3d17609e	0.036957376
255	0x3c6beaa0	0.014399201

fc3.bias f4 [10]
0	0xbd89ca82	-0.067280784
1	0xbcb67764	-0.022273727
2	0x3ad4aa40	0.0016225055
3	0xbd1db94c	-0.03850679
4	0xbd3e0990	-0.04639584
5	0x3d3823ee	0.04495614
6	0xbcc272c8	-0.023736373
7	0xbd0c9d6a	-0.03432981
8	0xbc8e48d8	-0.017368719
9	0x3ccc5354	0.024942078
